node {
  name: "global_step/Initializer/zeros"
  op: "Const"
  attr {
    key: "_class"
    value {
      list {
        s: "loc:@global_step"
      }
    }
  }
  attr {
    key: "_output_shapes"
    value {
      list {
        shape {
        }
      }
    }
  }
  attr {
    key: "dtype"
    value {
      type: DT_INT64
    }
  }
  attr {
    key: "value"
    value {
      tensor {
        dtype: DT_INT64
        tensor_shape {
        }
        int64_val: 0
      }
    }
  }
}
node {
  name: "global_step"
  op: "VarHandleOp"
  attr {
    key: "_class"
    value {
      list {
        s: "loc:@global_step"
      }
    }
  }
  attr {
    key: "_output_shapes"
    value {
      list {
        shape {
        }
      }
    }
  }
  attr {
    key: "container"
    value {
      s: ""
    }
  }
  attr {
    key: "dtype"
    value {
      type: DT_INT64
    }
  }
  attr {
    key: "shape"
    value {
      shape {
      }
    }
  }
  attr {
    key: "shared_name"
    value {
      s: "global_step"
    }
  }
}
node {
  name: "global_step/IsInitialized/VarIsInitializedOp"
  op: "VarIsInitializedOp"
  input: "global_step"
  attr {
    key: "_output_shapes"
    value {
      list {
        shape {
        }
      }
    }
  }
}
node {
  name: "global_step/Assign"
  op: "AssignVariableOp"
  input: "global_step"
  input: "global_step/Initializer/zeros"
  attr {
    key: "dtype"
    value {
      type: DT_INT64
    }
  }
}
node {
  name: "global_step/Read/ReadVariableOp"
  op: "ReadVariableOp"
  input: "global_step"
  attr {
    key: "_output_shapes"
    value {
      list {
        shape {
        }
      }
    }
  }
  attr {
    key: "dtype"
    value {
      type: DT_INT64
    }
  }
}
node {
  name: "global_step/VarIsInitializedOp"
  op: "VarIsInitializedOp"
  input: "global_step"
  attr {
    key: "_output_shapes"
    value {
      list {
        shape {
        }
      }
    }
  }
}
node {
  name: "global_step/cond"
  op: "If"
  input: "global_step/VarIsInitializedOp"
  input: "global_step"
  input: "global_step/Initializer/zeros"
  attr {
    key: "Tcond"
    value {
      type: DT_BOOL
    }
  }
  attr {
    key: "Tin"
    value {
      list {
        type: DT_RESOURCE
        type: DT_INT64
      }
    }
  }
  attr {
    key: "Tout"
    value {
      list {
        type: DT_INT64
      }
    }
  }
  attr {
    key: "_lower_using_switch_merge"
    value {
      b: true
    }
  }
  attr {
    key: "_output_shapes"
    value {
      list {
        shape {
        }
      }
    }
  }
  attr {
    key: "else_branch"
    value {
      func {
        name: "global_step_cond_false_7"
      }
    }
  }
  attr {
    key: "output_shapes"
    value {
      list {
        shape {
        }
      }
    }
  }
  attr {
    key: "then_branch"
    value {
      func {
        name: "global_step_cond_true_6"
      }
    }
  }
}
node {
  name: "global_step/cond/Identity"
  op: "Identity"
  input: "global_step/cond"
  attr {
    key: "T"
    value {
      type: DT_INT64
    }
  }
  attr {
    key: "_output_shapes"
    value {
      list {
        shape {
        }
      }
    }
  }
}
node {
  name: "global_step/add/y"
  op: "Const"
  attr {
    key: "_output_shapes"
    value {
      list {
        shape {
        }
      }
    }
  }
  attr {
    key: "dtype"
    value {
      type: DT_INT64
    }
  }
  attr {
    key: "value"
    value {
      tensor {
        dtype: DT_INT64
        tensor_shape {
        }
        int64_val: 0
      }
    }
  }
}
node {
  name: "global_step/add"
  op: "AddV2"
  input: "global_step/cond/Identity"
  input: "global_step/add/y"
  attr {
    key: "T"
    value {
      type: DT_INT64
    }
  }
  attr {
    key: "_output_shapes"
    value {
      list {
        shape {
        }
      }
    }
  }
}
node {
  name: "list_files/file_pattern"
  op: "Const"
  device: "/device:CPU:0"
  attr {
    key: "_output_shapes"
    value {
      list {
        shape {
        }
      }
    }
  }
  attr {
    key: "dtype"
    value {
      type: DT_STRING
    }
  }
  attr {
    key: "value"
    value {
      tensor {
        dtype: DT_STRING
        tensor_shape {
        }
        string_val: "./taxi-train.csv"
      }
    }
  }
}
node {
  name: "list_files/MatchingFiles"
  op: "MatchingFiles"
  input: "list_files/file_pattern"
  device: "/device:CPU:0"
  attr {
    key: "_output_shapes"
    value {
      list {
        shape {
          dim {
            size: -1
          }
        }
      }
    }
  }
}
node {
  name: "list_files/Shape"
  op: "Shape"
  input: "list_files/MatchingFiles"
  device: "/device:CPU:0"
  attr {
    key: "T"
    value {
      type: DT_STRING
    }
  }
  attr {
    key: "_output_shapes"
    value {
      list {
        shape {
          dim {
            size: 1
          }
        }
      }
    }
  }
  attr {
    key: "out_type"
    value {
      type: DT_INT32
    }
  }
}
node {
  name: "list_files/strided_slice/stack"
  op: "Const"
  device: "/device:CPU:0"
  attr {
    key: "_output_shapes"
    value {
      list {
        shape {
          dim {
            size: 1
          }
        }
      }
    }
  }
  attr {
    key: "dtype"
    value {
      type: DT_INT32
    }
  }
  attr {
    key: "value"
    value {
      tensor {
        dtype: DT_INT32
        tensor_shape {
          dim {
            size: 1
          }
        }
        int_val: 0
      }
    }
  }
}
node {
  name: "list_files/strided_slice/stack_1"
  op: "Const"
  device: "/device:CPU:0"
  attr {
    key: "_output_shapes"
    value {
      list {
        shape {
          dim {
            size: 1
          }
        }
      }
    }
  }
  attr {
    key: "dtype"
    value {
      type: DT_INT32
    }
  }
  attr {
    key: "value"
    value {
      tensor {
        dtype: DT_INT32
        tensor_shape {
          dim {
            size: 1
          }
        }
        int_val: 1
      }
    }
  }
}
node {
  name: "list_files/strided_slice/stack_2"
  op: "Const"
  device: "/device:CPU:0"
  attr {
    key: "_output_shapes"
    value {
      list {
        shape {
          dim {
            size: 1
          }
        }
      }
    }
  }
  attr {
    key: "dtype"
    value {
      type: DT_INT32
    }
  }
  attr {
    key: "value"
    value {
      tensor {
        dtype: DT_INT32
        tensor_shape {
          dim {
            size: 1
          }
        }
        int_val: 1
      }
    }
  }
}
node {
  name: "list_files/strided_slice"
  op: "StridedSlice"
  input: "list_files/Shape"
  input: "list_files/strided_slice/stack"
  input: "list_files/strided_slice/stack_1"
  input: "list_files/strided_slice/stack_2"
  device: "/device:CPU:0"
  attr {
    key: "Index"
    value {
      type: DT_INT32
    }
  }
  attr {
    key: "T"
    value {
      type: DT_INT32
    }
  }
  attr {
    key: "_output_shapes"
    value {
      list {
        shape {
        }
      }
    }
  }
  attr {
    key: "begin_mask"
    value {
      i: 0
    }
  }
  attr {
    key: "ellipsis_mask"
    value {
      i: 0
    }
  }
  attr {
    key: "end_mask"
    value {
      i: 0
    }
  }
  attr {
    key: "new_axis_mask"
    value {
      i: 0
    }
  }
  attr {
    key: "shrink_axis_mask"
    value {
      i: 1
    }
  }
}
node {
  name: "list_files/match_not_empty/y"
  op: "Const"
  device: "/device:CPU:0"
  attr {
    key: "_output_shapes"
    value {
      list {
        shape {
        }
      }
    }
  }
  attr {
    key: "dtype"
    value {
      type: DT_INT32
    }
  }
  attr {
    key: "value"
    value {
      tensor {
        dtype: DT_INT32
        tensor_shape {
        }
        int_val: 0
      }
    }
  }
}
node {
  name: "list_files/match_not_empty"
  op: "Greater"
  input: "list_files/strided_slice"
  input: "list_files/match_not_empty/y"
  device: "/device:CPU:0"
  attr {
    key: "T"
    value {
      type: DT_INT32
    }
  }
  attr {
    key: "_output_shapes"
    value {
      list {
        shape {
        }
      }
    }
  }
}
node {
  name: "list_files/ReduceJoin/Const"
  op: "Const"
  device: "/device:CPU:0"
  attr {
    key: "_output_shapes"
    value {
      list {
        shape {
          dim {
          }
        }
      }
    }
  }
  attr {
    key: "dtype"
    value {
      type: DT_INT32
    }
  }
  attr {
    key: "value"
    value {
      tensor {
        dtype: DT_INT32
        tensor_shape {
          dim {
          }
        }
      }
    }
  }
}
node {
  name: "list_files/ReduceJoin/ReduceJoin"
  op: "ReduceJoin"
  input: "list_files/file_pattern"
  input: "list_files/ReduceJoin/Const"
  device: "/device:CPU:0"
  attr {
    key: "_output_shapes"
    value {
      list {
        shape {
        }
      }
    }
  }
  attr {
    key: "keep_dims"
    value {
      b: false
    }
  }
  attr {
    key: "separator"
    value {
      s: ", "
    }
  }
}
node {
  name: "list_files/message/x"
  op: "Const"
  device: "/device:CPU:0"
  attr {
    key: "_output_shapes"
    value {
      list {
        shape {
        }
      }
    }
  }
  attr {
    key: "dtype"
    value {
      type: DT_STRING
    }
  }
  attr {
    key: "value"
    value {
      tensor {
        dtype: DT_STRING
        tensor_shape {
        }
        string_val: "No files matched pattern: "
      }
    }
  }
}
node {
  name: "list_files/message"
  op: "Add"
  input: "list_files/message/x"
  input: "list_files/ReduceJoin/ReduceJoin"
  device: "/device:CPU:0"
  attr {
    key: "T"
    value {
      type: DT_STRING
    }
  }
  attr {
    key: "_output_shapes"
    value {
      list {
        shape {
        }
      }
    }
  }
}
node {
  name: "list_files/assert_not_empty/Assert"
  op: "Assert"
  input: "list_files/match_not_empty"
  input: "list_files/message"
  device: "/device:CPU:0"
  attr {
    key: "T"
    value {
      list {
        type: DT_STRING
      }
    }
  }
  attr {
    key: "summarize"
    value {
      i: 1
    }
  }
}
node {
  name: "list_files/Identity"
  op: "Identity"
  input: "list_files/MatchingFiles"
  input: "^list_files/assert_not_empty/Assert"
  device: "/device:CPU:0"
  attr {
    key: "T"
    value {
      type: DT_STRING
    }
  }
  attr {
    key: "_output_shapes"
    value {
      list {
        shape {
          dim {
            size: -1
          }
        }
      }
    }
  }
}
node {
  name: "list_files/TensorSliceDataset"
  op: "TensorSliceDataset"
  input: "list_files/Identity"
  device: "/device:CPU:0"
  attr {
    key: "Toutput_types"
    value {
      list {
        type: DT_STRING
      }
    }
  }
  attr {
    key: "_output_shapes"
    value {
      list {
        shape {
        }
      }
    }
  }
  attr {
    key: "output_shapes"
    value {
      list {
        shape {
        }
      }
    }
  }
}
node {
  name: "FlatMapDataset"
  op: "FlatMapDataset"
  input: "list_files/TensorSliceDataset"
  device: "/device:CPU:0"
  attr {
    key: "Targuments"
    value {
      list {
      }
    }
  }
  attr {
    key: "_output_shapes"
    value {
      list {
        shape {
        }
      }
    }
  }
  attr {
    key: "f"
    value {
      func {
        name: "__inference_Dataset_flat_map_<class \'abc.ABCMeta\'>_49"
      }
    }
  }
  attr {
    key: "output_shapes"
    value {
      list {
        shape {
        }
      }
    }
  }
  attr {
    key: "output_types"
    value {
      list {
        type: DT_STRING
      }
    }
  }
}
node {
  name: "MapDataset"
  op: "MapDataset"
  input: "FlatMapDataset"
  device: "/device:CPU:0"
  attr {
    key: "Targuments"
    value {
      list {
      }
    }
  }
  attr {
    key: "_output_shapes"
    value {
      list {
        shape {
        }
      }
    }
  }
  attr {
    key: "f"
    value {
      func {
        name: "__inference_Dataset_map_decode_csv_73"
      }
    }
  }
  attr {
    key: "output_shapes"
    value {
      list {
        shape {
        }
        shape {
        }
        shape {
        }
        shape {
        }
        shape {
        }
        shape {
        }
      }
    }
  }
  attr {
    key: "output_types"
    value {
      list {
        type: DT_FLOAT
        type: DT_FLOAT
        type: DT_FLOAT
        type: DT_FLOAT
        type: DT_FLOAT
        type: DT_FLOAT
      }
    }
  }
  attr {
    key: "preserve_cardinality"
    value {
      b: false
    }
  }
  attr {
    key: "use_inter_op_parallelism"
    value {
      b: true
    }
  }
}
node {
  name: "buffer_size"
  op: "Const"
  device: "/device:CPU:0"
  attr {
    key: "_output_shapes"
    value {
      list {
        shape {
        }
      }
    }
  }
  attr {
    key: "dtype"
    value {
      type: DT_INT64
    }
  }
  attr {
    key: "value"
    value {
      tensor {
        dtype: DT_INT64
        tensor_shape {
        }
        int64_val: 5120
      }
    }
  }
}
node {
  name: "seed"
  op: "Const"
  device: "/device:CPU:0"
  attr {
    key: "_output_shapes"
    value {
      list {
        shape {
        }
      }
    }
  }
  attr {
    key: "dtype"
    value {
      type: DT_INT64
    }
  }
  attr {
    key: "value"
    value {
      tensor {
        dtype: DT_INT64
        tensor_shape {
        }
        int64_val: 87654321
      }
    }
  }
}
node {
  name: "seed2/Const"
  op: "Const"
  device: "/device:CPU:0"
  attr {
    key: "_output_shapes"
    value {
      list {
        shape {
        }
      }
    }
  }
  attr {
    key: "dtype"
    value {
      type: DT_INT64
    }
  }
  attr {
    key: "value"
    value {
      tensor {
        dtype: DT_INT64
        tensor_shape {
        }
        int64_val: 2
      }
    }
  }
}
node {
  name: "seed2/Equal/y"
  op: "Const"
  device: "/device:CPU:0"
  attr {
    key: "_output_shapes"
    value {
      list {
        shape {
        }
      }
    }
  }
  attr {
    key: "dtype"
    value {
      type: DT_INT64
    }
  }
  attr {
    key: "value"
    value {
      tensor {
        dtype: DT_INT64
        tensor_shape {
        }
        int64_val: 0
      }
    }
  }
}
node {
  name: "seed2/Equal"
  op: "Equal"
  input: "seed"
  input: "seed2/Equal/y"
  device: "/device:CPU:0"
  attr {
    key: "T"
    value {
      type: DT_INT64
    }
  }
  attr {
    key: "_output_shapes"
    value {
      list {
        shape {
        }
      }
    }
  }
  attr {
    key: "incompatible_shape_error"
    value {
      b: true
    }
  }
}
node {
  name: "seed2/Equal_1/y"
  op: "Const"
  device: "/device:CPU:0"
  attr {
    key: "_output_shapes"
    value {
      list {
        shape {
        }
      }
    }
  }
  attr {
    key: "dtype"
    value {
      type: DT_INT64
    }
  }
  attr {
    key: "value"
    value {
      tensor {
        dtype: DT_INT64
        tensor_shape {
        }
        int64_val: 0
      }
    }
  }
}
node {
  name: "seed2/Equal_1"
  op: "Equal"
  input: "seed2/Const"
  input: "seed2/Equal_1/y"
  device: "/device:CPU:0"
  attr {
    key: "T"
    value {
      type: DT_INT64
    }
  }
  attr {
    key: "_output_shapes"
    value {
      list {
        shape {
        }
      }
    }
  }
  attr {
    key: "incompatible_shape_error"
    value {
      b: true
    }
  }
}
node {
  name: "seed2/LogicalAnd"
  op: "LogicalAnd"
  input: "seed2/Equal"
  input: "seed2/Equal_1"
  device: "/device:CPU:0"
  attr {
    key: "_output_shapes"
    value {
      list {
        shape {
        }
      }
    }
  }
}
node {
  name: "seed2/Const_1"
  op: "Const"
  device: "/device:CPU:0"
  attr {
    key: "_output_shapes"
    value {
      list {
        shape {
        }
      }
    }
  }
  attr {
    key: "dtype"
    value {
      type: DT_INT64
    }
  }
  attr {
    key: "value"
    value {
      tensor {
        dtype: DT_INT64
        tensor_shape {
        }
        int64_val: 2147483647
      }
    }
  }
}
node {
  name: "seed2"
  op: "Select"
  input: "seed2/LogicalAnd"
  input: "seed2/Const_1"
  input: "seed2/Const"
  device: "/device:CPU:0"
  attr {
    key: "T"
    value {
      type: DT_INT64
    }
  }
  attr {
    key: "_output_shapes"
    value {
      list {
        shape {
        }
      }
    }
  }
}
node {
  name: "ShuffleDataset"
  op: "ShuffleDataset"
  input: "MapDataset"
  input: "buffer_size"
  input: "seed"
  input: "seed2"
  device: "/device:CPU:0"
  attr {
    key: "_output_shapes"
    value {
      list {
        shape {
        }
      }
    }
  }
  attr {
    key: "output_shapes"
    value {
      list {
        shape {
        }
        shape {
        }
        shape {
        }
        shape {
        }
        shape {
        }
        shape {
        }
      }
    }
  }
  attr {
    key: "output_types"
    value {
      list {
        type: DT_FLOAT
        type: DT_FLOAT
        type: DT_FLOAT
        type: DT_FLOAT
        type: DT_FLOAT
        type: DT_FLOAT
      }
    }
  }
  attr {
    key: "reshuffle_each_iteration"
    value {
      b: true
    }
  }
}
node {
  name: "count"
  op: "Const"
  device: "/device:CPU:0"
  attr {
    key: "_output_shapes"
    value {
      list {
        shape {
        }
      }
    }
  }
  attr {
    key: "dtype"
    value {
      type: DT_INT64
    }
  }
  attr {
    key: "value"
    value {
      tensor {
        dtype: DT_INT64
        tensor_shape {
        }
        int64_val: -1
      }
    }
  }
}
node {
  name: "RepeatDataset"
  op: "RepeatDataset"
  input: "ShuffleDataset"
  input: "count"
  device: "/device:CPU:0"
  attr {
    key: "_output_shapes"
    value {
      list {
        shape {
        }
      }
    }
  }
  attr {
    key: "output_shapes"
    value {
      list {
        shape {
        }
        shape {
        }
        shape {
        }
        shape {
        }
        shape {
        }
        shape {
        }
      }
    }
  }
  attr {
    key: "output_types"
    value {
      list {
        type: DT_FLOAT
        type: DT_FLOAT
        type: DT_FLOAT
        type: DT_FLOAT
        type: DT_FLOAT
        type: DT_FLOAT
      }
    }
  }
}
node {
  name: "batch_size"
  op: "Const"
  device: "/device:CPU:0"
  attr {
    key: "_output_shapes"
    value {
      list {
        shape {
        }
      }
    }
  }
  attr {
    key: "dtype"
    value {
      type: DT_INT64
    }
  }
  attr {
    key: "value"
    value {
      tensor {
        dtype: DT_INT64
        tensor_shape {
        }
        int64_val: 512
      }
    }
  }
}
node {
  name: "drop_remainder"
  op: "Const"
  device: "/device:CPU:0"
  attr {
    key: "_output_shapes"
    value {
      list {
        shape {
        }
      }
    }
  }
  attr {
    key: "dtype"
    value {
      type: DT_BOOL
    }
  }
  attr {
    key: "value"
    value {
      tensor {
        dtype: DT_BOOL
        tensor_shape {
        }
        bool_val: false
      }
    }
  }
}
node {
  name: "BatchDatasetV2"
  op: "BatchDatasetV2"
  input: "RepeatDataset"
  input: "batch_size"
  input: "drop_remainder"
  device: "/device:CPU:0"
  attr {
    key: "_output_shapes"
    value {
      list {
        shape {
        }
      }
    }
  }
  attr {
    key: "output_shapes"
    value {
      list {
        shape {
          dim {
            size: -1
          }
        }
        shape {
          dim {
            size: -1
          }
        }
        shape {
          dim {
            size: -1
          }
        }
        shape {
          dim {
            size: -1
          }
        }
        shape {
          dim {
            size: -1
          }
        }
        shape {
          dim {
            size: -1
          }
        }
      }
    }
  }
  attr {
    key: "output_types"
    value {
      list {
        type: DT_FLOAT
        type: DT_FLOAT
        type: DT_FLOAT
        type: DT_FLOAT
        type: DT_FLOAT
        type: DT_FLOAT
      }
    }
  }
  attr {
    key: "parallel_copy"
    value {
      b: false
    }
  }
}
node {
  name: "optimizations"
  op: "Const"
  attr {
    key: "_output_shapes"
    value {
      list {
        shape {
          dim {
            size: 3
          }
        }
      }
    }
  }
  attr {
    key: "dtype"
    value {
      type: DT_STRING
    }
  }
  attr {
    key: "value"
    value {
      tensor {
        dtype: DT_STRING
        tensor_shape {
          dim {
            size: 3
          }
        }
        string_val: "map_and_batch_fusion"
        string_val: "noop_elimination"
        string_val: "shuffle_and_repeat_fusion"
      }
    }
  }
}
node {
  name: "OptimizeDataset"
  op: "OptimizeDataset"
  input: "BatchDatasetV2"
  input: "optimizations"
  attr {
    key: "_output_shapes"
    value {
      list {
        shape {
        }
      }
    }
  }
  attr {
    key: "optimization_configs"
    value {
      list {
        s: "map_vectorization:use_choose_fastest:false"
      }
    }
  }
  attr {
    key: "output_shapes"
    value {
      list {
        shape {
          dim {
            size: -1
          }
        }
        shape {
          dim {
            size: -1
          }
        }
        shape {
          dim {
            size: -1
          }
        }
        shape {
          dim {
            size: -1
          }
        }
        shape {
          dim {
            size: -1
          }
        }
        shape {
          dim {
            size: -1
          }
        }
      }
    }
  }
  attr {
    key: "output_types"
    value {
      list {
        type: DT_FLOAT
        type: DT_FLOAT
        type: DT_FLOAT
        type: DT_FLOAT
        type: DT_FLOAT
        type: DT_FLOAT
      }
    }
  }
}
node {
  name: "ModelDataset"
  op: "ModelDataset"
  input: "OptimizeDataset"
  attr {
    key: "_output_shapes"
    value {
      list {
        shape {
        }
      }
    }
  }
  attr {
    key: "algorithm"
    value {
      i: 0
    }
  }
  attr {
    key: "cpu_budget"
    value {
      i: 0
    }
  }
  attr {
    key: "output_shapes"
    value {
      list {
        shape {
          dim {
            size: -1
          }
        }
        shape {
          dim {
            size: -1
          }
        }
        shape {
          dim {
            size: -1
          }
        }
        shape {
          dim {
            size: -1
          }
        }
        shape {
          dim {
            size: -1
          }
        }
        shape {
          dim {
            size: -1
          }
        }
      }
    }
  }
  attr {
    key: "output_types"
    value {
      list {
        type: DT_FLOAT
        type: DT_FLOAT
        type: DT_FLOAT
        type: DT_FLOAT
        type: DT_FLOAT
        type: DT_FLOAT
      }
    }
  }
}
node {
  name: "IteratorV2"
  op: "IteratorV2"
  attr {
    key: "_output_shapes"
    value {
      list {
        shape {
        }
      }
    }
  }
  attr {
    key: "container"
    value {
      s: ""
    }
  }
  attr {
    key: "output_shapes"
    value {
      list {
        shape {
          dim {
            size: -1
          }
        }
        shape {
          dim {
            size: -1
          }
        }
        shape {
          dim {
            size: -1
          }
        }
        shape {
          dim {
            size: -1
          }
        }
        shape {
          dim {
            size: -1
          }
        }
        shape {
          dim {
            size: -1
          }
        }
      }
    }
  }
  attr {
    key: "output_types"
    value {
      list {
        type: DT_FLOAT
        type: DT_FLOAT
        type: DT_FLOAT
        type: DT_FLOAT
        type: DT_FLOAT
        type: DT_FLOAT
      }
    }
  }
  attr {
    key: "shared_name"
    value {
      s: ""
    }
  }
}
node {
  name: "MakeIterator"
  op: "MakeIterator"
  input: "ModelDataset"
  input: "IteratorV2"
  attr {
    key: "_class"
    value {
      list {
        s: "loc:@IteratorV2"
      }
    }
  }
}
node {
  name: "IteratorToStringHandle"
  op: "IteratorToStringHandle"
  input: "IteratorV2"
  attr {
    key: "_output_shapes"
    value {
      list {
        shape {
        }
      }
    }
  }
}
node {
  name: "IteratorGetNext"
  op: "IteratorGetNext"
  input: "IteratorV2"
  attr {
    key: "_output_shapes"
    value {
      list {
        shape {
          dim {
            size: -1
          }
        }
        shape {
          dim {
            size: -1
          }
        }
        shape {
          dim {
            size: -1
          }
        }
        shape {
          dim {
            size: -1
          }
        }
        shape {
          dim {
            size: -1
          }
        }
        shape {
          dim {
            size: -1
          }
        }
      }
    }
  }
  attr {
    key: "output_shapes"
    value {
      list {
        shape {
          dim {
            size: -1
          }
        }
        shape {
          dim {
            size: -1
          }
        }
        shape {
          dim {
            size: -1
          }
        }
        shape {
          dim {
            size: -1
          }
        }
        shape {
          dim {
            size: -1
          }
        }
        shape {
          dim {
            size: -1
          }
        }
      }
    }
  }
  attr {
    key: "output_types"
    value {
      list {
        type: DT_FLOAT
        type: DT_FLOAT
        type: DT_FLOAT
        type: DT_FLOAT
        type: DT_FLOAT
        type: DT_FLOAT
      }
    }
  }
}
node {
  name: "linear/linear_model/dropofflat/weights/Initializer/zeros"
  op: "Const"
  attr {
    key: "_class"
    value {
      list {
        s: "loc:@linear/linear_model/dropofflat/weights"
      }
    }
  }
  attr {
    key: "_output_shapes"
    value {
      list {
        shape {
          dim {
            size: 1
          }
          dim {
            size: 1
          }
        }
      }
    }
  }
  attr {
    key: "dtype"
    value {
      type: DT_FLOAT
    }
  }
  attr {
    key: "value"
    value {
      tensor {
        dtype: DT_FLOAT
        tensor_shape {
          dim {
            size: 1
          }
          dim {
            size: 1
          }
        }
        float_val: 0.0
      }
    }
  }
}
node {
  name: "linear/linear_model/dropofflat/weights"
  op: "VarHandleOp"
  attr {
    key: "_class"
    value {
      list {
        s: "loc:@linear/linear_model/dropofflat/weights"
      }
    }
  }
  attr {
    key: "_output_shapes"
    value {
      list {
        shape {
        }
      }
    }
  }
  attr {
    key: "container"
    value {
      s: ""
    }
  }
  attr {
    key: "dtype"
    value {
      type: DT_FLOAT
    }
  }
  attr {
    key: "shape"
    value {
      shape {
        dim {
          size: 1
        }
        dim {
          size: 1
        }
      }
    }
  }
  attr {
    key: "shared_name"
    value {
      s: "linear/linear_model/dropofflat/weights"
    }
  }
}
node {
  name: "linear/linear_model/dropofflat/weights/IsInitialized/VarIsInitializedOp"
  op: "VarIsInitializedOp"
  input: "linear/linear_model/dropofflat/weights"
  attr {
    key: "_output_shapes"
    value {
      list {
        shape {
        }
      }
    }
  }
}
node {
  name: "linear/linear_model/dropofflat/weights/Assign"
  op: "AssignVariableOp"
  input: "linear/linear_model/dropofflat/weights"
  input: "linear/linear_model/dropofflat/weights/Initializer/zeros"
  attr {
    key: "dtype"
    value {
      type: DT_FLOAT
    }
  }
}
node {
  name: "linear/linear_model/dropofflat/weights/Read/ReadVariableOp"
  op: "ReadVariableOp"
  input: "linear/linear_model/dropofflat/weights"
  attr {
    key: "_output_shapes"
    value {
      list {
        shape {
          dim {
            size: 1
          }
          dim {
            size: 1
          }
        }
      }
    }
  }
  attr {
    key: "dtype"
    value {
      type: DT_FLOAT
    }
  }
}
node {
  name: "linear/linear_model/dropofflon/weights/Initializer/zeros"
  op: "Const"
  attr {
    key: "_class"
    value {
      list {
        s: "loc:@linear/linear_model/dropofflon/weights"
      }
    }
  }
  attr {
    key: "_output_shapes"
    value {
      list {
        shape {
          dim {
            size: 1
          }
          dim {
            size: 1
          }
        }
      }
    }
  }
  attr {
    key: "dtype"
    value {
      type: DT_FLOAT
    }
  }
  attr {
    key: "value"
    value {
      tensor {
        dtype: DT_FLOAT
        tensor_shape {
          dim {
            size: 1
          }
          dim {
            size: 1
          }
        }
        float_val: 0.0
      }
    }
  }
}
node {
  name: "linear/linear_model/dropofflon/weights"
  op: "VarHandleOp"
  attr {
    key: "_class"
    value {
      list {
        s: "loc:@linear/linear_model/dropofflon/weights"
      }
    }
  }
  attr {
    key: "_output_shapes"
    value {
      list {
        shape {
        }
      }
    }
  }
  attr {
    key: "container"
    value {
      s: ""
    }
  }
  attr {
    key: "dtype"
    value {
      type: DT_FLOAT
    }
  }
  attr {
    key: "shape"
    value {
      shape {
        dim {
          size: 1
        }
        dim {
          size: 1
        }
      }
    }
  }
  attr {
    key: "shared_name"
    value {
      s: "linear/linear_model/dropofflon/weights"
    }
  }
}
node {
  name: "linear/linear_model/dropofflon/weights/IsInitialized/VarIsInitializedOp"
  op: "VarIsInitializedOp"
  input: "linear/linear_model/dropofflon/weights"
  attr {
    key: "_output_shapes"
    value {
      list {
        shape {
        }
      }
    }
  }
}
node {
  name: "linear/linear_model/dropofflon/weights/Assign"
  op: "AssignVariableOp"
  input: "linear/linear_model/dropofflon/weights"
  input: "linear/linear_model/dropofflon/weights/Initializer/zeros"
  attr {
    key: "dtype"
    value {
      type: DT_FLOAT
    }
  }
}
node {
  name: "linear/linear_model/dropofflon/weights/Read/ReadVariableOp"
  op: "ReadVariableOp"
  input: "linear/linear_model/dropofflon/weights"
  attr {
    key: "_output_shapes"
    value {
      list {
        shape {
          dim {
            size: 1
          }
          dim {
            size: 1
          }
        }
      }
    }
  }
  attr {
    key: "dtype"
    value {
      type: DT_FLOAT
    }
  }
}
node {
  name: "linear/linear_model/passengers/weights/Initializer/zeros"
  op: "Const"
  attr {
    key: "_class"
    value {
      list {
        s: "loc:@linear/linear_model/passengers/weights"
      }
    }
  }
  attr {
    key: "_output_shapes"
    value {
      list {
        shape {
          dim {
            size: 1
          }
          dim {
            size: 1
          }
        }
      }
    }
  }
  attr {
    key: "dtype"
    value {
      type: DT_FLOAT
    }
  }
  attr {
    key: "value"
    value {
      tensor {
        dtype: DT_FLOAT
        tensor_shape {
          dim {
            size: 1
          }
          dim {
            size: 1
          }
        }
        float_val: 0.0
      }
    }
  }
}
node {
  name: "linear/linear_model/passengers/weights"
  op: "VarHandleOp"
  attr {
    key: "_class"
    value {
      list {
        s: "loc:@linear/linear_model/passengers/weights"
      }
    }
  }
  attr {
    key: "_output_shapes"
    value {
      list {
        shape {
        }
      }
    }
  }
  attr {
    key: "container"
    value {
      s: ""
    }
  }
  attr {
    key: "dtype"
    value {
      type: DT_FLOAT
    }
  }
  attr {
    key: "shape"
    value {
      shape {
        dim {
          size: 1
        }
        dim {
          size: 1
        }
      }
    }
  }
  attr {
    key: "shared_name"
    value {
      s: "linear/linear_model/passengers/weights"
    }
  }
}
node {
  name: "linear/linear_model/passengers/weights/IsInitialized/VarIsInitializedOp"
  op: "VarIsInitializedOp"
  input: "linear/linear_model/passengers/weights"
  attr {
    key: "_output_shapes"
    value {
      list {
        shape {
        }
      }
    }
  }
}
node {
  name: "linear/linear_model/passengers/weights/Assign"
  op: "AssignVariableOp"
  input: "linear/linear_model/passengers/weights"
  input: "linear/linear_model/passengers/weights/Initializer/zeros"
  attr {
    key: "dtype"
    value {
      type: DT_FLOAT
    }
  }
}
node {
  name: "linear/linear_model/passengers/weights/Read/ReadVariableOp"
  op: "ReadVariableOp"
  input: "linear/linear_model/passengers/weights"
  attr {
    key: "_output_shapes"
    value {
      list {
        shape {
          dim {
            size: 1
          }
          dim {
            size: 1
          }
        }
      }
    }
  }
  attr {
    key: "dtype"
    value {
      type: DT_FLOAT
    }
  }
}
node {
  name: "linear/linear_model/pickuplat/weights/Initializer/zeros"
  op: "Const"
  attr {
    key: "_class"
    value {
      list {
        s: "loc:@linear/linear_model/pickuplat/weights"
      }
    }
  }
  attr {
    key: "_output_shapes"
    value {
      list {
        shape {
          dim {
            size: 1
          }
          dim {
            size: 1
          }
        }
      }
    }
  }
  attr {
    key: "dtype"
    value {
      type: DT_FLOAT
    }
  }
  attr {
    key: "value"
    value {
      tensor {
        dtype: DT_FLOAT
        tensor_shape {
          dim {
            size: 1
          }
          dim {
            size: 1
          }
        }
        float_val: 0.0
      }
    }
  }
}
node {
  name: "linear/linear_model/pickuplat/weights"
  op: "VarHandleOp"
  attr {
    key: "_class"
    value {
      list {
        s: "loc:@linear/linear_model/pickuplat/weights"
      }
    }
  }
  attr {
    key: "_output_shapes"
    value {
      list {
        shape {
        }
      }
    }
  }
  attr {
    key: "container"
    value {
      s: ""
    }
  }
  attr {
    key: "dtype"
    value {
      type: DT_FLOAT
    }
  }
  attr {
    key: "shape"
    value {
      shape {
        dim {
          size: 1
        }
        dim {
          size: 1
        }
      }
    }
  }
  attr {
    key: "shared_name"
    value {
      s: "linear/linear_model/pickuplat/weights"
    }
  }
}
node {
  name: "linear/linear_model/pickuplat/weights/IsInitialized/VarIsInitializedOp"
  op: "VarIsInitializedOp"
  input: "linear/linear_model/pickuplat/weights"
  attr {
    key: "_output_shapes"
    value {
      list {
        shape {
        }
      }
    }
  }
}
node {
  name: "linear/linear_model/pickuplat/weights/Assign"
  op: "AssignVariableOp"
  input: "linear/linear_model/pickuplat/weights"
  input: "linear/linear_model/pickuplat/weights/Initializer/zeros"
  attr {
    key: "dtype"
    value {
      type: DT_FLOAT
    }
  }
}
node {
  name: "linear/linear_model/pickuplat/weights/Read/ReadVariableOp"
  op: "ReadVariableOp"
  input: "linear/linear_model/pickuplat/weights"
  attr {
    key: "_output_shapes"
    value {
      list {
        shape {
          dim {
            size: 1
          }
          dim {
            size: 1
          }
        }
      }
    }
  }
  attr {
    key: "dtype"
    value {
      type: DT_FLOAT
    }
  }
}
node {
  name: "linear/linear_model/pickuplon/weights/Initializer/zeros"
  op: "Const"
  attr {
    key: "_class"
    value {
      list {
        s: "loc:@linear/linear_model/pickuplon/weights"
      }
    }
  }
  attr {
    key: "_output_shapes"
    value {
      list {
        shape {
          dim {
            size: 1
          }
          dim {
            size: 1
          }
        }
      }
    }
  }
  attr {
    key: "dtype"
    value {
      type: DT_FLOAT
    }
  }
  attr {
    key: "value"
    value {
      tensor {
        dtype: DT_FLOAT
        tensor_shape {
          dim {
            size: 1
          }
          dim {
            size: 1
          }
        }
        float_val: 0.0
      }
    }
  }
}
node {
  name: "linear/linear_model/pickuplon/weights"
  op: "VarHandleOp"
  attr {
    key: "_class"
    value {
      list {
        s: "loc:@linear/linear_model/pickuplon/weights"
      }
    }
  }
  attr {
    key: "_output_shapes"
    value {
      list {
        shape {
        }
      }
    }
  }
  attr {
    key: "container"
    value {
      s: ""
    }
  }
  attr {
    key: "dtype"
    value {
      type: DT_FLOAT
    }
  }
  attr {
    key: "shape"
    value {
      shape {
        dim {
          size: 1
        }
        dim {
          size: 1
        }
      }
    }
  }
  attr {
    key: "shared_name"
    value {
      s: "linear/linear_model/pickuplon/weights"
    }
  }
}
node {
  name: "linear/linear_model/pickuplon/weights/IsInitialized/VarIsInitializedOp"
  op: "VarIsInitializedOp"
  input: "linear/linear_model/pickuplon/weights"
  attr {
    key: "_output_shapes"
    value {
      list {
        shape {
        }
      }
    }
  }
}
node {
  name: "linear/linear_model/pickuplon/weights/Assign"
  op: "AssignVariableOp"
  input: "linear/linear_model/pickuplon/weights"
  input: "linear/linear_model/pickuplon/weights/Initializer/zeros"
  attr {
    key: "dtype"
    value {
      type: DT_FLOAT
    }
  }
}
node {
  name: "linear/linear_model/pickuplon/weights/Read/ReadVariableOp"
  op: "ReadVariableOp"
  input: "linear/linear_model/pickuplon/weights"
  attr {
    key: "_output_shapes"
    value {
      list {
        shape {
          dim {
            size: 1
          }
          dim {
            size: 1
          }
        }
      }
    }
  }
  attr {
    key: "dtype"
    value {
      type: DT_FLOAT
    }
  }
}
node {
  name: "linear/linear_model/bias_weights/Initializer/zeros"
  op: "Const"
  attr {
    key: "_class"
    value {
      list {
        s: "loc:@linear/linear_model/bias_weights"
      }
    }
  }
  attr {
    key: "_output_shapes"
    value {
      list {
        shape {
          dim {
            size: 1
          }
        }
      }
    }
  }
  attr {
    key: "dtype"
    value {
      type: DT_FLOAT
    }
  }
  attr {
    key: "value"
    value {
      tensor {
        dtype: DT_FLOAT
        tensor_shape {
          dim {
            size: 1
          }
        }
        float_val: 0.0
      }
    }
  }
}
node {
  name: "linear/linear_model/bias_weights"
  op: "VarHandleOp"
  attr {
    key: "_class"
    value {
      list {
        s: "loc:@linear/linear_model/bias_weights"
      }
    }
  }
  attr {
    key: "_output_shapes"
    value {
      list {
        shape {
        }
      }
    }
  }
  attr {
    key: "container"
    value {
      s: ""
    }
  }
  attr {
    key: "dtype"
    value {
      type: DT_FLOAT
    }
  }
  attr {
    key: "shape"
    value {
      shape {
        dim {
          size: 1
        }
      }
    }
  }
  attr {
    key: "shared_name"
    value {
      s: "linear/linear_model/bias_weights"
    }
  }
}
node {
  name: "linear/linear_model/bias_weights/IsInitialized/VarIsInitializedOp"
  op: "VarIsInitializedOp"
  input: "linear/linear_model/bias_weights"
  attr {
    key: "_output_shapes"
    value {
      list {
        shape {
        }
      }
    }
  }
}
node {
  name: "linear/linear_model/bias_weights/Assign"
  op: "AssignVariableOp"
  input: "linear/linear_model/bias_weights"
  input: "linear/linear_model/bias_weights/Initializer/zeros"
  attr {
    key: "dtype"
    value {
      type: DT_FLOAT
    }
  }
}
node {
  name: "linear/linear_model/bias_weights/Read/ReadVariableOp"
  op: "ReadVariableOp"
  input: "linear/linear_model/bias_weights"
  attr {
    key: "_output_shapes"
    value {
      list {
        shape {
          dim {
            size: 1
          }
        }
      }
    }
  }
  attr {
    key: "dtype"
    value {
      type: DT_FLOAT
    }
  }
}
node {
  name: "linear/linear_model/linear/linear_model/linear/linear_model/dropofflat/ExpandDims/dim"
  op: "Const"
  attr {
    key: "_output_shapes"
    value {
      list {
        shape {
        }
      }
    }
  }
  attr {
    key: "dtype"
    value {
      type: DT_INT32
    }
  }
  attr {
    key: "value"
    value {
      tensor {
        dtype: DT_INT32
        tensor_shape {
        }
        int_val: -1
      }
    }
  }
}
node {
  name: "linear/linear_model/linear/linear_model/linear/linear_model/dropofflat/ExpandDims"
  op: "ExpandDims"
  input: "IteratorGetNext"
  input: "linear/linear_model/linear/linear_model/linear/linear_model/dropofflat/ExpandDims/dim"
  attr {
    key: "T"
    value {
      type: DT_FLOAT
    }
  }
  attr {
    key: "Tdim"
    value {
      type: DT_INT32
    }
  }
  attr {
    key: "_output_shapes"
    value {
      list {
        shape {
          dim {
            size: -1
          }
          dim {
            size: 1
          }
        }
      }
    }
  }
}
node {
  name: "linear/linear_model/linear/linear_model/linear/linear_model/dropofflat/Shape"
  op: "Shape"
  input: "linear/linear_model/linear/linear_model/linear/linear_model/dropofflat/ExpandDims"
  attr {
    key: "T"
    value {
      type: DT_FLOAT
    }
  }
  attr {
    key: "_output_shapes"
    value {
      list {
        shape {
          dim {
            size: 2
          }
        }
      }
    }
  }
  attr {
    key: "out_type"
    value {
      type: DT_INT32
    }
  }
}
node {
  name: "linear/linear_model/linear/linear_model/linear/linear_model/dropofflat/strided_slice/stack"
  op: "Const"
  attr {
    key: "_output_shapes"
    value {
      list {
        shape {
          dim {
            size: 1
          }
        }
      }
    }
  }
  attr {
    key: "dtype"
    value {
      type: DT_INT32
    }
  }
  attr {
    key: "value"
    value {
      tensor {
        dtype: DT_INT32
        tensor_shape {
          dim {
            size: 1
          }
        }
        int_val: 0
      }
    }
  }
}
node {
  name: "linear/linear_model/linear/linear_model/linear/linear_model/dropofflat/strided_slice/stack_1"
  op: "Const"
  attr {
    key: "_output_shapes"
    value {
      list {
        shape {
          dim {
            size: 1
          }
        }
      }
    }
  }
  attr {
    key: "dtype"
    value {
      type: DT_INT32
    }
  }
  attr {
    key: "value"
    value {
      tensor {
        dtype: DT_INT32
        tensor_shape {
          dim {
            size: 1
          }
        }
        int_val: 1
      }
    }
  }
}
node {
  name: "linear/linear_model/linear/linear_model/linear/linear_model/dropofflat/strided_slice/stack_2"
  op: "Const"
  attr {
    key: "_output_shapes"
    value {
      list {
        shape {
          dim {
            size: 1
          }
        }
      }
    }
  }
  attr {
    key: "dtype"
    value {
      type: DT_INT32
    }
  }
  attr {
    key: "value"
    value {
      tensor {
        dtype: DT_INT32
        tensor_shape {
          dim {
            size: 1
          }
        }
        int_val: 1
      }
    }
  }
}
node {
  name: "linear/linear_model/linear/linear_model/linear/linear_model/dropofflat/strided_slice"
  op: "StridedSlice"
  input: "linear/linear_model/linear/linear_model/linear/linear_model/dropofflat/Shape"
  input: "linear/linear_model/linear/linear_model/linear/linear_model/dropofflat/strided_slice/stack"
  input: "linear/linear_model/linear/linear_model/linear/linear_model/dropofflat/strided_slice/stack_1"
  input: "linear/linear_model/linear/linear_model/linear/linear_model/dropofflat/strided_slice/stack_2"
  attr {
    key: "Index"
    value {
      type: DT_INT32
    }
  }
  attr {
    key: "T"
    value {
      type: DT_INT32
    }
  }
  attr {
    key: "_output_shapes"
    value {
      list {
        shape {
        }
      }
    }
  }
  attr {
    key: "begin_mask"
    value {
      i: 0
    }
  }
  attr {
    key: "ellipsis_mask"
    value {
      i: 0
    }
  }
  attr {
    key: "end_mask"
    value {
      i: 0
    }
  }
  attr {
    key: "new_axis_mask"
    value {
      i: 0
    }
  }
  attr {
    key: "shrink_axis_mask"
    value {
      i: 1
    }
  }
}
node {
  name: "linear/linear_model/linear/linear_model/linear/linear_model/dropofflat/Reshape/shape/1"
  op: "Const"
  attr {
    key: "_output_shapes"
    value {
      list {
        shape {
        }
      }
    }
  }
  attr {
    key: "dtype"
    value {
      type: DT_INT32
    }
  }
  attr {
    key: "value"
    value {
      tensor {
        dtype: DT_INT32
        tensor_shape {
        }
        int_val: 1
      }
    }
  }
}
node {
  name: "linear/linear_model/linear/linear_model/linear/linear_model/dropofflat/Reshape/shape"
  op: "Pack"
  input: "linear/linear_model/linear/linear_model/linear/linear_model/dropofflat/strided_slice"
  input: "linear/linear_model/linear/linear_model/linear/linear_model/dropofflat/Reshape/shape/1"
  attr {
    key: "N"
    value {
      i: 2
    }
  }
  attr {
    key: "T"
    value {
      type: DT_INT32
    }
  }
  attr {
    key: "_output_shapes"
    value {
      list {
        shape {
          dim {
            size: 2
          }
        }
      }
    }
  }
  attr {
    key: "axis"
    value {
      i: 0
    }
  }
}
node {
  name: "linear/linear_model/linear/linear_model/linear/linear_model/dropofflat/Reshape"
  op: "Reshape"
  input: "linear/linear_model/linear/linear_model/linear/linear_model/dropofflat/ExpandDims"
  input: "linear/linear_model/linear/linear_model/linear/linear_model/dropofflat/Reshape/shape"
  attr {
    key: "T"
    value {
      type: DT_FLOAT
    }
  }
  attr {
    key: "Tshape"
    value {
      type: DT_INT32
    }
  }
  attr {
    key: "_output_shapes"
    value {
      list {
        shape {
          dim {
            size: -1
          }
          dim {
            size: 1
          }
        }
      }
    }
  }
}
node {
  name: "linear/linear_model/linear/linear_model/linear/linear_model/dropofflat/weighted_sum/ReadVariableOp"
  op: "ReadVariableOp"
  input: "linear/linear_model/dropofflat/weights"
  attr {
    key: "_output_shapes"
    value {
      list {
        shape {
          dim {
            size: 1
          }
          dim {
            size: 1
          }
        }
      }
    }
  }
  attr {
    key: "dtype"
    value {
      type: DT_FLOAT
    }
  }
}
node {
  name: "linear/linear_model/linear/linear_model/linear/linear_model/dropofflat/weighted_sum"
  op: "MatMul"
  input: "linear/linear_model/linear/linear_model/linear/linear_model/dropofflat/Reshape"
  input: "linear/linear_model/linear/linear_model/linear/linear_model/dropofflat/weighted_sum/ReadVariableOp"
  attr {
    key: "T"
    value {
      type: DT_FLOAT
    }
  }
  attr {
    key: "_output_shapes"
    value {
      list {
        shape {
          dim {
            size: -1
          }
          dim {
            size: 1
          }
        }
      }
    }
  }
  attr {
    key: "transpose_a"
    value {
      b: false
    }
  }
  attr {
    key: "transpose_b"
    value {
      b: false
    }
  }
}
node {
  name: "linear/linear_model/linear/linear_model/linear/linear_model/dropofflon/ExpandDims/dim"
  op: "Const"
  attr {
    key: "_output_shapes"
    value {
      list {
        shape {
        }
      }
    }
  }
  attr {
    key: "dtype"
    value {
      type: DT_INT32
    }
  }
  attr {
    key: "value"
    value {
      tensor {
        dtype: DT_INT32
        tensor_shape {
        }
        int_val: -1
      }
    }
  }
}
node {
  name: "linear/linear_model/linear/linear_model/linear/linear_model/dropofflon/ExpandDims"
  op: "ExpandDims"
  input: "IteratorGetNext:1"
  input: "linear/linear_model/linear/linear_model/linear/linear_model/dropofflon/ExpandDims/dim"
  attr {
    key: "T"
    value {
      type: DT_FLOAT
    }
  }
  attr {
    key: "Tdim"
    value {
      type: DT_INT32
    }
  }
  attr {
    key: "_output_shapes"
    value {
      list {
        shape {
          dim {
            size: -1
          }
          dim {
            size: 1
          }
        }
      }
    }
  }
}
node {
  name: "linear/linear_model/linear/linear_model/linear/linear_model/dropofflon/Shape"
  op: "Shape"
  input: "linear/linear_model/linear/linear_model/linear/linear_model/dropofflon/ExpandDims"
  attr {
    key: "T"
    value {
      type: DT_FLOAT
    }
  }
  attr {
    key: "_output_shapes"
    value {
      list {
        shape {
          dim {
            size: 2
          }
        }
      }
    }
  }
  attr {
    key: "out_type"
    value {
      type: DT_INT32
    }
  }
}
node {
  name: "linear/linear_model/linear/linear_model/linear/linear_model/dropofflon/strided_slice/stack"
  op: "Const"
  attr {
    key: "_output_shapes"
    value {
      list {
        shape {
          dim {
            size: 1
          }
        }
      }
    }
  }
  attr {
    key: "dtype"
    value {
      type: DT_INT32
    }
  }
  attr {
    key: "value"
    value {
      tensor {
        dtype: DT_INT32
        tensor_shape {
          dim {
            size: 1
          }
        }
        int_val: 0
      }
    }
  }
}
node {
  name: "linear/linear_model/linear/linear_model/linear/linear_model/dropofflon/strided_slice/stack_1"
  op: "Const"
  attr {
    key: "_output_shapes"
    value {
      list {
        shape {
          dim {
            size: 1
          }
        }
      }
    }
  }
  attr {
    key: "dtype"
    value {
      type: DT_INT32
    }
  }
  attr {
    key: "value"
    value {
      tensor {
        dtype: DT_INT32
        tensor_shape {
          dim {
            size: 1
          }
        }
        int_val: 1
      }
    }
  }
}
node {
  name: "linear/linear_model/linear/linear_model/linear/linear_model/dropofflon/strided_slice/stack_2"
  op: "Const"
  attr {
    key: "_output_shapes"
    value {
      list {
        shape {
          dim {
            size: 1
          }
        }
      }
    }
  }
  attr {
    key: "dtype"
    value {
      type: DT_INT32
    }
  }
  attr {
    key: "value"
    value {
      tensor {
        dtype: DT_INT32
        tensor_shape {
          dim {
            size: 1
          }
        }
        int_val: 1
      }
    }
  }
}
node {
  name: "linear/linear_model/linear/linear_model/linear/linear_model/dropofflon/strided_slice"
  op: "StridedSlice"
  input: "linear/linear_model/linear/linear_model/linear/linear_model/dropofflon/Shape"
  input: "linear/linear_model/linear/linear_model/linear/linear_model/dropofflon/strided_slice/stack"
  input: "linear/linear_model/linear/linear_model/linear/linear_model/dropofflon/strided_slice/stack_1"
  input: "linear/linear_model/linear/linear_model/linear/linear_model/dropofflon/strided_slice/stack_2"
  attr {
    key: "Index"
    value {
      type: DT_INT32
    }
  }
  attr {
    key: "T"
    value {
      type: DT_INT32
    }
  }
  attr {
    key: "_output_shapes"
    value {
      list {
        shape {
        }
      }
    }
  }
  attr {
    key: "begin_mask"
    value {
      i: 0
    }
  }
  attr {
    key: "ellipsis_mask"
    value {
      i: 0
    }
  }
  attr {
    key: "end_mask"
    value {
      i: 0
    }
  }
  attr {
    key: "new_axis_mask"
    value {
      i: 0
    }
  }
  attr {
    key: "shrink_axis_mask"
    value {
      i: 1
    }
  }
}
node {
  name: "linear/linear_model/linear/linear_model/linear/linear_model/dropofflon/Reshape/shape/1"
  op: "Const"
  attr {
    key: "_output_shapes"
    value {
      list {
        shape {
        }
      }
    }
  }
  attr {
    key: "dtype"
    value {
      type: DT_INT32
    }
  }
  attr {
    key: "value"
    value {
      tensor {
        dtype: DT_INT32
        tensor_shape {
        }
        int_val: 1
      }
    }
  }
}
node {
  name: "linear/linear_model/linear/linear_model/linear/linear_model/dropofflon/Reshape/shape"
  op: "Pack"
  input: "linear/linear_model/linear/linear_model/linear/linear_model/dropofflon/strided_slice"
  input: "linear/linear_model/linear/linear_model/linear/linear_model/dropofflon/Reshape/shape/1"
  attr {
    key: "N"
    value {
      i: 2
    }
  }
  attr {
    key: "T"
    value {
      type: DT_INT32
    }
  }
  attr {
    key: "_output_shapes"
    value {
      list {
        shape {
          dim {
            size: 2
          }
        }
      }
    }
  }
  attr {
    key: "axis"
    value {
      i: 0
    }
  }
}
node {
  name: "linear/linear_model/linear/linear_model/linear/linear_model/dropofflon/Reshape"
  op: "Reshape"
  input: "linear/linear_model/linear/linear_model/linear/linear_model/dropofflon/ExpandDims"
  input: "linear/linear_model/linear/linear_model/linear/linear_model/dropofflon/Reshape/shape"
  attr {
    key: "T"
    value {
      type: DT_FLOAT
    }
  }
  attr {
    key: "Tshape"
    value {
      type: DT_INT32
    }
  }
  attr {
    key: "_output_shapes"
    value {
      list {
        shape {
          dim {
            size: -1
          }
          dim {
            size: 1
          }
        }
      }
    }
  }
}
node {
  name: "linear/linear_model/linear/linear_model/linear/linear_model/dropofflon/weighted_sum/ReadVariableOp"
  op: "ReadVariableOp"
  input: "linear/linear_model/dropofflon/weights"
  attr {
    key: "_output_shapes"
    value {
      list {
        shape {
          dim {
            size: 1
          }
          dim {
            size: 1
          }
        }
      }
    }
  }
  attr {
    key: "dtype"
    value {
      type: DT_FLOAT
    }
  }
}
node {
  name: "linear/linear_model/linear/linear_model/linear/linear_model/dropofflon/weighted_sum"
  op: "MatMul"
  input: "linear/linear_model/linear/linear_model/linear/linear_model/dropofflon/Reshape"
  input: "linear/linear_model/linear/linear_model/linear/linear_model/dropofflon/weighted_sum/ReadVariableOp"
  attr {
    key: "T"
    value {
      type: DT_FLOAT
    }
  }
  attr {
    key: "_output_shapes"
    value {
      list {
        shape {
          dim {
            size: -1
          }
          dim {
            size: 1
          }
        }
      }
    }
  }
  attr {
    key: "transpose_a"
    value {
      b: false
    }
  }
  attr {
    key: "transpose_b"
    value {
      b: false
    }
  }
}
node {
  name: "linear/linear_model/linear/linear_model/linear/linear_model/passengers/ExpandDims/dim"
  op: "Const"
  attr {
    key: "_output_shapes"
    value {
      list {
        shape {
        }
      }
    }
  }
  attr {
    key: "dtype"
    value {
      type: DT_INT32
    }
  }
  attr {
    key: "value"
    value {
      tensor {
        dtype: DT_INT32
        tensor_shape {
        }
        int_val: -1
      }
    }
  }
}
node {
  name: "linear/linear_model/linear/linear_model/linear/linear_model/passengers/ExpandDims"
  op: "ExpandDims"
  input: "IteratorGetNext:2"
  input: "linear/linear_model/linear/linear_model/linear/linear_model/passengers/ExpandDims/dim"
  attr {
    key: "T"
    value {
      type: DT_FLOAT
    }
  }
  attr {
    key: "Tdim"
    value {
      type: DT_INT32
    }
  }
  attr {
    key: "_output_shapes"
    value {
      list {
        shape {
          dim {
            size: -1
          }
          dim {
            size: 1
          }
        }
      }
    }
  }
}
node {
  name: "linear/linear_model/linear/linear_model/linear/linear_model/passengers/Shape"
  op: "Shape"
  input: "linear/linear_model/linear/linear_model/linear/linear_model/passengers/ExpandDims"
  attr {
    key: "T"
    value {
      type: DT_FLOAT
    }
  }
  attr {
    key: "_output_shapes"
    value {
      list {
        shape {
          dim {
            size: 2
          }
        }
      }
    }
  }
  attr {
    key: "out_type"
    value {
      type: DT_INT32
    }
  }
}
node {
  name: "linear/linear_model/linear/linear_model/linear/linear_model/passengers/strided_slice/stack"
  op: "Const"
  attr {
    key: "_output_shapes"
    value {
      list {
        shape {
          dim {
            size: 1
          }
        }
      }
    }
  }
  attr {
    key: "dtype"
    value {
      type: DT_INT32
    }
  }
  attr {
    key: "value"
    value {
      tensor {
        dtype: DT_INT32
        tensor_shape {
          dim {
            size: 1
          }
        }
        int_val: 0
      }
    }
  }
}
node {
  name: "linear/linear_model/linear/linear_model/linear/linear_model/passengers/strided_slice/stack_1"
  op: "Const"
  attr {
    key: "_output_shapes"
    value {
      list {
        shape {
          dim {
            size: 1
          }
        }
      }
    }
  }
  attr {
    key: "dtype"
    value {
      type: DT_INT32
    }
  }
  attr {
    key: "value"
    value {
      tensor {
        dtype: DT_INT32
        tensor_shape {
          dim {
            size: 1
          }
        }
        int_val: 1
      }
    }
  }
}
node {
  name: "linear/linear_model/linear/linear_model/linear/linear_model/passengers/strided_slice/stack_2"
  op: "Const"
  attr {
    key: "_output_shapes"
    value {
      list {
        shape {
          dim {
            size: 1
          }
        }
      }
    }
  }
  attr {
    key: "dtype"
    value {
      type: DT_INT32
    }
  }
  attr {
    key: "value"
    value {
      tensor {
        dtype: DT_INT32
        tensor_shape {
          dim {
            size: 1
          }
        }
        int_val: 1
      }
    }
  }
}
node {
  name: "linear/linear_model/linear/linear_model/linear/linear_model/passengers/strided_slice"
  op: "StridedSlice"
  input: "linear/linear_model/linear/linear_model/linear/linear_model/passengers/Shape"
  input: "linear/linear_model/linear/linear_model/linear/linear_model/passengers/strided_slice/stack"
  input: "linear/linear_model/linear/linear_model/linear/linear_model/passengers/strided_slice/stack_1"
  input: "linear/linear_model/linear/linear_model/linear/linear_model/passengers/strided_slice/stack_2"
  attr {
    key: "Index"
    value {
      type: DT_INT32
    }
  }
  attr {
    key: "T"
    value {
      type: DT_INT32
    }
  }
  attr {
    key: "_output_shapes"
    value {
      list {
        shape {
        }
      }
    }
  }
  attr {
    key: "begin_mask"
    value {
      i: 0
    }
  }
  attr {
    key: "ellipsis_mask"
    value {
      i: 0
    }
  }
  attr {
    key: "end_mask"
    value {
      i: 0
    }
  }
  attr {
    key: "new_axis_mask"
    value {
      i: 0
    }
  }
  attr {
    key: "shrink_axis_mask"
    value {
      i: 1
    }
  }
}
node {
  name: "linear/linear_model/linear/linear_model/linear/linear_model/passengers/Reshape/shape/1"
  op: "Const"
  attr {
    key: "_output_shapes"
    value {
      list {
        shape {
        }
      }
    }
  }
  attr {
    key: "dtype"
    value {
      type: DT_INT32
    }
  }
  attr {
    key: "value"
    value {
      tensor {
        dtype: DT_INT32
        tensor_shape {
        }
        int_val: 1
      }
    }
  }
}
node {
  name: "linear/linear_model/linear/linear_model/linear/linear_model/passengers/Reshape/shape"
  op: "Pack"
  input: "linear/linear_model/linear/linear_model/linear/linear_model/passengers/strided_slice"
  input: "linear/linear_model/linear/linear_model/linear/linear_model/passengers/Reshape/shape/1"
  attr {
    key: "N"
    value {
      i: 2
    }
  }
  attr {
    key: "T"
    value {
      type: DT_INT32
    }
  }
  attr {
    key: "_output_shapes"
    value {
      list {
        shape {
          dim {
            size: 2
          }
        }
      }
    }
  }
  attr {
    key: "axis"
    value {
      i: 0
    }
  }
}
node {
  name: "linear/linear_model/linear/linear_model/linear/linear_model/passengers/Reshape"
  op: "Reshape"
  input: "linear/linear_model/linear/linear_model/linear/linear_model/passengers/ExpandDims"
  input: "linear/linear_model/linear/linear_model/linear/linear_model/passengers/Reshape/shape"
  attr {
    key: "T"
    value {
      type: DT_FLOAT
    }
  }
  attr {
    key: "Tshape"
    value {
      type: DT_INT32
    }
  }
  attr {
    key: "_output_shapes"
    value {
      list {
        shape {
          dim {
            size: -1
          }
          dim {
            size: 1
          }
        }
      }
    }
  }
}
node {
  name: "linear/linear_model/linear/linear_model/linear/linear_model/passengers/weighted_sum/ReadVariableOp"
  op: "ReadVariableOp"
  input: "linear/linear_model/passengers/weights"
  attr {
    key: "_output_shapes"
    value {
      list {
        shape {
          dim {
            size: 1
          }
          dim {
            size: 1
          }
        }
      }
    }
  }
  attr {
    key: "dtype"
    value {
      type: DT_FLOAT
    }
  }
}
node {
  name: "linear/linear_model/linear/linear_model/linear/linear_model/passengers/weighted_sum"
  op: "MatMul"
  input: "linear/linear_model/linear/linear_model/linear/linear_model/passengers/Reshape"
  input: "linear/linear_model/linear/linear_model/linear/linear_model/passengers/weighted_sum/ReadVariableOp"
  attr {
    key: "T"
    value {
      type: DT_FLOAT
    }
  }
  attr {
    key: "_output_shapes"
    value {
      list {
        shape {
          dim {
            size: -1
          }
          dim {
            size: 1
          }
        }
      }
    }
  }
  attr {
    key: "transpose_a"
    value {
      b: false
    }
  }
  attr {
    key: "transpose_b"
    value {
      b: false
    }
  }
}
node {
  name: "linear/linear_model/linear/linear_model/linear/linear_model/pickuplat/ExpandDims/dim"
  op: "Const"
  attr {
    key: "_output_shapes"
    value {
      list {
        shape {
        }
      }
    }
  }
  attr {
    key: "dtype"
    value {
      type: DT_INT32
    }
  }
  attr {
    key: "value"
    value {
      tensor {
        dtype: DT_INT32
        tensor_shape {
        }
        int_val: -1
      }
    }
  }
}
node {
  name: "linear/linear_model/linear/linear_model/linear/linear_model/pickuplat/ExpandDims"
  op: "ExpandDims"
  input: "IteratorGetNext:3"
  input: "linear/linear_model/linear/linear_model/linear/linear_model/pickuplat/ExpandDims/dim"
  attr {
    key: "T"
    value {
      type: DT_FLOAT
    }
  }
  attr {
    key: "Tdim"
    value {
      type: DT_INT32
    }
  }
  attr {
    key: "_output_shapes"
    value {
      list {
        shape {
          dim {
            size: -1
          }
          dim {
            size: 1
          }
        }
      }
    }
  }
}
node {
  name: "linear/linear_model/linear/linear_model/linear/linear_model/pickuplat/Shape"
  op: "Shape"
  input: "linear/linear_model/linear/linear_model/linear/linear_model/pickuplat/ExpandDims"
  attr {
    key: "T"
    value {
      type: DT_FLOAT
    }
  }
  attr {
    key: "_output_shapes"
    value {
      list {
        shape {
          dim {
            size: 2
          }
        }
      }
    }
  }
  attr {
    key: "out_type"
    value {
      type: DT_INT32
    }
  }
}
node {
  name: "linear/linear_model/linear/linear_model/linear/linear_model/pickuplat/strided_slice/stack"
  op: "Const"
  attr {
    key: "_output_shapes"
    value {
      list {
        shape {
          dim {
            size: 1
          }
        }
      }
    }
  }
  attr {
    key: "dtype"
    value {
      type: DT_INT32
    }
  }
  attr {
    key: "value"
    value {
      tensor {
        dtype: DT_INT32
        tensor_shape {
          dim {
            size: 1
          }
        }
        int_val: 0
      }
    }
  }
}
node {
  name: "linear/linear_model/linear/linear_model/linear/linear_model/pickuplat/strided_slice/stack_1"
  op: "Const"
  attr {
    key: "_output_shapes"
    value {
      list {
        shape {
          dim {
            size: 1
          }
        }
      }
    }
  }
  attr {
    key: "dtype"
    value {
      type: DT_INT32
    }
  }
  attr {
    key: "value"
    value {
      tensor {
        dtype: DT_INT32
        tensor_shape {
          dim {
            size: 1
          }
        }
        int_val: 1
      }
    }
  }
}
node {
  name: "linear/linear_model/linear/linear_model/linear/linear_model/pickuplat/strided_slice/stack_2"
  op: "Const"
  attr {
    key: "_output_shapes"
    value {
      list {
        shape {
          dim {
            size: 1
          }
        }
      }
    }
  }
  attr {
    key: "dtype"
    value {
      type: DT_INT32
    }
  }
  attr {
    key: "value"
    value {
      tensor {
        dtype: DT_INT32
        tensor_shape {
          dim {
            size: 1
          }
        }
        int_val: 1
      }
    }
  }
}
node {
  name: "linear/linear_model/linear/linear_model/linear/linear_model/pickuplat/strided_slice"
  op: "StridedSlice"
  input: "linear/linear_model/linear/linear_model/linear/linear_model/pickuplat/Shape"
  input: "linear/linear_model/linear/linear_model/linear/linear_model/pickuplat/strided_slice/stack"
  input: "linear/linear_model/linear/linear_model/linear/linear_model/pickuplat/strided_slice/stack_1"
  input: "linear/linear_model/linear/linear_model/linear/linear_model/pickuplat/strided_slice/stack_2"
  attr {
    key: "Index"
    value {
      type: DT_INT32
    }
  }
  attr {
    key: "T"
    value {
      type: DT_INT32
    }
  }
  attr {
    key: "_output_shapes"
    value {
      list {
        shape {
        }
      }
    }
  }
  attr {
    key: "begin_mask"
    value {
      i: 0
    }
  }
  attr {
    key: "ellipsis_mask"
    value {
      i: 0
    }
  }
  attr {
    key: "end_mask"
    value {
      i: 0
    }
  }
  attr {
    key: "new_axis_mask"
    value {
      i: 0
    }
  }
  attr {
    key: "shrink_axis_mask"
    value {
      i: 1
    }
  }
}
node {
  name: "linear/linear_model/linear/linear_model/linear/linear_model/pickuplat/Reshape/shape/1"
  op: "Const"
  attr {
    key: "_output_shapes"
    value {
      list {
        shape {
        }
      }
    }
  }
  attr {
    key: "dtype"
    value {
      type: DT_INT32
    }
  }
  attr {
    key: "value"
    value {
      tensor {
        dtype: DT_INT32
        tensor_shape {
        }
        int_val: 1
      }
    }
  }
}
node {
  name: "linear/linear_model/linear/linear_model/linear/linear_model/pickuplat/Reshape/shape"
  op: "Pack"
  input: "linear/linear_model/linear/linear_model/linear/linear_model/pickuplat/strided_slice"
  input: "linear/linear_model/linear/linear_model/linear/linear_model/pickuplat/Reshape/shape/1"
  attr {
    key: "N"
    value {
      i: 2
    }
  }
  attr {
    key: "T"
    value {
      type: DT_INT32
    }
  }
  attr {
    key: "_output_shapes"
    value {
      list {
        shape {
          dim {
            size: 2
          }
        }
      }
    }
  }
  attr {
    key: "axis"
    value {
      i: 0
    }
  }
}
node {
  name: "linear/linear_model/linear/linear_model/linear/linear_model/pickuplat/Reshape"
  op: "Reshape"
  input: "linear/linear_model/linear/linear_model/linear/linear_model/pickuplat/ExpandDims"
  input: "linear/linear_model/linear/linear_model/linear/linear_model/pickuplat/Reshape/shape"
  attr {
    key: "T"
    value {
      type: DT_FLOAT
    }
  }
  attr {
    key: "Tshape"
    value {
      type: DT_INT32
    }
  }
  attr {
    key: "_output_shapes"
    value {
      list {
        shape {
          dim {
            size: -1
          }
          dim {
            size: 1
          }
        }
      }
    }
  }
}
node {
  name: "linear/linear_model/linear/linear_model/linear/linear_model/pickuplat/weighted_sum/ReadVariableOp"
  op: "ReadVariableOp"
  input: "linear/linear_model/pickuplat/weights"
  attr {
    key: "_output_shapes"
    value {
      list {
        shape {
          dim {
            size: 1
          }
          dim {
            size: 1
          }
        }
      }
    }
  }
  attr {
    key: "dtype"
    value {
      type: DT_FLOAT
    }
  }
}
node {
  name: "linear/linear_model/linear/linear_model/linear/linear_model/pickuplat/weighted_sum"
  op: "MatMul"
  input: "linear/linear_model/linear/linear_model/linear/linear_model/pickuplat/Reshape"
  input: "linear/linear_model/linear/linear_model/linear/linear_model/pickuplat/weighted_sum/ReadVariableOp"
  attr {
    key: "T"
    value {
      type: DT_FLOAT
    }
  }
  attr {
    key: "_output_shapes"
    value {
      list {
        shape {
          dim {
            size: -1
          }
          dim {
            size: 1
          }
        }
      }
    }
  }
  attr {
    key: "transpose_a"
    value {
      b: false
    }
  }
  attr {
    key: "transpose_b"
    value {
      b: false
    }
  }
}
node {
  name: "linear/linear_model/linear/linear_model/linear/linear_model/pickuplon/ExpandDims/dim"
  op: "Const"
  attr {
    key: "_output_shapes"
    value {
      list {
        shape {
        }
      }
    }
  }
  attr {
    key: "dtype"
    value {
      type: DT_INT32
    }
  }
  attr {
    key: "value"
    value {
      tensor {
        dtype: DT_INT32
        tensor_shape {
        }
        int_val: -1
      }
    }
  }
}
node {
  name: "linear/linear_model/linear/linear_model/linear/linear_model/pickuplon/ExpandDims"
  op: "ExpandDims"
  input: "IteratorGetNext:4"
  input: "linear/linear_model/linear/linear_model/linear/linear_model/pickuplon/ExpandDims/dim"
  attr {
    key: "T"
    value {
      type: DT_FLOAT
    }
  }
  attr {
    key: "Tdim"
    value {
      type: DT_INT32
    }
  }
  attr {
    key: "_output_shapes"
    value {
      list {
        shape {
          dim {
            size: -1
          }
          dim {
            size: 1
          }
        }
      }
    }
  }
}
node {
  name: "linear/linear_model/linear/linear_model/linear/linear_model/pickuplon/Shape"
  op: "Shape"
  input: "linear/linear_model/linear/linear_model/linear/linear_model/pickuplon/ExpandDims"
  attr {
    key: "T"
    value {
      type: DT_FLOAT
    }
  }
  attr {
    key: "_output_shapes"
    value {
      list {
        shape {
          dim {
            size: 2
          }
        }
      }
    }
  }
  attr {
    key: "out_type"
    value {
      type: DT_INT32
    }
  }
}
node {
  name: "linear/linear_model/linear/linear_model/linear/linear_model/pickuplon/strided_slice/stack"
  op: "Const"
  attr {
    key: "_output_shapes"
    value {
      list {
        shape {
          dim {
            size: 1
          }
        }
      }
    }
  }
  attr {
    key: "dtype"
    value {
      type: DT_INT32
    }
  }
  attr {
    key: "value"
    value {
      tensor {
        dtype: DT_INT32
        tensor_shape {
          dim {
            size: 1
          }
        }
        int_val: 0
      }
    }
  }
}
node {
  name: "linear/linear_model/linear/linear_model/linear/linear_model/pickuplon/strided_slice/stack_1"
  op: "Const"
  attr {
    key: "_output_shapes"
    value {
      list {
        shape {
          dim {
            size: 1
          }
        }
      }
    }
  }
  attr {
    key: "dtype"
    value {
      type: DT_INT32
    }
  }
  attr {
    key: "value"
    value {
      tensor {
        dtype: DT_INT32
        tensor_shape {
          dim {
            size: 1
          }
        }
        int_val: 1
      }
    }
  }
}
node {
  name: "linear/linear_model/linear/linear_model/linear/linear_model/pickuplon/strided_slice/stack_2"
  op: "Const"
  attr {
    key: "_output_shapes"
    value {
      list {
        shape {
          dim {
            size: 1
          }
        }
      }
    }
  }
  attr {
    key: "dtype"
    value {
      type: DT_INT32
    }
  }
  attr {
    key: "value"
    value {
      tensor {
        dtype: DT_INT32
        tensor_shape {
          dim {
            size: 1
          }
        }
        int_val: 1
      }
    }
  }
}
node {
  name: "linear/linear_model/linear/linear_model/linear/linear_model/pickuplon/strided_slice"
  op: "StridedSlice"
  input: "linear/linear_model/linear/linear_model/linear/linear_model/pickuplon/Shape"
  input: "linear/linear_model/linear/linear_model/linear/linear_model/pickuplon/strided_slice/stack"
  input: "linear/linear_model/linear/linear_model/linear/linear_model/pickuplon/strided_slice/stack_1"
  input: "linear/linear_model/linear/linear_model/linear/linear_model/pickuplon/strided_slice/stack_2"
  attr {
    key: "Index"
    value {
      type: DT_INT32
    }
  }
  attr {
    key: "T"
    value {
      type: DT_INT32
    }
  }
  attr {
    key: "_output_shapes"
    value {
      list {
        shape {
        }
      }
    }
  }
  attr {
    key: "begin_mask"
    value {
      i: 0
    }
  }
  attr {
    key: "ellipsis_mask"
    value {
      i: 0
    }
  }
  attr {
    key: "end_mask"
    value {
      i: 0
    }
  }
  attr {
    key: "new_axis_mask"
    value {
      i: 0
    }
  }
  attr {
    key: "shrink_axis_mask"
    value {
      i: 1
    }
  }
}
node {
  name: "linear/linear_model/linear/linear_model/linear/linear_model/pickuplon/Reshape/shape/1"
  op: "Const"
  attr {
    key: "_output_shapes"
    value {
      list {
        shape {
        }
      }
    }
  }
  attr {
    key: "dtype"
    value {
      type: DT_INT32
    }
  }
  attr {
    key: "value"
    value {
      tensor {
        dtype: DT_INT32
        tensor_shape {
        }
        int_val: 1
      }
    }
  }
}
node {
  name: "linear/linear_model/linear/linear_model/linear/linear_model/pickuplon/Reshape/shape"
  op: "Pack"
  input: "linear/linear_model/linear/linear_model/linear/linear_model/pickuplon/strided_slice"
  input: "linear/linear_model/linear/linear_model/linear/linear_model/pickuplon/Reshape/shape/1"
  attr {
    key: "N"
    value {
      i: 2
    }
  }
  attr {
    key: "T"
    value {
      type: DT_INT32
    }
  }
  attr {
    key: "_output_shapes"
    value {
      list {
        shape {
          dim {
            size: 2
          }
        }
      }
    }
  }
  attr {
    key: "axis"
    value {
      i: 0
    }
  }
}
node {
  name: "linear/linear_model/linear/linear_model/linear/linear_model/pickuplon/Reshape"
  op: "Reshape"
  input: "linear/linear_model/linear/linear_model/linear/linear_model/pickuplon/ExpandDims"
  input: "linear/linear_model/linear/linear_model/linear/linear_model/pickuplon/Reshape/shape"
  attr {
    key: "T"
    value {
      type: DT_FLOAT
    }
  }
  attr {
    key: "Tshape"
    value {
      type: DT_INT32
    }
  }
  attr {
    key: "_output_shapes"
    value {
      list {
        shape {
          dim {
            size: -1
          }
          dim {
            size: 1
          }
        }
      }
    }
  }
}
node {
  name: "linear/linear_model/linear/linear_model/linear/linear_model/pickuplon/weighted_sum/ReadVariableOp"
  op: "ReadVariableOp"
  input: "linear/linear_model/pickuplon/weights"
  attr {
    key: "_output_shapes"
    value {
      list {
        shape {
          dim {
            size: 1
          }
          dim {
            size: 1
          }
        }
      }
    }
  }
  attr {
    key: "dtype"
    value {
      type: DT_FLOAT
    }
  }
}
node {
  name: "linear/linear_model/linear/linear_model/linear/linear_model/pickuplon/weighted_sum"
  op: "MatMul"
  input: "linear/linear_model/linear/linear_model/linear/linear_model/pickuplon/Reshape"
  input: "linear/linear_model/linear/linear_model/linear/linear_model/pickuplon/weighted_sum/ReadVariableOp"
  attr {
    key: "T"
    value {
      type: DT_FLOAT
    }
  }
  attr {
    key: "_output_shapes"
    value {
      list {
        shape {
          dim {
            size: -1
          }
          dim {
            size: 1
          }
        }
      }
    }
  }
  attr {
    key: "transpose_a"
    value {
      b: false
    }
  }
  attr {
    key: "transpose_b"
    value {
      b: false
    }
  }
}
node {
  name: "linear/linear_model/linear/linear_model/linear/linear_model/weighted_sum_no_bias"
  op: "AddN"
  input: "linear/linear_model/linear/linear_model/linear/linear_model/dropofflat/weighted_sum"
  input: "linear/linear_model/linear/linear_model/linear/linear_model/dropofflon/weighted_sum"
  input: "linear/linear_model/linear/linear_model/linear/linear_model/passengers/weighted_sum"
  input: "linear/linear_model/linear/linear_model/linear/linear_model/pickuplat/weighted_sum"
  input: "linear/linear_model/linear/linear_model/linear/linear_model/pickuplon/weighted_sum"
  attr {
    key: "N"
    value {
      i: 5
    }
  }
  attr {
    key: "T"
    value {
      type: DT_FLOAT
    }
  }
  attr {
    key: "_output_shapes"
    value {
      list {
        shape {
          dim {
            size: -1
          }
          dim {
            size: 1
          }
        }
      }
    }
  }
}
node {
  name: "linear/linear_model/linear/linear_model/linear/linear_model/weighted_sum/ReadVariableOp"
  op: "ReadVariableOp"
  input: "linear/linear_model/bias_weights"
  attr {
    key: "_output_shapes"
    value {
      list {
        shape {
          dim {
            size: 1
          }
        }
      }
    }
  }
  attr {
    key: "dtype"
    value {
      type: DT_FLOAT
    }
  }
}
node {
  name: "linear/linear_model/linear/linear_model/linear/linear_model/weighted_sum"
  op: "BiasAdd"
  input: "linear/linear_model/linear/linear_model/linear/linear_model/weighted_sum_no_bias"
  input: "linear/linear_model/linear/linear_model/linear/linear_model/weighted_sum/ReadVariableOp"
  attr {
    key: "T"
    value {
      type: DT_FLOAT
    }
  }
  attr {
    key: "_output_shapes"
    value {
      list {
        shape {
          dim {
            size: -1
          }
          dim {
            size: 1
          }
        }
      }
    }
  }
  attr {
    key: "data_format"
    value {
      s: "NHWC"
    }
  }
}
node {
  name: "ReadVariableOp"
  op: "ReadVariableOp"
  input: "linear/linear_model/bias_weights"
  attr {
    key: "_output_shapes"
    value {
      list {
        shape {
          dim {
            size: 1
          }
        }
      }
    }
  }
  attr {
    key: "dtype"
    value {
      type: DT_FLOAT
    }
  }
}
node {
  name: "strided_slice/stack"
  op: "Const"
  attr {
    key: "_output_shapes"
    value {
      list {
        shape {
          dim {
            size: 1
          }
        }
      }
    }
  }
  attr {
    key: "dtype"
    value {
      type: DT_INT32
    }
  }
  attr {
    key: "value"
    value {
      tensor {
        dtype: DT_INT32
        tensor_shape {
          dim {
            size: 1
          }
        }
        int_val: 0
      }
    }
  }
}
node {
  name: "strided_slice/stack_1"
  op: "Const"
  attr {
    key: "_output_shapes"
    value {
      list {
        shape {
          dim {
            size: 1
          }
        }
      }
    }
  }
  attr {
    key: "dtype"
    value {
      type: DT_INT32
    }
  }
  attr {
    key: "value"
    value {
      tensor {
        dtype: DT_INT32
        tensor_shape {
          dim {
            size: 1
          }
        }
        int_val: 1
      }
    }
  }
}
node {
  name: "strided_slice/stack_2"
  op: "Const"
  attr {
    key: "_output_shapes"
    value {
      list {
        shape {
          dim {
            size: 1
          }
        }
      }
    }
  }
  attr {
    key: "dtype"
    value {
      type: DT_INT32
    }
  }
  attr {
    key: "value"
    value {
      tensor {
        dtype: DT_INT32
        tensor_shape {
          dim {
            size: 1
          }
        }
        int_val: 1
      }
    }
  }
}
node {
  name: "strided_slice"
  op: "StridedSlice"
  input: "ReadVariableOp"
  input: "strided_slice/stack"
  input: "strided_slice/stack_1"
  input: "strided_slice/stack_2"
  attr {
    key: "Index"
    value {
      type: DT_INT32
    }
  }
  attr {
    key: "T"
    value {
      type: DT_FLOAT
    }
  }
  attr {
    key: "_output_shapes"
    value {
      list {
        shape {
        }
      }
    }
  }
  attr {
    key: "begin_mask"
    value {
      i: 0
    }
  }
  attr {
    key: "ellipsis_mask"
    value {
      i: 0
    }
  }
  attr {
    key: "end_mask"
    value {
      i: 0
    }
  }
  attr {
    key: "new_axis_mask"
    value {
      i: 0
    }
  }
  attr {
    key: "shrink_axis_mask"
    value {
      i: 1
    }
  }
}
node {
  name: "bias/tags"
  op: "Const"
  attr {
    key: "_output_shapes"
    value {
      list {
        shape {
        }
      }
    }
  }
  attr {
    key: "dtype"
    value {
      type: DT_STRING
    }
  }
  attr {
    key: "value"
    value {
      tensor {
        dtype: DT_STRING
        tensor_shape {
        }
        string_val: "bias"
      }
    }
  }
}
node {
  name: "bias"
  op: "ScalarSummary"
  input: "bias/tags"
  input: "strided_slice"
  attr {
    key: "T"
    value {
      type: DT_FLOAT
    }
  }
  attr {
    key: "_output_shapes"
    value {
      list {
        shape {
        }
      }
    }
  }
}
node {
  name: "zero_fraction/total_size/Size/ReadVariableOp"
  op: "ReadVariableOp"
  input: "linear/linear_model/dropofflat/weights"
  attr {
    key: "_output_shapes"
    value {
      list {
        shape {
          dim {
            size: 1
          }
          dim {
            size: 1
          }
        }
      }
    }
  }
  attr {
    key: "dtype"
    value {
      type: DT_FLOAT
    }
  }
}
node {
  name: "zero_fraction/total_size/Size"
  op: "Const"
  attr {
    key: "_output_shapes"
    value {
      list {
        shape {
        }
      }
    }
  }
  attr {
    key: "dtype"
    value {
      type: DT_INT64
    }
  }
  attr {
    key: "value"
    value {
      tensor {
        dtype: DT_INT64
        tensor_shape {
        }
        int64_val: 1
      }
    }
  }
}
node {
  name: "zero_fraction/total_size/Size_1/ReadVariableOp"
  op: "ReadVariableOp"
  input: "linear/linear_model/dropofflon/weights"
  attr {
    key: "_output_shapes"
    value {
      list {
        shape {
          dim {
            size: 1
          }
          dim {
            size: 1
          }
        }
      }
    }
  }
  attr {
    key: "dtype"
    value {
      type: DT_FLOAT
    }
  }
}
node {
  name: "zero_fraction/total_size/Size_1"
  op: "Const"
  attr {
    key: "_output_shapes"
    value {
      list {
        shape {
        }
      }
    }
  }
  attr {
    key: "dtype"
    value {
      type: DT_INT64
    }
  }
  attr {
    key: "value"
    value {
      tensor {
        dtype: DT_INT64
        tensor_shape {
        }
        int64_val: 1
      }
    }
  }
}
node {
  name: "zero_fraction/total_size/Size_2/ReadVariableOp"
  op: "ReadVariableOp"
  input: "linear/linear_model/passengers/weights"
  attr {
    key: "_output_shapes"
    value {
      list {
        shape {
          dim {
            size: 1
          }
          dim {
            size: 1
          }
        }
      }
    }
  }
  attr {
    key: "dtype"
    value {
      type: DT_FLOAT
    }
  }
}
node {
  name: "zero_fraction/total_size/Size_2"
  op: "Const"
  attr {
    key: "_output_shapes"
    value {
      list {
        shape {
        }
      }
    }
  }
  attr {
    key: "dtype"
    value {
      type: DT_INT64
    }
  }
  attr {
    key: "value"
    value {
      tensor {
        dtype: DT_INT64
        tensor_shape {
        }
        int64_val: 1
      }
    }
  }
}
node {
  name: "zero_fraction/total_size/Size_3/ReadVariableOp"
  op: "ReadVariableOp"
  input: "linear/linear_model/pickuplat/weights"
  attr {
    key: "_output_shapes"
    value {
      list {
        shape {
          dim {
            size: 1
          }
          dim {
            size: 1
          }
        }
      }
    }
  }
  attr {
    key: "dtype"
    value {
      type: DT_FLOAT
    }
  }
}
node {
  name: "zero_fraction/total_size/Size_3"
  op: "Const"
  attr {
    key: "_output_shapes"
    value {
      list {
        shape {
        }
      }
    }
  }
  attr {
    key: "dtype"
    value {
      type: DT_INT64
    }
  }
  attr {
    key: "value"
    value {
      tensor {
        dtype: DT_INT64
        tensor_shape {
        }
        int64_val: 1
      }
    }
  }
}
node {
  name: "zero_fraction/total_size/Size_4/ReadVariableOp"
  op: "ReadVariableOp"
  input: "linear/linear_model/pickuplon/weights"
  attr {
    key: "_output_shapes"
    value {
      list {
        shape {
          dim {
            size: 1
          }
          dim {
            size: 1
          }
        }
      }
    }
  }
  attr {
    key: "dtype"
    value {
      type: DT_FLOAT
    }
  }
}
node {
  name: "zero_fraction/total_size/Size_4"
  op: "Const"
  attr {
    key: "_output_shapes"
    value {
      list {
        shape {
        }
      }
    }
  }
  attr {
    key: "dtype"
    value {
      type: DT_INT64
    }
  }
  attr {
    key: "value"
    value {
      tensor {
        dtype: DT_INT64
        tensor_shape {
        }
        int64_val: 1
      }
    }
  }
}
node {
  name: "zero_fraction/total_size/AddN"
  op: "AddN"
  input: "zero_fraction/total_size/Size"
  input: "zero_fraction/total_size/Size_1"
  input: "zero_fraction/total_size/Size_2"
  input: "zero_fraction/total_size/Size_3"
  input: "zero_fraction/total_size/Size_4"
  attr {
    key: "N"
    value {
      i: 5
    }
  }
  attr {
    key: "T"
    value {
      type: DT_INT64
    }
  }
  attr {
    key: "_output_shapes"
    value {
      list {
        shape {
        }
      }
    }
  }
}
node {
  name: "zero_fraction/total_zero/Const"
  op: "Const"
  attr {
    key: "_output_shapes"
    value {
      list {
        shape {
        }
      }
    }
  }
  attr {
    key: "dtype"
    value {
      type: DT_INT64
    }
  }
  attr {
    key: "value"
    value {
      tensor {
        dtype: DT_INT64
        tensor_shape {
        }
        int64_val: 0
      }
    }
  }
}
node {
  name: "zero_fraction/total_zero/Equal"
  op: "Equal"
  input: "zero_fraction/total_size/Size"
  input: "zero_fraction/total_zero/Const"
  attr {
    key: "T"
    value {
      type: DT_INT64
    }
  }
  attr {
    key: "_output_shapes"
    value {
      list {
        shape {
        }
      }
    }
  }
  attr {
    key: "incompatible_shape_error"
    value {
      b: true
    }
  }
}
node {
  name: "zero_fraction/total_zero/zero_count"
  op: "If"
  input: "zero_fraction/total_zero/Equal"
  input: "linear/linear_model/dropofflat/weights"
  input: "zero_fraction/total_size/Size"
  attr {
    key: "Tcond"
    value {
      type: DT_BOOL
    }
  }
  attr {
    key: "Tin"
    value {
      list {
        type: DT_RESOURCE
        type: DT_INT64
      }
    }
  }
  attr {
    key: "Tout"
    value {
      list {
        type: DT_FLOAT
      }
    }
  }
  attr {
    key: "_lower_using_switch_merge"
    value {
      b: true
    }
  }
  attr {
    key: "_output_shapes"
    value {
      list {
        shape {
        }
      }
    }
  }
  attr {
    key: "else_branch"
    value {
      func {
        name: "zero_fraction_total_zero_zero_count_false_210"
      }
    }
  }
  attr {
    key: "output_shapes"
    value {
      list {
        shape {
        }
      }
    }
  }
  attr {
    key: "then_branch"
    value {
      func {
        name: "zero_fraction_total_zero_zero_count_true_209"
      }
    }
  }
}
node {
  name: "zero_fraction/total_zero/zero_count/Identity"
  op: "Identity"
  input: "zero_fraction/total_zero/zero_count"
  attr {
    key: "T"
    value {
      type: DT_FLOAT
    }
  }
  attr {
    key: "_output_shapes"
    value {
      list {
        shape {
        }
      }
    }
  }
}
node {
  name: "zero_fraction/total_zero/Const_1"
  op: "Const"
  attr {
    key: "_output_shapes"
    value {
      list {
        shape {
        }
      }
    }
  }
  attr {
    key: "dtype"
    value {
      type: DT_INT64
    }
  }
  attr {
    key: "value"
    value {
      tensor {
        dtype: DT_INT64
        tensor_shape {
        }
        int64_val: 0
      }
    }
  }
}
node {
  name: "zero_fraction/total_zero/Equal_1"
  op: "Equal"
  input: "zero_fraction/total_size/Size_1"
  input: "zero_fraction/total_zero/Const_1"
  attr {
    key: "T"
    value {
      type: DT_INT64
    }
  }
  attr {
    key: "_output_shapes"
    value {
      list {
        shape {
        }
      }
    }
  }
  attr {
    key: "incompatible_shape_error"
    value {
      b: true
    }
  }
}
node {
  name: "zero_fraction/total_zero/zero_count_1"
  op: "If"
  input: "zero_fraction/total_zero/Equal_1"
  input: "linear/linear_model/dropofflon/weights"
  input: "zero_fraction/total_size/Size_1"
  attr {
    key: "Tcond"
    value {
      type: DT_BOOL
    }
  }
  attr {
    key: "Tin"
    value {
      list {
        type: DT_RESOURCE
        type: DT_INT64
      }
    }
  }
  attr {
    key: "Tout"
    value {
      list {
        type: DT_FLOAT
      }
    }
  }
  attr {
    key: "_lower_using_switch_merge"
    value {
      b: true
    }
  }
  attr {
    key: "_output_shapes"
    value {
      list {
        shape {
        }
      }
    }
  }
  attr {
    key: "else_branch"
    value {
      func {
        name: "zero_fraction_total_zero_zero_count_1_false_253"
      }
    }
  }
  attr {
    key: "output_shapes"
    value {
      list {
        shape {
        }
      }
    }
  }
  attr {
    key: "then_branch"
    value {
      func {
        name: "zero_fraction_total_zero_zero_count_1_true_252"
      }
    }
  }
}
node {
  name: "zero_fraction/total_zero/zero_count_1/Identity"
  op: "Identity"
  input: "zero_fraction/total_zero/zero_count_1"
  attr {
    key: "T"
    value {
      type: DT_FLOAT
    }
  }
  attr {
    key: "_output_shapes"
    value {
      list {
        shape {
        }
      }
    }
  }
}
node {
  name: "zero_fraction/total_zero/Const_2"
  op: "Const"
  attr {
    key: "_output_shapes"
    value {
      list {
        shape {
        }
      }
    }
  }
  attr {
    key: "dtype"
    value {
      type: DT_INT64
    }
  }
  attr {
    key: "value"
    value {
      tensor {
        dtype: DT_INT64
        tensor_shape {
        }
        int64_val: 0
      }
    }
  }
}
node {
  name: "zero_fraction/total_zero/Equal_2"
  op: "Equal"
  input: "zero_fraction/total_size/Size_2"
  input: "zero_fraction/total_zero/Const_2"
  attr {
    key: "T"
    value {
      type: DT_INT64
    }
  }
  attr {
    key: "_output_shapes"
    value {
      list {
        shape {
        }
      }
    }
  }
  attr {
    key: "incompatible_shape_error"
    value {
      b: true
    }
  }
}
node {
  name: "zero_fraction/total_zero/zero_count_2"
  op: "If"
  input: "zero_fraction/total_zero/Equal_2"
  input: "linear/linear_model/passengers/weights"
  input: "zero_fraction/total_size/Size_2"
  attr {
    key: "Tcond"
    value {
      type: DT_BOOL
    }
  }
  attr {
    key: "Tin"
    value {
      list {
        type: DT_RESOURCE
        type: DT_INT64
      }
    }
  }
  attr {
    key: "Tout"
    value {
      list {
        type: DT_FLOAT
      }
    }
  }
  attr {
    key: "_lower_using_switch_merge"
    value {
      b: true
    }
  }
  attr {
    key: "_output_shapes"
    value {
      list {
        shape {
        }
      }
    }
  }
  attr {
    key: "else_branch"
    value {
      func {
        name: "zero_fraction_total_zero_zero_count_2_false_296"
      }
    }
  }
  attr {
    key: "output_shapes"
    value {
      list {
        shape {
        }
      }
    }
  }
  attr {
    key: "then_branch"
    value {
      func {
        name: "zero_fraction_total_zero_zero_count_2_true_295"
      }
    }
  }
}
node {
  name: "zero_fraction/total_zero/zero_count_2/Identity"
  op: "Identity"
  input: "zero_fraction/total_zero/zero_count_2"
  attr {
    key: "T"
    value {
      type: DT_FLOAT
    }
  }
  attr {
    key: "_output_shapes"
    value {
      list {
        shape {
        }
      }
    }
  }
}
node {
  name: "zero_fraction/total_zero/Const_3"
  op: "Const"
  attr {
    key: "_output_shapes"
    value {
      list {
        shape {
        }
      }
    }
  }
  attr {
    key: "dtype"
    value {
      type: DT_INT64
    }
  }
  attr {
    key: "value"
    value {
      tensor {
        dtype: DT_INT64
        tensor_shape {
        }
        int64_val: 0
      }
    }
  }
}
node {
  name: "zero_fraction/total_zero/Equal_3"
  op: "Equal"
  input: "zero_fraction/total_size/Size_3"
  input: "zero_fraction/total_zero/Const_3"
  attr {
    key: "T"
    value {
      type: DT_INT64
    }
  }
  attr {
    key: "_output_shapes"
    value {
      list {
        shape {
        }
      }
    }
  }
  attr {
    key: "incompatible_shape_error"
    value {
      b: true
    }
  }
}
node {
  name: "zero_fraction/total_zero/zero_count_3"
  op: "If"
  input: "zero_fraction/total_zero/Equal_3"
  input: "linear/linear_model/pickuplat/weights"
  input: "zero_fraction/total_size/Size_3"
  attr {
    key: "Tcond"
    value {
      type: DT_BOOL
    }
  }
  attr {
    key: "Tin"
    value {
      list {
        type: DT_RESOURCE
        type: DT_INT64
      }
    }
  }
  attr {
    key: "Tout"
    value {
      list {
        type: DT_FLOAT
      }
    }
  }
  attr {
    key: "_lower_using_switch_merge"
    value {
      b: true
    }
  }
  attr {
    key: "_output_shapes"
    value {
      list {
        shape {
        }
      }
    }
  }
  attr {
    key: "else_branch"
    value {
      func {
        name: "zero_fraction_total_zero_zero_count_3_false_339"
      }
    }
  }
  attr {
    key: "output_shapes"
    value {
      list {
        shape {
        }
      }
    }
  }
  attr {
    key: "then_branch"
    value {
      func {
        name: "zero_fraction_total_zero_zero_count_3_true_338"
      }
    }
  }
}
node {
  name: "zero_fraction/total_zero/zero_count_3/Identity"
  op: "Identity"
  input: "zero_fraction/total_zero/zero_count_3"
  attr {
    key: "T"
    value {
      type: DT_FLOAT
    }
  }
  attr {
    key: "_output_shapes"
    value {
      list {
        shape {
        }
      }
    }
  }
}
node {
  name: "zero_fraction/total_zero/Const_4"
  op: "Const"
  attr {
    key: "_output_shapes"
    value {
      list {
        shape {
        }
      }
    }
  }
  attr {
    key: "dtype"
    value {
      type: DT_INT64
    }
  }
  attr {
    key: "value"
    value {
      tensor {
        dtype: DT_INT64
        tensor_shape {
        }
        int64_val: 0
      }
    }
  }
}
node {
  name: "zero_fraction/total_zero/Equal_4"
  op: "Equal"
  input: "zero_fraction/total_size/Size_4"
  input: "zero_fraction/total_zero/Const_4"
  attr {
    key: "T"
    value {
      type: DT_INT64
    }
  }
  attr {
    key: "_output_shapes"
    value {
      list {
        shape {
        }
      }
    }
  }
  attr {
    key: "incompatible_shape_error"
    value {
      b: true
    }
  }
}
node {
  name: "zero_fraction/total_zero/zero_count_4"
  op: "If"
  input: "zero_fraction/total_zero/Equal_4"
  input: "linear/linear_model/pickuplon/weights"
  input: "zero_fraction/total_size/Size_4"
  attr {
    key: "Tcond"
    value {
      type: DT_BOOL
    }
  }
  attr {
    key: "Tin"
    value {
      list {
        type: DT_RESOURCE
        type: DT_INT64
      }
    }
  }
  attr {
    key: "Tout"
    value {
      list {
        type: DT_FLOAT
      }
    }
  }
  attr {
    key: "_lower_using_switch_merge"
    value {
      b: true
    }
  }
  attr {
    key: "_output_shapes"
    value {
      list {
        shape {
        }
      }
    }
  }
  attr {
    key: "else_branch"
    value {
      func {
        name: "zero_fraction_total_zero_zero_count_4_false_382"
      }
    }
  }
  attr {
    key: "output_shapes"
    value {
      list {
        shape {
        }
      }
    }
  }
  attr {
    key: "then_branch"
    value {
      func {
        name: "zero_fraction_total_zero_zero_count_4_true_381"
      }
    }
  }
}
node {
  name: "zero_fraction/total_zero/zero_count_4/Identity"
  op: "Identity"
  input: "zero_fraction/total_zero/zero_count_4"
  attr {
    key: "T"
    value {
      type: DT_FLOAT
    }
  }
  attr {
    key: "_output_shapes"
    value {
      list {
        shape {
        }
      }
    }
  }
}
node {
  name: "zero_fraction/total_zero/AddN"
  op: "AddN"
  input: "zero_fraction/total_zero/zero_count/Identity"
  input: "zero_fraction/total_zero/zero_count_1/Identity"
  input: "zero_fraction/total_zero/zero_count_2/Identity"
  input: "zero_fraction/total_zero/zero_count_3/Identity"
  input: "zero_fraction/total_zero/zero_count_4/Identity"
  attr {
    key: "N"
    value {
      i: 5
    }
  }
  attr {
    key: "T"
    value {
      type: DT_FLOAT
    }
  }
  attr {
    key: "_output_shapes"
    value {
      list {
        shape {
        }
      }
    }
  }
}
node {
  name: "zero_fraction/compute/float32_size"
  op: "Cast"
  input: "zero_fraction/total_size/AddN"
  attr {
    key: "DstT"
    value {
      type: DT_FLOAT
    }
  }
  attr {
    key: "SrcT"
    value {
      type: DT_INT64
    }
  }
  attr {
    key: "Truncate"
    value {
      b: false
    }
  }
  attr {
    key: "_output_shapes"
    value {
      list {
        shape {
        }
      }
    }
  }
}
node {
  name: "zero_fraction/compute/truediv"
  op: "RealDiv"
  input: "zero_fraction/total_zero/AddN"
  input: "zero_fraction/compute/float32_size"
  attr {
    key: "T"
    value {
      type: DT_FLOAT
    }
  }
  attr {
    key: "_output_shapes"
    value {
      list {
        shape {
        }
      }
    }
  }
}
node {
  name: "zero_fraction/zero_fraction_or_nan"
  op: "Identity"
  input: "zero_fraction/compute/truediv"
  attr {
    key: "T"
    value {
      type: DT_FLOAT
    }
  }
  attr {
    key: "_output_shapes"
    value {
      list {
        shape {
        }
      }
    }
  }
}
node {
  name: "fraction_of_zero_weights/tags"
  op: "Const"
  attr {
    key: "_output_shapes"
    value {
      list {
        shape {
        }
      }
    }
  }
  attr {
    key: "dtype"
    value {
      type: DT_STRING
    }
  }
  attr {
    key: "value"
    value {
      tensor {
        dtype: DT_STRING
        tensor_shape {
        }
        string_val: "fraction_of_zero_weights"
      }
    }
  }
}
node {
  name: "fraction_of_zero_weights"
  op: "ScalarSummary"
  input: "fraction_of_zero_weights/tags"
  input: "zero_fraction/zero_fraction_or_nan"
  attr {
    key: "T"
    value {
      type: DT_FLOAT
    }
  }
  attr {
    key: "_output_shapes"
    value {
      list {
        shape {
        }
      }
    }
  }
}
node {
  name: "head/logits/Shape"
  op: "Shape"
  input: "linear/linear_model/linear/linear_model/linear/linear_model/weighted_sum"
  attr {
    key: "T"
    value {
      type: DT_FLOAT
    }
  }
  attr {
    key: "_output_shapes"
    value {
      list {
        shape {
          dim {
            size: 2
          }
        }
      }
    }
  }
  attr {
    key: "out_type"
    value {
      type: DT_INT32
    }
  }
}
node {
  name: "head/logits/assert_rank_at_least/rank"
  op: "Const"
  attr {
    key: "_output_shapes"
    value {
      list {
        shape {
        }
      }
    }
  }
  attr {
    key: "dtype"
    value {
      type: DT_INT32
    }
  }
  attr {
    key: "value"
    value {
      tensor {
        dtype: DT_INT32
        tensor_shape {
        }
        int_val: 2
      }
    }
  }
}
node {
  name: "head/logits/assert_rank_at_least/assert_type/statically_determined_correct_type"
  op: "NoOp"
}
node {
  name: "head/logits/assert_rank_at_least/static_checks_determined_all_ok"
  op: "NoOp"
}
node {
  name: "head/losses/logits/Shape"
  op: "Shape"
  input: "linear/linear_model/linear/linear_model/linear/linear_model/weighted_sum"
  attr {
    key: "T"
    value {
      type: DT_FLOAT
    }
  }
  attr {
    key: "_output_shapes"
    value {
      list {
        shape {
          dim {
            size: 2
          }
        }
      }
    }
  }
  attr {
    key: "out_type"
    value {
      type: DT_INT32
    }
  }
}
node {
  name: "head/losses/logits/assert_rank_at_least/rank"
  op: "Const"
  attr {
    key: "_output_shapes"
    value {
      list {
        shape {
        }
      }
    }
  }
  attr {
    key: "dtype"
    value {
      type: DT_INT32
    }
  }
  attr {
    key: "value"
    value {
      tensor {
        dtype: DT_INT32
        tensor_shape {
        }
        int_val: 2
      }
    }
  }
}
node {
  name: "head/losses/logits/assert_rank_at_least/assert_type/statically_determined_correct_type"
  op: "NoOp"
}
node {
  name: "head/losses/logits/assert_rank_at_least/static_checks_determined_all_ok"
  op: "NoOp"
}
node {
  name: "head/losses/labels/ExpandDims/dim"
  op: "Const"
  attr {
    key: "_output_shapes"
    value {
      list {
        shape {
        }
      }
    }
  }
  attr {
    key: "dtype"
    value {
      type: DT_INT32
    }
  }
  attr {
    key: "value"
    value {
      tensor {
        dtype: DT_INT32
        tensor_shape {
        }
        int_val: -1
      }
    }
  }
}
node {
  name: "head/losses/labels/ExpandDims"
  op: "ExpandDims"
  input: "IteratorGetNext:5"
  input: "head/losses/labels/ExpandDims/dim"
  attr {
    key: "T"
    value {
      type: DT_FLOAT
    }
  }
  attr {
    key: "Tdim"
    value {
      type: DT_INT32
    }
  }
  attr {
    key: "_output_shapes"
    value {
      list {
        shape {
          dim {
            size: -1
          }
          dim {
            size: 1
          }
        }
      }
    }
  }
}
node {
  name: "head/losses/labels/assert_rank_at_least/rank"
  op: "Const"
  attr {
    key: "_output_shapes"
    value {
      list {
        shape {
        }
      }
    }
  }
  attr {
    key: "dtype"
    value {
      type: DT_INT32
    }
  }
  attr {
    key: "value"
    value {
      tensor {
        dtype: DT_INT32
        tensor_shape {
        }
        int_val: 2
      }
    }
  }
}
node {
  name: "head/losses/labels/assert_rank_at_least/Shape"
  op: "Shape"
  input: "head/losses/labels/ExpandDims"
  attr {
    key: "T"
    value {
      type: DT_FLOAT
    }
  }
  attr {
    key: "_output_shapes"
    value {
      list {
        shape {
          dim {
            size: 2
          }
        }
      }
    }
  }
  attr {
    key: "out_type"
    value {
      type: DT_INT32
    }
  }
}
node {
  name: "head/losses/labels/assert_rank_at_least/assert_type/statically_determined_correct_type"
  op: "NoOp"
}
node {
  name: "head/losses/labels/assert_rank_at_least/static_checks_determined_all_ok"
  op: "NoOp"
}
node {
  name: "head/losses/labels/Shape"
  op: "Shape"
  input: "linear/linear_model/linear/linear_model/linear/linear_model/weighted_sum"
  input: "^head/losses/labels/assert_rank_at_least/static_checks_determined_all_ok"
  attr {
    key: "T"
    value {
      type: DT_FLOAT
    }
  }
  attr {
    key: "_output_shapes"
    value {
      list {
        shape {
          dim {
            size: 2
          }
        }
      }
    }
  }
  attr {
    key: "out_type"
    value {
      type: DT_INT32
    }
  }
}
node {
  name: "head/losses/labels/strided_slice/stack"
  op: "Const"
  input: "^head/losses/labels/assert_rank_at_least/static_checks_determined_all_ok"
  attr {
    key: "_output_shapes"
    value {
      list {
        shape {
          dim {
            size: 1
          }
        }
      }
    }
  }
  attr {
    key: "dtype"
    value {
      type: DT_INT32
    }
  }
  attr {
    key: "value"
    value {
      tensor {
        dtype: DT_INT32
        tensor_shape {
          dim {
            size: 1
          }
        }
        int_val: 0
      }
    }
  }
}
node {
  name: "head/losses/labels/strided_slice/stack_1"
  op: "Const"
  input: "^head/losses/labels/assert_rank_at_least/static_checks_determined_all_ok"
  attr {
    key: "_output_shapes"
    value {
      list {
        shape {
          dim {
            size: 1
          }
        }
      }
    }
  }
  attr {
    key: "dtype"
    value {
      type: DT_INT32
    }
  }
  attr {
    key: "value"
    value {
      tensor {
        dtype: DT_INT32
        tensor_shape {
          dim {
            size: 1
          }
        }
        int_val: -1
      }
    }
  }
}
node {
  name: "head/losses/labels/strided_slice/stack_2"
  op: "Const"
  input: "^head/losses/labels/assert_rank_at_least/static_checks_determined_all_ok"
  attr {
    key: "_output_shapes"
    value {
      list {
        shape {
          dim {
            size: 1
          }
        }
      }
    }
  }
  attr {
    key: "dtype"
    value {
      type: DT_INT32
    }
  }
  attr {
    key: "value"
    value {
      tensor {
        dtype: DT_INT32
        tensor_shape {
          dim {
            size: 1
          }
        }
        int_val: 1
      }
    }
  }
}
node {
  name: "head/losses/labels/strided_slice"
  op: "StridedSlice"
  input: "head/losses/labels/Shape"
  input: "head/losses/labels/strided_slice/stack"
  input: "head/losses/labels/strided_slice/stack_1"
  input: "head/losses/labels/strided_slice/stack_2"
  attr {
    key: "Index"
    value {
      type: DT_INT32
    }
  }
  attr {
    key: "T"
    value {
      type: DT_INT32
    }
  }
  attr {
    key: "_output_shapes"
    value {
      list {
        shape {
          dim {
            size: 1
          }
        }
      }
    }
  }
  attr {
    key: "begin_mask"
    value {
      i: 1
    }
  }
  attr {
    key: "ellipsis_mask"
    value {
      i: 0
    }
  }
  attr {
    key: "end_mask"
    value {
      i: 0
    }
  }
  attr {
    key: "new_axis_mask"
    value {
      i: 0
    }
  }
  attr {
    key: "shrink_axis_mask"
    value {
      i: 0
    }
  }
}
node {
  name: "head/losses/labels/concat/values_1"
  op: "Const"
  input: "^head/losses/labels/assert_rank_at_least/static_checks_determined_all_ok"
  attr {
    key: "_output_shapes"
    value {
      list {
        shape {
          dim {
            size: 1
          }
        }
      }
    }
  }
  attr {
    key: "dtype"
    value {
      type: DT_INT32
    }
  }
  attr {
    key: "value"
    value {
      tensor {
        dtype: DT_INT32
        tensor_shape {
          dim {
            size: 1
          }
        }
        int_val: 1
      }
    }
  }
}
node {
  name: "head/losses/labels/concat/axis"
  op: "Const"
  input: "^head/losses/labels/assert_rank_at_least/static_checks_determined_all_ok"
  attr {
    key: "_output_shapes"
    value {
      list {
        shape {
        }
      }
    }
  }
  attr {
    key: "dtype"
    value {
      type: DT_INT32
    }
  }
  attr {
    key: "value"
    value {
      tensor {
        dtype: DT_INT32
        tensor_shape {
        }
        int_val: 0
      }
    }
  }
}
node {
  name: "head/losses/labels/concat"
  op: "ConcatV2"
  input: "head/losses/labels/strided_slice"
  input: "head/losses/labels/concat/values_1"
  input: "head/losses/labels/concat/axis"
  attr {
    key: "N"
    value {
      i: 2
    }
  }
  attr {
    key: "T"
    value {
      type: DT_INT32
    }
  }
  attr {
    key: "Tidx"
    value {
      type: DT_INT32
    }
  }
  attr {
    key: "_output_shapes"
    value {
      list {
        shape {
          dim {
            size: 2
          }
        }
      }
    }
  }
}
node {
  name: "head/losses/labels/Shape_1"
  op: "Shape"
  input: "head/losses/labels/ExpandDims"
  input: "^head/losses/labels/assert_rank_at_least/static_checks_determined_all_ok"
  attr {
    key: "T"
    value {
      type: DT_FLOAT
    }
  }
  attr {
    key: "_output_shapes"
    value {
      list {
        shape {
          dim {
            size: 2
          }
        }
      }
    }
  }
  attr {
    key: "out_type"
    value {
      type: DT_INT32
    }
  }
}
node {
  name: "head/losses/labels/assert_equal/Equal"
  op: "Equal"
  input: "head/losses/labels/concat"
  input: "head/losses/labels/Shape_1"
  attr {
    key: "T"
    value {
      type: DT_INT32
    }
  }
  attr {
    key: "_output_shapes"
    value {
      list {
        shape {
          dim {
            size: 2
          }
        }
      }
    }
  }
  attr {
    key: "incompatible_shape_error"
    value {
      b: true
    }
  }
}
node {
  name: "head/losses/labels/assert_equal/Const"
  op: "Const"
  input: "^head/losses/labels/assert_rank_at_least/static_checks_determined_all_ok"
  attr {
    key: "_output_shapes"
    value {
      list {
        shape {
          dim {
            size: 1
          }
        }
      }
    }
  }
  attr {
    key: "dtype"
    value {
      type: DT_INT32
    }
  }
  attr {
    key: "value"
    value {
      tensor {
        dtype: DT_INT32
        tensor_shape {
          dim {
            size: 1
          }
        }
        int_val: 0
      }
    }
  }
}
node {
  name: "head/losses/labels/assert_equal/All"
  op: "All"
  input: "head/losses/labels/assert_equal/Equal"
  input: "head/losses/labels/assert_equal/Const"
  attr {
    key: "Tidx"
    value {
      type: DT_INT32
    }
  }
  attr {
    key: "_output_shapes"
    value {
      list {
        shape {
        }
      }
    }
  }
  attr {
    key: "keep_dims"
    value {
      b: false
    }
  }
}
node {
  name: "head/losses/labels/assert_equal/Assert/Const"
  op: "Const"
  input: "^head/losses/labels/assert_rank_at_least/static_checks_determined_all_ok"
  attr {
    key: "_output_shapes"
    value {
      list {
        shape {
        }
      }
    }
  }
  attr {
    key: "dtype"
    value {
      type: DT_STRING
    }
  }
  attr {
    key: "value"
    value {
      tensor {
        dtype: DT_STRING
        tensor_shape {
        }
        string_val: "expected_labels_shape: "
      }
    }
  }
}
node {
  name: "head/losses/labels/assert_equal/Assert/Const_1"
  op: "Const"
  input: "^head/losses/labels/assert_rank_at_least/static_checks_determined_all_ok"
  attr {
    key: "_output_shapes"
    value {
      list {
        shape {
        }
      }
    }
  }
  attr {
    key: "dtype"
    value {
      type: DT_STRING
    }
  }
  attr {
    key: "value"
    value {
      tensor {
        dtype: DT_STRING
        tensor_shape {
        }
        string_val: "labels_shape: "
      }
    }
  }
}
node {
  name: "head/losses/labels/assert_equal/Assert/Assert/data_0"
  op: "Const"
  input: "^head/losses/labels/assert_rank_at_least/static_checks_determined_all_ok"
  attr {
    key: "_output_shapes"
    value {
      list {
        shape {
        }
      }
    }
  }
  attr {
    key: "dtype"
    value {
      type: DT_STRING
    }
  }
  attr {
    key: "value"
    value {
      tensor {
        dtype: DT_STRING
        tensor_shape {
        }
        string_val: "expected_labels_shape: "
      }
    }
  }
}
node {
  name: "head/losses/labels/assert_equal/Assert/Assert/data_2"
  op: "Const"
  input: "^head/losses/labels/assert_rank_at_least/static_checks_determined_all_ok"
  attr {
    key: "_output_shapes"
    value {
      list {
        shape {
        }
      }
    }
  }
  attr {
    key: "dtype"
    value {
      type: DT_STRING
    }
  }
  attr {
    key: "value"
    value {
      tensor {
        dtype: DT_STRING
        tensor_shape {
        }
        string_val: "labels_shape: "
      }
    }
  }
}
node {
  name: "head/losses/labels/assert_equal/Assert/Assert"
  op: "Assert"
  input: "head/losses/labels/assert_equal/All"
  input: "head/losses/labels/assert_equal/Assert/Assert/data_0"
  input: "head/losses/labels/concat"
  input: "head/losses/labels/assert_equal/Assert/Assert/data_2"
  input: "head/losses/labels/Shape_1"
  attr {
    key: "T"
    value {
      list {
        type: DT_STRING
        type: DT_INT32
        type: DT_STRING
        type: DT_INT32
      }
    }
  }
  attr {
    key: "summarize"
    value {
      i: 3
    }
  }
}
node {
  name: "head/losses/labels"
  op: "Identity"
  input: "head/losses/labels/ExpandDims"
  input: "^head/losses/labels/assert_equal/Assert/Assert"
  input: "^head/losses/labels/assert_rank_at_least/static_checks_determined_all_ok"
  attr {
    key: "T"
    value {
      type: DT_FLOAT
    }
  }
  attr {
    key: "_output_shapes"
    value {
      list {
        shape {
          dim {
            size: -1
          }
          dim {
            size: 1
          }
        }
      }
    }
  }
}
node {
  name: "head/losses/mean_squared_error/SquaredDifference"
  op: "SquaredDifference"
  input: "linear/linear_model/linear/linear_model/linear/linear_model/weighted_sum"
  input: "head/losses/labels"
  attr {
    key: "T"
    value {
      type: DT_FLOAT
    }
  }
  attr {
    key: "_output_shapes"
    value {
      list {
        shape {
          dim {
            size: -1
          }
          dim {
            size: 1
          }
        }
      }
    }
  }
}
node {
  name: "head/losses/mean_squared_error/assert_broadcastable/weights"
  op: "Const"
  attr {
    key: "_output_shapes"
    value {
      list {
        shape {
        }
      }
    }
  }
  attr {
    key: "dtype"
    value {
      type: DT_FLOAT
    }
  }
  attr {
    key: "value"
    value {
      tensor {
        dtype: DT_FLOAT
        tensor_shape {
        }
        float_val: 1.0
      }
    }
  }
}
node {
  name: "head/losses/mean_squared_error/assert_broadcastable/weights/shape"
  op: "Const"
  attr {
    key: "_output_shapes"
    value {
      list {
        shape {
          dim {
          }
        }
      }
    }
  }
  attr {
    key: "dtype"
    value {
      type: DT_INT32
    }
  }
  attr {
    key: "value"
    value {
      tensor {
        dtype: DT_INT32
        tensor_shape {
          dim {
          }
        }
      }
    }
  }
}
node {
  name: "head/losses/mean_squared_error/assert_broadcastable/weights/rank"
  op: "Const"
  attr {
    key: "_output_shapes"
    value {
      list {
        shape {
        }
      }
    }
  }
  attr {
    key: "dtype"
    value {
      type: DT_INT32
    }
  }
  attr {
    key: "value"
    value {
      tensor {
        dtype: DT_INT32
        tensor_shape {
        }
        int_val: 0
      }
    }
  }
}
node {
  name: "head/losses/mean_squared_error/assert_broadcastable/values/shape"
  op: "Shape"
  input: "head/losses/mean_squared_error/SquaredDifference"
  attr {
    key: "T"
    value {
      type: DT_FLOAT
    }
  }
  attr {
    key: "_output_shapes"
    value {
      list {
        shape {
          dim {
            size: 2
          }
        }
      }
    }
  }
  attr {
    key: "out_type"
    value {
      type: DT_INT32
    }
  }
}
node {
  name: "head/losses/mean_squared_error/assert_broadcastable/values/rank"
  op: "Const"
  attr {
    key: "_output_shapes"
    value {
      list {
        shape {
        }
      }
    }
  }
  attr {
    key: "dtype"
    value {
      type: DT_INT32
    }
  }
  attr {
    key: "value"
    value {
      tensor {
        dtype: DT_INT32
        tensor_shape {
        }
        int_val: 2
      }
    }
  }
}
node {
  name: "head/losses/mean_squared_error/assert_broadcastable/static_scalar_check_success"
  op: "NoOp"
}
node {
  name: "head/losses/mean_squared_error/Cast/x"
  op: "Const"
  input: "^head/losses/mean_squared_error/assert_broadcastable/static_scalar_check_success"
  attr {
    key: "_output_shapes"
    value {
      list {
        shape {
        }
      }
    }
  }
  attr {
    key: "dtype"
    value {
      type: DT_FLOAT
    }
  }
  attr {
    key: "value"
    value {
      tensor {
        dtype: DT_FLOAT
        tensor_shape {
        }
        float_val: 1.0
      }
    }
  }
}
node {
  name: "head/losses/mean_squared_error/Mul"
  op: "Mul"
  input: "head/losses/mean_squared_error/SquaredDifference"
  input: "head/losses/mean_squared_error/Cast/x"
  attr {
    key: "T"
    value {
      type: DT_FLOAT
    }
  }
  attr {
    key: "_output_shapes"
    value {
      list {
        shape {
          dim {
            size: -1
          }
          dim {
            size: 1
          }
        }
      }
    }
  }
}
node {
  name: "head/losses/weighted_loss/Cast/x"
  op: "Const"
  attr {
    key: "_output_shapes"
    value {
      list {
        shape {
        }
      }
    }
  }
  attr {
    key: "dtype"
    value {
      type: DT_FLOAT
    }
  }
  attr {
    key: "value"
    value {
      tensor {
        dtype: DT_FLOAT
        tensor_shape {
        }
        float_val: 1.0
      }
    }
  }
}
node {
  name: "head/losses/weighted_loss/broadcast_weights/assert_broadcastable/weights/shape"
  op: "Const"
  attr {
    key: "_output_shapes"
    value {
      list {
        shape {
          dim {
          }
        }
      }
    }
  }
  attr {
    key: "dtype"
    value {
      type: DT_INT32
    }
  }
  attr {
    key: "value"
    value {
      tensor {
        dtype: DT_INT32
        tensor_shape {
          dim {
          }
        }
      }
    }
  }
}
node {
  name: "head/losses/weighted_loss/broadcast_weights/assert_broadcastable/weights/rank"
  op: "Const"
  attr {
    key: "_output_shapes"
    value {
      list {
        shape {
        }
      }
    }
  }
  attr {
    key: "dtype"
    value {
      type: DT_INT32
    }
  }
  attr {
    key: "value"
    value {
      tensor {
        dtype: DT_INT32
        tensor_shape {
        }
        int_val: 0
      }
    }
  }
}
node {
  name: "head/losses/weighted_loss/broadcast_weights/assert_broadcastable/values/shape"
  op: "Shape"
  input: "head/losses/mean_squared_error/Mul"
  attr {
    key: "T"
    value {
      type: DT_FLOAT
    }
  }
  attr {
    key: "_output_shapes"
    value {
      list {
        shape {
          dim {
            size: 2
          }
        }
      }
    }
  }
  attr {
    key: "out_type"
    value {
      type: DT_INT32
    }
  }
}
node {
  name: "head/losses/weighted_loss/broadcast_weights/assert_broadcastable/values/rank"
  op: "Const"
  attr {
    key: "_output_shapes"
    value {
      list {
        shape {
        }
      }
    }
  }
  attr {
    key: "dtype"
    value {
      type: DT_INT32
    }
  }
  attr {
    key: "value"
    value {
      tensor {
        dtype: DT_INT32
        tensor_shape {
        }
        int_val: 2
      }
    }
  }
}
node {
  name: "head/losses/weighted_loss/broadcast_weights/assert_broadcastable/static_scalar_check_success"
  op: "NoOp"
}
node {
  name: "head/losses/weighted_loss/broadcast_weights/ones_like/Shape"
  op: "Shape"
  input: "head/losses/mean_squared_error/Mul"
  input: "^head/losses/weighted_loss/broadcast_weights/assert_broadcastable/static_scalar_check_success"
  attr {
    key: "T"
    value {
      type: DT_FLOAT
    }
  }
  attr {
    key: "_output_shapes"
    value {
      list {
        shape {
          dim {
            size: 2
          }
        }
      }
    }
  }
  attr {
    key: "out_type"
    value {
      type: DT_INT32
    }
  }
}
node {
  name: "head/losses/weighted_loss/broadcast_weights/ones_like/Const"
  op: "Const"
  input: "^head/losses/weighted_loss/broadcast_weights/assert_broadcastable/static_scalar_check_success"
  attr {
    key: "_output_shapes"
    value {
      list {
        shape {
        }
      }
    }
  }
  attr {
    key: "dtype"
    value {
      type: DT_FLOAT
    }
  }
  attr {
    key: "value"
    value {
      tensor {
        dtype: DT_FLOAT
        tensor_shape {
        }
        float_val: 1.0
      }
    }
  }
}
node {
  name: "head/losses/weighted_loss/broadcast_weights/ones_like"
  op: "Fill"
  input: "head/losses/weighted_loss/broadcast_weights/ones_like/Shape"
  input: "head/losses/weighted_loss/broadcast_weights/ones_like/Const"
  attr {
    key: "T"
    value {
      type: DT_FLOAT
    }
  }
  attr {
    key: "_output_shapes"
    value {
      list {
        shape {
          dim {
            size: -1
          }
          dim {
            size: 1
          }
        }
      }
    }
  }
  attr {
    key: "index_type"
    value {
      type: DT_INT32
    }
  }
}
node {
  name: "head/losses/weighted_loss/broadcast_weights"
  op: "Mul"
  input: "head/losses/weighted_loss/Cast/x"
  input: "head/losses/weighted_loss/broadcast_weights/ones_like"
  attr {
    key: "T"
    value {
      type: DT_FLOAT
    }
  }
  attr {
    key: "_output_shapes"
    value {
      list {
        shape {
          dim {
            size: -1
          }
          dim {
            size: 1
          }
        }
      }
    }
  }
}
node {
  name: "head/losses/weighted_loss/Mul"
  op: "Mul"
  input: "head/losses/mean_squared_error/Mul"
  input: "head/losses/weighted_loss/broadcast_weights"
  attr {
    key: "T"
    value {
      type: DT_FLOAT
    }
  }
  attr {
    key: "_output_shapes"
    value {
      list {
        shape {
          dim {
            size: -1
          }
          dim {
            size: 1
          }
        }
      }
    }
  }
}
node {
  name: "head/losses/weighted_loss/Const"
  op: "Const"
  attr {
    key: "_output_shapes"
    value {
      list {
        shape {
          dim {
            size: 2
          }
        }
      }
    }
  }
  attr {
    key: "dtype"
    value {
      type: DT_INT32
    }
  }
  attr {
    key: "value"
    value {
      tensor {
        dtype: DT_INT32
        tensor_shape {
          dim {
            size: 2
          }
        }
        tensor_content: "\000\000\000\000\001\000\000\000"
      }
    }
  }
}
node {
  name: "head/losses/weighted_loss/Sum"
  op: "Sum"
  input: "head/losses/weighted_loss/Mul"
  input: "head/losses/weighted_loss/Const"
  attr {
    key: "T"
    value {
      type: DT_FLOAT
    }
  }
  attr {
    key: "Tidx"
    value {
      type: DT_INT32
    }
  }
  attr {
    key: "_output_shapes"
    value {
      list {
        shape {
        }
      }
    }
  }
  attr {
    key: "keep_dims"
    value {
      b: false
    }
  }
}
node {
  name: "head/losses/weighted_loss/num_elements"
  op: "Size"
  input: "head/losses/weighted_loss/Mul"
  attr {
    key: "T"
    value {
      type: DT_FLOAT
    }
  }
  attr {
    key: "_output_shapes"
    value {
      list {
        shape {
        }
      }
    }
  }
  attr {
    key: "out_type"
    value {
      type: DT_INT32
    }
  }
}
node {
  name: "head/losses/weighted_loss/num_elements/Cast"
  op: "Cast"
  input: "head/losses/weighted_loss/num_elements"
  attr {
    key: "DstT"
    value {
      type: DT_FLOAT
    }
  }
  attr {
    key: "SrcT"
    value {
      type: DT_INT32
    }
  }
  attr {
    key: "Truncate"
    value {
      b: false
    }
  }
  attr {
    key: "_output_shapes"
    value {
      list {
        shape {
        }
      }
    }
  }
}
node {
  name: "head/losses/weighted_loss/Const_1"
  op: "Const"
  attr {
    key: "_output_shapes"
    value {
      list {
        shape {
          dim {
          }
        }
      }
    }
  }
  attr {
    key: "dtype"
    value {
      type: DT_INT32
    }
  }
  attr {
    key: "value"
    value {
      tensor {
        dtype: DT_INT32
        tensor_shape {
          dim {
          }
        }
      }
    }
  }
}
node {
  name: "head/losses/weighted_loss/Sum_1"
  op: "Sum"
  input: "head/losses/weighted_loss/Sum"
  input: "head/losses/weighted_loss/Const_1"
  attr {
    key: "T"
    value {
      type: DT_FLOAT
    }
  }
  attr {
    key: "Tidx"
    value {
      type: DT_INT32
    }
  }
  attr {
    key: "_output_shapes"
    value {
      list {
        shape {
        }
      }
    }
  }
  attr {
    key: "keep_dims"
    value {
      b: false
    }
  }
}
node {
  name: "head/losses/weighted_loss/value"
  op: "DivNoNan"
  input: "head/losses/weighted_loss/Sum_1"
  input: "head/losses/weighted_loss/num_elements/Cast"
  attr {
    key: "T"
    value {
      type: DT_FLOAT
    }
  }
  attr {
    key: "_output_shapes"
    value {
      list {
        shape {
        }
      }
    }
  }
}
node {
  name: "training/Ftrl/gradients/gradients/Shape"
  op: "Const"
  attr {
    key: "_output_shapes"
    value {
      list {
        shape {
          dim {
          }
        }
      }
    }
  }
  attr {
    key: "dtype"
    value {
      type: DT_INT32
    }
  }
  attr {
    key: "value"
    value {
      tensor {
        dtype: DT_INT32
        tensor_shape {
          dim {
          }
        }
      }
    }
  }
}
node {
  name: "training/Ftrl/gradients/gradients/grad_ys_0"
  op: "Const"
  attr {
    key: "_output_shapes"
    value {
      list {
        shape {
        }
      }
    }
  }
  attr {
    key: "dtype"
    value {
      type: DT_FLOAT
    }
  }
  attr {
    key: "value"
    value {
      tensor {
        dtype: DT_FLOAT
        tensor_shape {
        }
        float_val: 1.0
      }
    }
  }
}
node {
  name: "training/Ftrl/gradients/gradients/Fill"
  op: "Fill"
  input: "training/Ftrl/gradients/gradients/Shape"
  input: "training/Ftrl/gradients/gradients/grad_ys_0"
  attr {
    key: "T"
    value {
      type: DT_FLOAT
    }
  }
  attr {
    key: "_output_shapes"
    value {
      list {
        shape {
        }
      }
    }
  }
  attr {
    key: "index_type"
    value {
      type: DT_INT32
    }
  }
}
node {
  name: "training/Ftrl/gradients/gradients/head/losses/weighted_loss/value_grad/Shape"
  op: "Const"
  attr {
    key: "_output_shapes"
    value {
      list {
        shape {
          dim {
          }
        }
      }
    }
  }
  attr {
    key: "dtype"
    value {
      type: DT_INT32
    }
  }
  attr {
    key: "value"
    value {
      tensor {
        dtype: DT_INT32
        tensor_shape {
          dim {
          }
        }
      }
    }
  }
}
node {
  name: "training/Ftrl/gradients/gradients/head/losses/weighted_loss/value_grad/Shape_1"
  op: "Const"
  attr {
    key: "_output_shapes"
    value {
      list {
        shape {
          dim {
          }
        }
      }
    }
  }
  attr {
    key: "dtype"
    value {
      type: DT_INT32
    }
  }
  attr {
    key: "value"
    value {
      tensor {
        dtype: DT_INT32
        tensor_shape {
          dim {
          }
        }
      }
    }
  }
}
node {
  name: "training/Ftrl/gradients/gradients/head/losses/weighted_loss/value_grad/BroadcastGradientArgs"
  op: "BroadcastGradientArgs"
  input: "training/Ftrl/gradients/gradients/head/losses/weighted_loss/value_grad/Shape"
  input: "training/Ftrl/gradients/gradients/head/losses/weighted_loss/value_grad/Shape_1"
  attr {
    key: "T"
    value {
      type: DT_INT32
    }
  }
  attr {
    key: "_output_shapes"
    value {
      list {
        shape {
          dim {
            size: -1
          }
        }
        shape {
          dim {
            size: -1
          }
        }
      }
    }
  }
}
node {
  name: "training/Ftrl/gradients/gradients/head/losses/weighted_loss/value_grad/div_no_nan"
  op: "DivNoNan"
  input: "training/Ftrl/gradients/gradients/Fill"
  input: "head/losses/weighted_loss/num_elements/Cast"
  attr {
    key: "T"
    value {
      type: DT_FLOAT
    }
  }
  attr {
    key: "_output_shapes"
    value {
      list {
        shape {
        }
      }
    }
  }
}
node {
  name: "training/Ftrl/gradients/gradients/head/losses/weighted_loss/value_grad/Sum"
  op: "Sum"
  input: "training/Ftrl/gradients/gradients/head/losses/weighted_loss/value_grad/div_no_nan"
  input: "training/Ftrl/gradients/gradients/head/losses/weighted_loss/value_grad/BroadcastGradientArgs"
  attr {
    key: "T"
    value {
      type: DT_FLOAT
    }
  }
  attr {
    key: "Tidx"
    value {
      type: DT_INT32
    }
  }
  attr {
    key: "_output_shapes"
    value {
      list {
        shape {
        }
      }
    }
  }
  attr {
    key: "keep_dims"
    value {
      b: false
    }
  }
}
node {
  name: "training/Ftrl/gradients/gradients/head/losses/weighted_loss/value_grad/Reshape"
  op: "Reshape"
  input: "training/Ftrl/gradients/gradients/head/losses/weighted_loss/value_grad/Sum"
  input: "training/Ftrl/gradients/gradients/head/losses/weighted_loss/value_grad/Shape"
  attr {
    key: "T"
    value {
      type: DT_FLOAT
    }
  }
  attr {
    key: "Tshape"
    value {
      type: DT_INT32
    }
  }
  attr {
    key: "_output_shapes"
    value {
      list {
        shape {
        }
      }
    }
  }
}
node {
  name: "training/Ftrl/gradients/gradients/head/losses/weighted_loss/value_grad/Neg"
  op: "Neg"
  input: "head/losses/weighted_loss/Sum_1"
  attr {
    key: "T"
    value {
      type: DT_FLOAT
    }
  }
  attr {
    key: "_output_shapes"
    value {
      list {
        shape {
        }
      }
    }
  }
}
node {
  name: "training/Ftrl/gradients/gradients/head/losses/weighted_loss/value_grad/div_no_nan_1"
  op: "DivNoNan"
  input: "training/Ftrl/gradients/gradients/head/losses/weighted_loss/value_grad/Neg"
  input: "head/losses/weighted_loss/num_elements/Cast"
  attr {
    key: "T"
    value {
      type: DT_FLOAT
    }
  }
  attr {
    key: "_output_shapes"
    value {
      list {
        shape {
        }
      }
    }
  }
}
node {
  name: "training/Ftrl/gradients/gradients/head/losses/weighted_loss/value_grad/div_no_nan_2"
  op: "DivNoNan"
  input: "training/Ftrl/gradients/gradients/head/losses/weighted_loss/value_grad/div_no_nan_1"
  input: "head/losses/weighted_loss/num_elements/Cast"
  attr {
    key: "T"
    value {
      type: DT_FLOAT
    }
  }
  attr {
    key: "_output_shapes"
    value {
      list {
        shape {
        }
      }
    }
  }
}
node {
  name: "training/Ftrl/gradients/gradients/head/losses/weighted_loss/value_grad/mul"
  op: "Mul"
  input: "training/Ftrl/gradients/gradients/Fill"
  input: "training/Ftrl/gradients/gradients/head/losses/weighted_loss/value_grad/div_no_nan_2"
  attr {
    key: "T"
    value {
      type: DT_FLOAT
    }
  }
  attr {
    key: "_output_shapes"
    value {
      list {
        shape {
        }
      }
    }
  }
}
node {
  name: "training/Ftrl/gradients/gradients/head/losses/weighted_loss/value_grad/Sum_1"
  op: "Sum"
  input: "training/Ftrl/gradients/gradients/head/losses/weighted_loss/value_grad/mul"
  input: "training/Ftrl/gradients/gradients/head/losses/weighted_loss/value_grad/BroadcastGradientArgs:1"
  attr {
    key: "T"
    value {
      type: DT_FLOAT
    }
  }
  attr {
    key: "Tidx"
    value {
      type: DT_INT32
    }
  }
  attr {
    key: "_output_shapes"
    value {
      list {
        shape {
        }
      }
    }
  }
  attr {
    key: "keep_dims"
    value {
      b: false
    }
  }
}
node {
  name: "training/Ftrl/gradients/gradients/head/losses/weighted_loss/value_grad/Reshape_1"
  op: "Reshape"
  input: "training/Ftrl/gradients/gradients/head/losses/weighted_loss/value_grad/Sum_1"
  input: "training/Ftrl/gradients/gradients/head/losses/weighted_loss/value_grad/Shape_1"
  attr {
    key: "T"
    value {
      type: DT_FLOAT
    }
  }
  attr {
    key: "Tshape"
    value {
      type: DT_INT32
    }
  }
  attr {
    key: "_output_shapes"
    value {
      list {
        shape {
        }
      }
    }
  }
}
node {
  name: "training/Ftrl/gradients/gradients/head/losses/weighted_loss/Sum_1_grad/Reshape/shape"
  op: "Const"
  attr {
    key: "_output_shapes"
    value {
      list {
        shape {
          dim {
          }
        }
      }
    }
  }
  attr {
    key: "dtype"
    value {
      type: DT_INT32
    }
  }
  attr {
    key: "value"
    value {
      tensor {
        dtype: DT_INT32
        tensor_shape {
          dim {
          }
        }
      }
    }
  }
}
node {
  name: "training/Ftrl/gradients/gradients/head/losses/weighted_loss/Sum_1_grad/Reshape"
  op: "Reshape"
  input: "training/Ftrl/gradients/gradients/head/losses/weighted_loss/value_grad/Reshape"
  input: "training/Ftrl/gradients/gradients/head/losses/weighted_loss/Sum_1_grad/Reshape/shape"
  attr {
    key: "T"
    value {
      type: DT_FLOAT
    }
  }
  attr {
    key: "Tshape"
    value {
      type: DT_INT32
    }
  }
  attr {
    key: "_output_shapes"
    value {
      list {
        shape {
        }
      }
    }
  }
}
node {
  name: "training/Ftrl/gradients/gradients/head/losses/weighted_loss/Sum_1_grad/Const"
  op: "Const"
  attr {
    key: "_output_shapes"
    value {
      list {
        shape {
          dim {
          }
        }
      }
    }
  }
  attr {
    key: "dtype"
    value {
      type: DT_INT32
    }
  }
  attr {
    key: "value"
    value {
      tensor {
        dtype: DT_INT32
        tensor_shape {
          dim {
          }
        }
      }
    }
  }
}
node {
  name: "training/Ftrl/gradients/gradients/head/losses/weighted_loss/Sum_1_grad/Tile"
  op: "Tile"
  input: "training/Ftrl/gradients/gradients/head/losses/weighted_loss/Sum_1_grad/Reshape"
  input: "training/Ftrl/gradients/gradients/head/losses/weighted_loss/Sum_1_grad/Const"
  attr {
    key: "T"
    value {
      type: DT_FLOAT
    }
  }
  attr {
    key: "Tmultiples"
    value {
      type: DT_INT32
    }
  }
  attr {
    key: "_output_shapes"
    value {
      list {
        shape {
        }
      }
    }
  }
}
node {
  name: "training/Ftrl/gradients/gradients/head/losses/weighted_loss/Sum_grad/Reshape/shape"
  op: "Const"
  attr {
    key: "_output_shapes"
    value {
      list {
        shape {
          dim {
            size: 2
          }
        }
      }
    }
  }
  attr {
    key: "dtype"
    value {
      type: DT_INT32
    }
  }
  attr {
    key: "value"
    value {
      tensor {
        dtype: DT_INT32
        tensor_shape {
          dim {
            size: 2
          }
        }
        tensor_content: "\001\000\000\000\001\000\000\000"
      }
    }
  }
}
node {
  name: "training/Ftrl/gradients/gradients/head/losses/weighted_loss/Sum_grad/Reshape"
  op: "Reshape"
  input: "training/Ftrl/gradients/gradients/head/losses/weighted_loss/Sum_1_grad/Tile"
  input: "training/Ftrl/gradients/gradients/head/losses/weighted_loss/Sum_grad/Reshape/shape"
  attr {
    key: "T"
    value {
      type: DT_FLOAT
    }
  }
  attr {
    key: "Tshape"
    value {
      type: DT_INT32
    }
  }
  attr {
    key: "_output_shapes"
    value {
      list {
        shape {
          dim {
            size: 1
          }
          dim {
            size: 1
          }
        }
      }
    }
  }
}
node {
  name: "training/Ftrl/gradients/gradients/head/losses/weighted_loss/Sum_grad/Shape"
  op: "Shape"
  input: "head/losses/weighted_loss/Mul"
  attr {
    key: "T"
    value {
      type: DT_FLOAT
    }
  }
  attr {
    key: "_output_shapes"
    value {
      list {
        shape {
          dim {
            size: 2
          }
        }
      }
    }
  }
  attr {
    key: "out_type"
    value {
      type: DT_INT32
    }
  }
}
node {
  name: "training/Ftrl/gradients/gradients/head/losses/weighted_loss/Sum_grad/Tile"
  op: "Tile"
  input: "training/Ftrl/gradients/gradients/head/losses/weighted_loss/Sum_grad/Reshape"
  input: "training/Ftrl/gradients/gradients/head/losses/weighted_loss/Sum_grad/Shape"
  attr {
    key: "T"
    value {
      type: DT_FLOAT
    }
  }
  attr {
    key: "Tmultiples"
    value {
      type: DT_INT32
    }
  }
  attr {
    key: "_output_shapes"
    value {
      list {
        shape {
          dim {
            size: -1
          }
          dim {
            size: 1
          }
        }
      }
    }
  }
}
node {
  name: "training/Ftrl/gradients/gradients/head/losses/weighted_loss/Mul_grad/Shape"
  op: "Shape"
  input: "head/losses/mean_squared_error/Mul"
  attr {
    key: "T"
    value {
      type: DT_FLOAT
    }
  }
  attr {
    key: "_output_shapes"
    value {
      list {
        shape {
          dim {
            size: 2
          }
        }
      }
    }
  }
  attr {
    key: "out_type"
    value {
      type: DT_INT32
    }
  }
}
node {
  name: "training/Ftrl/gradients/gradients/head/losses/weighted_loss/Mul_grad/Shape_1"
  op: "Shape"
  input: "head/losses/weighted_loss/broadcast_weights"
  attr {
    key: "T"
    value {
      type: DT_FLOAT
    }
  }
  attr {
    key: "_output_shapes"
    value {
      list {
        shape {
          dim {
            size: 2
          }
        }
      }
    }
  }
  attr {
    key: "out_type"
    value {
      type: DT_INT32
    }
  }
}
node {
  name: "training/Ftrl/gradients/gradients/head/losses/weighted_loss/Mul_grad/BroadcastGradientArgs"
  op: "BroadcastGradientArgs"
  input: "training/Ftrl/gradients/gradients/head/losses/weighted_loss/Mul_grad/Shape"
  input: "training/Ftrl/gradients/gradients/head/losses/weighted_loss/Mul_grad/Shape_1"
  attr {
    key: "T"
    value {
      type: DT_INT32
    }
  }
  attr {
    key: "_output_shapes"
    value {
      list {
        shape {
          dim {
            size: -1
          }
        }
        shape {
          dim {
            size: -1
          }
        }
      }
    }
  }
}
node {
  name: "training/Ftrl/gradients/gradients/head/losses/weighted_loss/Mul_grad/Mul"
  op: "Mul"
  input: "training/Ftrl/gradients/gradients/head/losses/weighted_loss/Sum_grad/Tile"
  input: "head/losses/weighted_loss/broadcast_weights"
  attr {
    key: "T"
    value {
      type: DT_FLOAT
    }
  }
  attr {
    key: "_output_shapes"
    value {
      list {
        shape {
          dim {
            size: -1
          }
          dim {
            size: 1
          }
        }
      }
    }
  }
}
node {
  name: "training/Ftrl/gradients/gradients/head/losses/weighted_loss/Mul_grad/Sum"
  op: "Sum"
  input: "training/Ftrl/gradients/gradients/head/losses/weighted_loss/Mul_grad/Mul"
  input: "training/Ftrl/gradients/gradients/head/losses/weighted_loss/Mul_grad/BroadcastGradientArgs"
  attr {
    key: "T"
    value {
      type: DT_FLOAT
    }
  }
  attr {
    key: "Tidx"
    value {
      type: DT_INT32
    }
  }
  attr {
    key: "_output_shapes"
    value {
      list {
        shape {
          unknown_rank: true
        }
      }
    }
  }
  attr {
    key: "keep_dims"
    value {
      b: false
    }
  }
}
node {
  name: "training/Ftrl/gradients/gradients/head/losses/weighted_loss/Mul_grad/Reshape"
  op: "Reshape"
  input: "training/Ftrl/gradients/gradients/head/losses/weighted_loss/Mul_grad/Sum"
  input: "training/Ftrl/gradients/gradients/head/losses/weighted_loss/Mul_grad/Shape"
  attr {
    key: "T"
    value {
      type: DT_FLOAT
    }
  }
  attr {
    key: "Tshape"
    value {
      type: DT_INT32
    }
  }
  attr {
    key: "_output_shapes"
    value {
      list {
        shape {
          dim {
            size: -1
          }
          dim {
            size: 1
          }
        }
      }
    }
  }
}
node {
  name: "training/Ftrl/gradients/gradients/head/losses/weighted_loss/Mul_grad/Mul_1"
  op: "Mul"
  input: "head/losses/mean_squared_error/Mul"
  input: "training/Ftrl/gradients/gradients/head/losses/weighted_loss/Sum_grad/Tile"
  attr {
    key: "T"
    value {
      type: DT_FLOAT
    }
  }
  attr {
    key: "_output_shapes"
    value {
      list {
        shape {
          dim {
            size: -1
          }
          dim {
            size: 1
          }
        }
      }
    }
  }
}
node {
  name: "training/Ftrl/gradients/gradients/head/losses/weighted_loss/Mul_grad/Sum_1"
  op: "Sum"
  input: "training/Ftrl/gradients/gradients/head/losses/weighted_loss/Mul_grad/Mul_1"
  input: "training/Ftrl/gradients/gradients/head/losses/weighted_loss/Mul_grad/BroadcastGradientArgs:1"
  attr {
    key: "T"
    value {
      type: DT_FLOAT
    }
  }
  attr {
    key: "Tidx"
    value {
      type: DT_INT32
    }
  }
  attr {
    key: "_output_shapes"
    value {
      list {
        shape {
          unknown_rank: true
        }
      }
    }
  }
  attr {
    key: "keep_dims"
    value {
      b: false
    }
  }
}
node {
  name: "training/Ftrl/gradients/gradients/head/losses/weighted_loss/Mul_grad/Reshape_1"
  op: "Reshape"
  input: "training/Ftrl/gradients/gradients/head/losses/weighted_loss/Mul_grad/Sum_1"
  input: "training/Ftrl/gradients/gradients/head/losses/weighted_loss/Mul_grad/Shape_1"
  attr {
    key: "T"
    value {
      type: DT_FLOAT
    }
  }
  attr {
    key: "Tshape"
    value {
      type: DT_INT32
    }
  }
  attr {
    key: "_output_shapes"
    value {
      list {
        shape {
          dim {
            size: -1
          }
          dim {
            size: 1
          }
        }
      }
    }
  }
}
node {
  name: "training/Ftrl/gradients/gradients/head/losses/mean_squared_error/Mul_grad/Shape"
  op: "Shape"
  input: "head/losses/mean_squared_error/SquaredDifference"
  attr {
    key: "T"
    value {
      type: DT_FLOAT
    }
  }
  attr {
    key: "_output_shapes"
    value {
      list {
        shape {
          dim {
            size: 2
          }
        }
      }
    }
  }
  attr {
    key: "out_type"
    value {
      type: DT_INT32
    }
  }
}
node {
  name: "training/Ftrl/gradients/gradients/head/losses/mean_squared_error/Mul_grad/Shape_1"
  op: "Shape"
  input: "head/losses/mean_squared_error/Cast/x"
  attr {
    key: "T"
    value {
      type: DT_FLOAT
    }
  }
  attr {
    key: "_output_shapes"
    value {
      list {
        shape {
          dim {
          }
        }
      }
    }
  }
  attr {
    key: "out_type"
    value {
      type: DT_INT32
    }
  }
}
node {
  name: "training/Ftrl/gradients/gradients/head/losses/mean_squared_error/Mul_grad/BroadcastGradientArgs"
  op: "BroadcastGradientArgs"
  input: "training/Ftrl/gradients/gradients/head/losses/mean_squared_error/Mul_grad/Shape"
  input: "training/Ftrl/gradients/gradients/head/losses/mean_squared_error/Mul_grad/Shape_1"
  attr {
    key: "T"
    value {
      type: DT_INT32
    }
  }
  attr {
    key: "_output_shapes"
    value {
      list {
        shape {
          dim {
            size: -1
          }
        }
        shape {
          dim {
            size: -1
          }
        }
      }
    }
  }
}
node {
  name: "training/Ftrl/gradients/gradients/head/losses/mean_squared_error/Mul_grad/Mul"
  op: "Mul"
  input: "training/Ftrl/gradients/gradients/head/losses/weighted_loss/Mul_grad/Reshape"
  input: "head/losses/mean_squared_error/Cast/x"
  attr {
    key: "T"
    value {
      type: DT_FLOAT
    }
  }
  attr {
    key: "_output_shapes"
    value {
      list {
        shape {
          dim {
            size: -1
          }
          dim {
            size: 1
          }
        }
      }
    }
  }
}
node {
  name: "training/Ftrl/gradients/gradients/head/losses/mean_squared_error/Mul_grad/Sum"
  op: "Sum"
  input: "training/Ftrl/gradients/gradients/head/losses/mean_squared_error/Mul_grad/Mul"
  input: "training/Ftrl/gradients/gradients/head/losses/mean_squared_error/Mul_grad/BroadcastGradientArgs"
  attr {
    key: "T"
    value {
      type: DT_FLOAT
    }
  }
  attr {
    key: "Tidx"
    value {
      type: DT_INT32
    }
  }
  attr {
    key: "_output_shapes"
    value {
      list {
        shape {
          unknown_rank: true
        }
      }
    }
  }
  attr {
    key: "keep_dims"
    value {
      b: false
    }
  }
}
node {
  name: "training/Ftrl/gradients/gradients/head/losses/mean_squared_error/Mul_grad/Reshape"
  op: "Reshape"
  input: "training/Ftrl/gradients/gradients/head/losses/mean_squared_error/Mul_grad/Sum"
  input: "training/Ftrl/gradients/gradients/head/losses/mean_squared_error/Mul_grad/Shape"
  attr {
    key: "T"
    value {
      type: DT_FLOAT
    }
  }
  attr {
    key: "Tshape"
    value {
      type: DT_INT32
    }
  }
  attr {
    key: "_output_shapes"
    value {
      list {
        shape {
          dim {
            size: -1
          }
          dim {
            size: 1
          }
        }
      }
    }
  }
}
node {
  name: "training/Ftrl/gradients/gradients/head/losses/mean_squared_error/Mul_grad/Mul_1"
  op: "Mul"
  input: "head/losses/mean_squared_error/SquaredDifference"
  input: "training/Ftrl/gradients/gradients/head/losses/weighted_loss/Mul_grad/Reshape"
  attr {
    key: "T"
    value {
      type: DT_FLOAT
    }
  }
  attr {
    key: "_output_shapes"
    value {
      list {
        shape {
          dim {
            size: -1
          }
          dim {
            size: 1
          }
        }
      }
    }
  }
}
node {
  name: "training/Ftrl/gradients/gradients/head/losses/mean_squared_error/Mul_grad/Sum_1"
  op: "Sum"
  input: "training/Ftrl/gradients/gradients/head/losses/mean_squared_error/Mul_grad/Mul_1"
  input: "training/Ftrl/gradients/gradients/head/losses/mean_squared_error/Mul_grad/BroadcastGradientArgs:1"
  attr {
    key: "T"
    value {
      type: DT_FLOAT
    }
  }
  attr {
    key: "Tidx"
    value {
      type: DT_INT32
    }
  }
  attr {
    key: "_output_shapes"
    value {
      list {
        shape {
          unknown_rank: true
        }
      }
    }
  }
  attr {
    key: "keep_dims"
    value {
      b: false
    }
  }
}
node {
  name: "training/Ftrl/gradients/gradients/head/losses/mean_squared_error/Mul_grad/Reshape_1"
  op: "Reshape"
  input: "training/Ftrl/gradients/gradients/head/losses/mean_squared_error/Mul_grad/Sum_1"
  input: "training/Ftrl/gradients/gradients/head/losses/mean_squared_error/Mul_grad/Shape_1"
  attr {
    key: "T"
    value {
      type: DT_FLOAT
    }
  }
  attr {
    key: "Tshape"
    value {
      type: DT_INT32
    }
  }
  attr {
    key: "_output_shapes"
    value {
      list {
        shape {
        }
      }
    }
  }
}
node {
  name: "training/Ftrl/gradients/gradients/head/losses/mean_squared_error/SquaredDifference_grad/scalar"
  op: "Const"
  input: "^training/Ftrl/gradients/gradients/head/losses/mean_squared_error/Mul_grad/Reshape"
  attr {
    key: "_output_shapes"
    value {
      list {
        shape {
        }
      }
    }
  }
  attr {
    key: "dtype"
    value {
      type: DT_FLOAT
    }
  }
  attr {
    key: "value"
    value {
      tensor {
        dtype: DT_FLOAT
        tensor_shape {
        }
        float_val: 2.0
      }
    }
  }
}
node {
  name: "training/Ftrl/gradients/gradients/head/losses/mean_squared_error/SquaredDifference_grad/Mul"
  op: "Mul"
  input: "training/Ftrl/gradients/gradients/head/losses/mean_squared_error/SquaredDifference_grad/scalar"
  input: "training/Ftrl/gradients/gradients/head/losses/mean_squared_error/Mul_grad/Reshape"
  attr {
    key: "T"
    value {
      type: DT_FLOAT
    }
  }
  attr {
    key: "_output_shapes"
    value {
      list {
        shape {
          dim {
            size: -1
          }
          dim {
            size: 1
          }
        }
      }
    }
  }
}
node {
  name: "training/Ftrl/gradients/gradients/head/losses/mean_squared_error/SquaredDifference_grad/sub"
  op: "Sub"
  input: "linear/linear_model/linear/linear_model/linear/linear_model/weighted_sum"
  input: "head/losses/labels"
  input: "^training/Ftrl/gradients/gradients/head/losses/mean_squared_error/Mul_grad/Reshape"
  attr {
    key: "T"
    value {
      type: DT_FLOAT
    }
  }
  attr {
    key: "_output_shapes"
    value {
      list {
        shape {
          dim {
            size: -1
          }
          dim {
            size: 1
          }
        }
      }
    }
  }
}
node {
  name: "training/Ftrl/gradients/gradients/head/losses/mean_squared_error/SquaredDifference_grad/mul_1"
  op: "Mul"
  input: "training/Ftrl/gradients/gradients/head/losses/mean_squared_error/SquaredDifference_grad/Mul"
  input: "training/Ftrl/gradients/gradients/head/losses/mean_squared_error/SquaredDifference_grad/sub"
  attr {
    key: "T"
    value {
      type: DT_FLOAT
    }
  }
  attr {
    key: "_output_shapes"
    value {
      list {
        shape {
          dim {
            size: -1
          }
          dim {
            size: 1
          }
        }
      }
    }
  }
}
node {
  name: "training/Ftrl/gradients/gradients/head/losses/mean_squared_error/SquaredDifference_grad/Shape"
  op: "Shape"
  input: "linear/linear_model/linear/linear_model/linear/linear_model/weighted_sum"
  attr {
    key: "T"
    value {
      type: DT_FLOAT
    }
  }
  attr {
    key: "_output_shapes"
    value {
      list {
        shape {
          dim {
            size: 2
          }
        }
      }
    }
  }
  attr {
    key: "out_type"
    value {
      type: DT_INT32
    }
  }
}
node {
  name: "training/Ftrl/gradients/gradients/head/losses/mean_squared_error/SquaredDifference_grad/Shape_1"
  op: "Shape"
  input: "head/losses/labels"
  attr {
    key: "T"
    value {
      type: DT_FLOAT
    }
  }
  attr {
    key: "_output_shapes"
    value {
      list {
        shape {
          dim {
            size: 2
          }
        }
      }
    }
  }
  attr {
    key: "out_type"
    value {
      type: DT_INT32
    }
  }
}
node {
  name: "training/Ftrl/gradients/gradients/head/losses/mean_squared_error/SquaredDifference_grad/BroadcastGradientArgs"
  op: "BroadcastGradientArgs"
  input: "training/Ftrl/gradients/gradients/head/losses/mean_squared_error/SquaredDifference_grad/Shape"
  input: "training/Ftrl/gradients/gradients/head/losses/mean_squared_error/SquaredDifference_grad/Shape_1"
  attr {
    key: "T"
    value {
      type: DT_INT32
    }
  }
  attr {
    key: "_output_shapes"
    value {
      list {
        shape {
          dim {
            size: -1
          }
        }
        shape {
          dim {
            size: -1
          }
        }
      }
    }
  }
}
node {
  name: "training/Ftrl/gradients/gradients/head/losses/mean_squared_error/SquaredDifference_grad/Sum"
  op: "Sum"
  input: "training/Ftrl/gradients/gradients/head/losses/mean_squared_error/SquaredDifference_grad/mul_1"
  input: "training/Ftrl/gradients/gradients/head/losses/mean_squared_error/SquaredDifference_grad/BroadcastGradientArgs"
  attr {
    key: "T"
    value {
      type: DT_FLOAT
    }
  }
  attr {
    key: "Tidx"
    value {
      type: DT_INT32
    }
  }
  attr {
    key: "_output_shapes"
    value {
      list {
        shape {
          unknown_rank: true
        }
      }
    }
  }
  attr {
    key: "keep_dims"
    value {
      b: false
    }
  }
}
node {
  name: "training/Ftrl/gradients/gradients/head/losses/mean_squared_error/SquaredDifference_grad/Reshape"
  op: "Reshape"
  input: "training/Ftrl/gradients/gradients/head/losses/mean_squared_error/SquaredDifference_grad/Sum"
  input: "training/Ftrl/gradients/gradients/head/losses/mean_squared_error/SquaredDifference_grad/Shape"
  attr {
    key: "T"
    value {
      type: DT_FLOAT
    }
  }
  attr {
    key: "Tshape"
    value {
      type: DT_INT32
    }
  }
  attr {
    key: "_output_shapes"
    value {
      list {
        shape {
          dim {
            size: -1
          }
          dim {
            size: 1
          }
        }
      }
    }
  }
}
node {
  name: "training/Ftrl/gradients/gradients/head/losses/mean_squared_error/SquaredDifference_grad/Sum_1"
  op: "Sum"
  input: "training/Ftrl/gradients/gradients/head/losses/mean_squared_error/SquaredDifference_grad/mul_1"
  input: "training/Ftrl/gradients/gradients/head/losses/mean_squared_error/SquaredDifference_grad/BroadcastGradientArgs:1"
  attr {
    key: "T"
    value {
      type: DT_FLOAT
    }
  }
  attr {
    key: "Tidx"
    value {
      type: DT_INT32
    }
  }
  attr {
    key: "_output_shapes"
    value {
      list {
        shape {
          unknown_rank: true
        }
      }
    }
  }
  attr {
    key: "keep_dims"
    value {
      b: false
    }
  }
}
node {
  name: "training/Ftrl/gradients/gradients/head/losses/mean_squared_error/SquaredDifference_grad/Reshape_1"
…
        name: "count_nonzero_notequal_zero_fraction_readvariableop"
        type: DT_FLOAT
      }
      output_arg {
        name: "count_nonzero_nonzero_count"
        type: DT_INT64
      }
    }
    node_def {
      name: "count_nonzero/zeros"
      op: "Const"
      attr {
        key: "_output_shapes"
        value {
          list {
            shape {
            }
          }
        }
      }
      attr {
        key: "dtype"
        value {
          type: DT_FLOAT
        }
      }
      attr {
        key: "value"
        value {
          tensor {
            dtype: DT_FLOAT
            tensor_shape {
            }
            float_val: 0.0
          }
        }
      }
    }
    node_def {
      name: "count_nonzero/NotEqual"
      op: "NotEqual"
      input: "count_nonzero_notequal_zero_fraction_readvariableop"
      input: "count_nonzero/zeros:output:0"
      attr {
        key: "T"
        value {
          type: DT_FLOAT
        }
      }
      attr {
        key: "_output_shapes"
        value {
          list {
            shape {
              dim {
                size: 1
              }
              dim {
                size: 1
              }
            }
          }
        }
      }
      attr {
        key: "incompatible_shape_error"
        value {
          b: true
        }
      }
    }
    node_def {
      name: "count_nonzero/Cast"
      op: "Cast"
      input: "count_nonzero/NotEqual:z:0"
      attr {
        key: "DstT"
        value {
          type: DT_INT64
        }
      }
      attr {
        key: "SrcT"
        value {
          type: DT_BOOL
        }
      }
      attr {
        key: "Truncate"
        value {
          b: false
        }
      }
      attr {
        key: "_output_shapes"
        value {
          list {
            shape {
              dim {
                size: 1
              }
              dim {
                size: 1
              }
            }
          }
        }
      }
    }
    node_def {
      name: "count_nonzero/Const"
      op: "Const"
      attr {
        key: "_output_shapes"
        value {
          list {
            shape {
              dim {
                size: 2
              }
            }
          }
        }
      }
      attr {
        key: "dtype"
        value {
          type: DT_INT32
        }
      }
      attr {
        key: "value"
        value {
          tensor {
            dtype: DT_INT32
            tensor_shape {
              dim {
                size: 2
              }
            }
            tensor_content: "\000\000\000\000\001\000\000\000"
          }
        }
      }
    }
    node_def {
      name: "count_nonzero/nonzero_count"
      op: "Sum"
      input: "count_nonzero/Cast:y:0"
      input: "count_nonzero/Const:output:0"
      attr {
        key: "T"
        value {
          type: DT_INT64
        }
      }
      attr {
        key: "Tidx"
        value {
          type: DT_INT32
        }
      }
      attr {
        key: "_output_shapes"
        value {
          list {
            shape {
            }
          }
        }
      }
      attr {
        key: "keep_dims"
        value {
          b: false
        }
      }
    }
    ret {
      key: "count_nonzero_nonzero_count"
      value: "count_nonzero/nonzero_count:output:0"
    }
    attr {
      key: "_input_shapes"
      value {
        list {
          shape {
            dim {
              size: 1
            }
            dim {
              size: 1
            }
          }
        }
      }
    }
    arg_attr {
      value {
      }
    }
  }
  function {
    signature {
      name: "__inference_Dataset_flat_map_read_one_file_46"
      input_arg {
        name: "args_0"
        type: DT_STRING
      }
      output_arg {
        name: "identity"
        type: DT_VARIANT
      }
      is_stateful: true
      control_output: "TextLineDataset"
    }
    node_def {
      name: "compression_type"
      op: "Const"
      attr {
        key: "_output_shapes"
        value {
          list {
            shape {
            }
          }
        }
      }
      attr {
        key: "dtype"
        value {
          type: DT_STRING
        }
      }
      attr {
        key: "value"
        value {
          tensor {
            dtype: DT_STRING
            tensor_shape {
            }
            string_val: ""
          }
        }
      }
    }
    node_def {
      name: "buffer_size"
      op: "Const"
      attr {
        key: "_output_shapes"
        value {
          list {
            shape {
            }
          }
        }
      }
      attr {
        key: "dtype"
        value {
          type: DT_INT64
        }
      }
      attr {
        key: "value"
        value {
          tensor {
            dtype: DT_INT64
            tensor_shape {
            }
            int64_val: 262144
          }
        }
      }
    }
    node_def {
      name: "TextLineDataset"
      op: "TextLineDataset"
      input: "args_0"
      input: "compression_type:output:0"
      input: "buffer_size:output:0"
      attr {
        key: "_output_shapes"
        value {
          list {
            shape {
            }
          }
        }
      }
    }
    node_def {
      name: "Identity"
      op: "Identity"
      input: "TextLineDataset:handle:0"
      input: "^TextLineDataset"
      attr {
        key: "T"
        value {
          type: DT_VARIANT
        }
      }
      attr {
        key: "_output_shapes"
        value {
          list {
            shape {
            }
          }
        }
      }
    }
    ret {
      key: "identity"
      value: "Identity:output:0"
    }
    attr {
      key: "_input_shapes"
      value {
        list {
          shape {
          }
        }
      }
    }
    control_ret {
      key: "TextLineDataset"
      value: "TextLineDataset"
    }
    arg_attr {
      value {
        attr {
          key: "_user_specified_name"
          value {
            s: "args_0"
          }
        }
      }
    }
  }
  function {
    signature {
      name: "__inference_Dataset_map_decode_csv_73"
      input_arg {
        name: "args_0"
        type: DT_STRING
      }
      output_arg {
        name: "identity"
        type: DT_FLOAT
      }
      output_arg {
        name: "identity_1"
        type: DT_FLOAT
      }
      output_arg {
        name: "identity_2"
        type: DT_FLOAT
      }
      output_arg {
        name: "identity_3"
        type: DT_FLOAT
      }
      output_arg {
        name: "identity_4"
        type: DT_FLOAT
      }
      output_arg {
        name: "identity_5"
        type: DT_FLOAT
      }
    }
    node_def {
      name: "DecodeCSV/record_defaults_0"
      op: "Const"
      attr {
        key: "_output_shapes"
        value {
          list {
            shape {
              dim {
                size: 1
              }
            }
          }
        }
      }
      attr {
        key: "dtype"
        value {
          type: DT_FLOAT
        }
      }
      attr {
        key: "value"
        value {
          tensor {
            dtype: DT_FLOAT
            tensor_shape {
              dim {
                size: 1
              }
            }
            float_val: 0.0
          }
        }
      }
    }
    node_def {
      name: "DecodeCSV/record_defaults_1"
      op: "Const"
      attr {
        key: "_output_shapes"
        value {
          list {
            shape {
              dim {
                size: 1
              }
            }
          }
        }
      }
      attr {
        key: "dtype"
        value {
          type: DT_FLOAT
        }
      }
      attr {
        key: "value"
        value {
          tensor {
            dtype: DT_FLOAT
            tensor_shape {
              dim {
                size: 1
              }
            }
            float_val: -74.0
          }
        }
      }
    }
    node_def {
      name: "DecodeCSV/record_defaults_2"
      op: "Const"
      attr {
        key: "_output_shapes"
        value {
          list {
            shape {
              dim {
                size: 1
              }
            }
          }
        }
      }
      attr {
        key: "dtype"
        value {
          type: DT_FLOAT
        }
      }
      attr {
        key: "value"
        value {
          tensor {
            dtype: DT_FLOAT
            tensor_shape {
              dim {
                size: 1
              }
            }
            float_val: 40.0
          }
        }
      }
    }
    node_def {
      name: "DecodeCSV/record_defaults_3"
      op: "Const"
      attr {
        key: "_output_shapes"
        value {
          list {
            shape {
              dim {
                size: 1
              }
            }
          }
        }
      }
      attr {
        key: "dtype"
        value {
          type: DT_FLOAT
        }
      }
      attr {
        key: "value"
        value {
          tensor {
            dtype: DT_FLOAT
            tensor_shape {
              dim {
                size: 1
              }
            }
            float_val: -74.0
          }
        }
      }
    }
    node_def {
      name: "DecodeCSV/record_defaults_4"
      op: "Const"
      attr {
        key: "_output_shapes"
        value {
          list {
            shape {
              dim {
                size: 1
              }
            }
          }
        }
      }
      attr {
        key: "dtype"
        value {
          type: DT_FLOAT
        }
      }
      attr {
        key: "value"
        value {
          tensor {
            dtype: DT_FLOAT
            tensor_shape {
              dim {
                size: 1
              }
            }
            float_val: 40.70000076293945
          }
        }
      }
    }
    node_def {
      name: "DecodeCSV/record_defaults_5"
      op: "Const"
      attr {
        key: "_output_shapes"
        value {
          list {
            shape {
              dim {
                size: 1
              }
            }
          }
        }
      }
      attr {
        key: "dtype"
        value {
          type: DT_FLOAT
        }
      }
      attr {
        key: "value"
        value {
          tensor {
            dtype: DT_FLOAT
            tensor_shape {
              dim {
                size: 1
              }
            }
            float_val: 1.0
          }
        }
      }
    }
    node_def {
      name: "DecodeCSV/record_defaults_6"
      op: "Const"
      attr {
        key: "_output_shapes"
        value {
          list {
            shape {
              dim {
                size: 1
              }
            }
          }
        }
      }
      attr {
        key: "dtype"
        value {
          type: DT_STRING
        }
      }
      attr {
        key: "value"
        value {
          tensor {
            dtype: DT_STRING
            tensor_shape {
              dim {
                size: 1
              }
            }
            string_val: "nokey"
          }
        }
      }
    }
    node_def {
      name: "DecodeCSV"
      op: "DecodeCSV"
      input: "args_0"
      input: "DecodeCSV/record_defaults_0:output:0"
      input: "DecodeCSV/record_defaults_1:output:0"
      input: "DecodeCSV/record_defaults_2:output:0"
      input: "DecodeCSV/record_defaults_3:output:0"
      input: "DecodeCSV/record_defaults_4:output:0"
      input: "DecodeCSV/record_defaults_5:output:0"
      input: "DecodeCSV/record_defaults_6:output:0"
      attr {
        key: "OUT_TYPE"
        value {
          list {
            type: DT_FLOAT
            type: DT_FLOAT
            type: DT_FLOAT
            type: DT_FLOAT
            type: DT_FLOAT
            type: DT_FLOAT
            type: DT_STRING
          }
        }
      }
      attr {
        key: "_output_shapes"
        value {
          list {
            shape {
            }
            shape {
            }
            shape {
            }
            shape {
            }
            shape {
            }
            shape {
            }
            shape {
            }
          }
        }
      }
      attr {
        key: "field_delim"
        value {
          s: ","
        }
      }
      attr {
        key: "na_value"
        value {
          s: ""
        }
      }
      attr {
        key: "select_cols"
        value {
          list {
          }
        }
      }
      attr {
        key: "use_quote_delim"
        value {
          b: true
        }
      }
    }
    node_def {
      name: "Identity"
      op: "Identity"
      input: "DecodeCSV:output:4"
      attr {
        key: "T"
        value {
          type: DT_FLOAT
        }
      }
      attr {
        key: "_output_shapes"
        value {
          list {
            shape {
            }
          }
        }
      }
    }
    node_def {
      name: "Identity_1"
      op: "Identity"
      input: "DecodeCSV:output:3"
      attr {
        key: "T"
        value {
          type: DT_FLOAT
        }
      }
      attr {
        key: "_output_shapes"
        value {
          list {
            shape {
            }
          }
        }
      }
    }
    node_def {
      name: "Identity_2"
      op: "Identity"
      input: "DecodeCSV:output:5"
      attr {
        key: "T"
        value {
          type: DT_FLOAT
        }
      }
      attr {
        key: "_output_shapes"
        value {
          list {
            shape {
            }
          }
        }
      }
    }
    node_def {
      name: "Identity_3"
      op: "Identity"
      input: "DecodeCSV:output:2"
      attr {
        key: "T"
        value {
          type: DT_FLOAT
        }
      }
      attr {
        key: "_output_shapes"
        value {
          list {
            shape {
            }
          }
        }
      }
    }
    node_def {
      name: "Identity_4"
      op: "Identity"
      input: "DecodeCSV:output:1"
      attr {
        key: "T"
        value {
          type: DT_FLOAT
        }
      }
      attr {
        key: "_output_shapes"
        value {
          list {
            shape {
            }
          }
        }
      }
    }
    node_def {
      name: "Identity_5"
      op: "Identity"
      input: "DecodeCSV:output:0"
      attr {
        key: "T"
        value {
          type: DT_FLOAT
        }
      }
      attr {
        key: "_output_shapes"
        value {
          list {
            shape {
            }
          }
        }
      }
    }
    ret {
      key: "identity"
      value: "Identity:output:0"
    }
    ret {
      key: "identity_1"
      value: "Identity_1:output:0"
    }
    ret {
      key: "identity_2"
      value: "Identity_2:output:0"
    }
    ret {
      key: "identity_3"
      value: "Identity_3:output:0"
    }
    ret {
      key: "identity_4"
      value: "Identity_4:output:0"
    }
    ret {
      key: "identity_5"
      value: "Identity_5:output:0"
    }
    attr {
      key: "_input_shapes"
      value {
        list {
          shape {
          }
        }
      }
    }
    arg_attr {
      value {
        attr {
          key: "_user_specified_name"
          value {
            s: "args_0"
          }
        }
      }
    }
  }
  function {
    signature {
      name: "zero_fraction_total_zero_zero_count_1_true_252"
      input_arg {
        name: "placeholder"
        type: DT_RESOURCE
      }
      input_arg {
        name: "placeholder_1"
        type: DT_INT64
      }
      output_arg {
        name: "const"
        type: DT_FLOAT
      }
    }
    node_def {
      name: "Const"
      op: "Const"
      attr {
        key: "_output_shapes"
        value {
          list {
            shape {
            }
          }
        }
      }
      attr {
        key: "dtype"
        value {
          type: DT_FLOAT
        }
      }
      attr {
        key: "value"
        value {
          tensor {
            dtype: DT_FLOAT
            tensor_shape {
            }
            float_val: 0.0
          }
        }
      }
    }
    ret {
      key: "const"
      value: "Const:output:0"
    }
    attr {
      key: "_input_shapes"
      value {
        list {
          shape {
            unknown_rank: true
          }
          shape {
          }
        }
      }
    }
    arg_attr {
      value {
      }
    }
    arg_attr {
      key: 1
      value {
      }
    }
  }
  function {
    signature {
      name: "zero_fraction_total_zero_zero_count_2_true_295"
      input_arg {
        name: "placeholder"
        type: DT_RESOURCE
      }
      input_arg {
        name: "placeholder_1"
        type: DT_INT64
      }
      output_arg {
        name: "const"
        type: DT_FLOAT
      }
    }
    node_def {
      name: "Const"
      op: "Const"
      attr {
        key: "_output_shapes"
        value {
          list {
            shape {
            }
          }
        }
      }
      attr {
        key: "dtype"
        value {
          type: DT_FLOAT
        }
      }
      attr {
        key: "value"
        value {
          tensor {
            dtype: DT_FLOAT
            tensor_shape {
            }
            float_val: 0.0
          }
        }
      }
    }
    ret {
      key: "const"
      value: "Const:output:0"
    }
    attr {
      key: "_input_shapes"
      value {
        list {
          shape {
            unknown_rank: true
          }
          shape {
          }
        }
      }
    }
    arg_attr {
      value {
      }
    }
    arg_attr {
      key: 1
      value {
      }
    }
  }
  function {
    signature {
      name: "zero_fraction_total_zero_zero_count_4_false_382"
      input_arg {
        name: "zero_fraction_readvariableop_linear_linear_model_pickuplon_weights"
        type: DT_RESOURCE
      }
      input_arg {
        name: "tofloat_zero_fraction_total_size_size_4"
        type: DT_INT64
      }
      output_arg {
        name: "mul"
        type: DT_FLOAT
      }
      is_stateful: true
    }
    node_def {
      name: "zero_fraction/ReadVariableOp"
      op: "ReadVariableOp"
      input: "zero_fraction_readvariableop_linear_linear_model_pickuplon_weights"
      attr {
        key: "_output_shapes"
        value {
          list {
            shape {
              dim {
                size: 1
              }
              dim {
                size: 1
              }
            }
          }
        }
      }
      attr {
        key: "dtype"
        value {
          type: DT_FLOAT
        }
      }
    }
    node_def {
      name: "zero_fraction/Size"
      op: "Const"
      attr {
        key: "_output_shapes"
        value {
          list {
            shape {
            }
          }
        }
      }
      attr {
        key: "dtype"
        value {
          type: DT_INT64
        }
      }
      attr {
        key: "value"
        value {
          tensor {
            dtype: DT_INT64
            tensor_shape {
            }
            int64_val: 1
          }
        }
      }
    }
    node_def {
      name: "zero_fraction/LessEqual/y"
      op: "Const"
      attr {
        key: "_output_shapes"
        value {
          list {
            shape {
            }
          }
        }
      }
      attr {
        key: "dtype"
        value {
          type: DT_INT64
        }
      }
      attr {
        key: "value"
        value {
          tensor {
            dtype: DT_INT64
            tensor_shape {
            }
            int64_val: 2147483647
          }
        }
      }
    }
    node_def {
      name: "zero_fraction/LessEqual"
      op: "LessEqual"
      input: "zero_fraction/Size:output:0"
      input: "zero_fraction/LessEqual/y:output:0"
      attr {
        key: "T"
        value {
          type: DT_INT64
        }
      }
      attr {
        key: "_output_shapes"
        value {
          list {
            shape {
            }
          }
        }
      }
    }
    node_def {
      name: "zero_fraction/cond"
      op: "StatelessIf"
      input: "zero_fraction/LessEqual:z:0"
      input: "zero_fraction/ReadVariableOp:value:0"
      attr {
        key: "Tcond"
        value {
          type: DT_BOOL
        }
      }
      attr {
        key: "Tin"
        value {
          list {
            type: DT_FLOAT
          }
        }
      }
      attr {
        key: "Tout"
        value {
          list {
            type: DT_INT64
          }
        }
      }
      attr {
        key: "_lower_using_switch_merge"
        value {
          b: true
        }
      }
      attr {
        key: "_output_shapes"
        value {
          list {
            shape {
            }
          }
        }
      }
      attr {
        key: "else_branch"
        value {
          func {
            name: "zero_fraction_cond_false_392"
          }
        }
      }
      attr {
        key: "output_shapes"
        value {
          list {
            shape {
            }
          }
        }
      }
      attr {
        key: "then_branch"
        value {
          func {
            name: "zero_fraction_cond_true_391"
          }
        }
      }
    }
    node_def {
      name: "zero_fraction/cond/Identity"
      op: "Identity"
      input: "zero_fraction/cond:output:0"
      attr {
        key: "T"
        value {
          type: DT_INT64
        }
      }
      attr {
        key: "_output_shapes"
        value {
          list {
            shape {
            }
          }
        }
      }
    }
    node_def {
      name: "zero_fraction/counts_to_fraction/sub"
      op: "Sub"
      input: "zero_fraction/Size:output:0"
      input: "zero_fraction/cond/Identity:output:0"
      attr {
        key: "T"
        value {
          type: DT_INT64
        }
      }
      attr {
        key: "_output_shapes"
        value {
          list {
            shape {
            }
          }
        }
      }
    }
    node_def {
      name: "zero_fraction/counts_to_fraction/Cast"
      op: "Cast"
      input: "zero_fraction/counts_to_fraction/sub:z:0"
      attr {
        key: "DstT"
        value {
          type: DT_FLOAT
        }
      }
      attr {
        key: "SrcT"
        value {
          type: DT_INT64
        }
      }
      attr {
        key: "Truncate"
        value {
          b: false
        }
      }
      attr {
        key: "_output_shapes"
        value {
          list {
            shape {
            }
          }
        }
      }
    }
    node_def {
      name: "zero_fraction/counts_to_fraction/Cast_1"
      op: "Cast"
      input: "zero_fraction/Size:output:0"
      attr {
        key: "DstT"
        value {
          type: DT_FLOAT
        }
      }
      attr {
        key: "SrcT"
        value {
          type: DT_INT64
        }
      }
      attr {
        key: "Truncate"
        value {
          b: false
        }
      }
      attr {
        key: "_output_shapes"
        value {
          list {
            shape {
            }
          }
        }
      }
    }
    node_def {
      name: "zero_fraction/counts_to_fraction/truediv"
      op: "RealDiv"
      input: "zero_fraction/counts_to_fraction/Cast:y:0"
      input: "zero_fraction/counts_to_fraction/Cast_1:y:0"
      attr {
        key: "T"
        value {
          type: DT_FLOAT
        }
      }
      attr {
        key: "_output_shapes"
        value {
          list {
            shape {
            }
          }
        }
      }
    }
    node_def {
      name: "zero_fraction/fraction"
      op: "Identity"
      input: "zero_fraction/counts_to_fraction/truediv:z:0"
      attr {
        key: "T"
        value {
          type: DT_FLOAT
        }
      }
      attr {
        key: "_output_shapes"
        value {
          list {
            shape {
            }
          }
        }
      }
    }
    node_def {
      name: "ToFloat"
      op: "Cast"
      input: "tofloat_zero_fraction_total_size_size_4"
      attr {
        key: "DstT"
        value {
          type: DT_FLOAT
        }
      }
      attr {
        key: "SrcT"
        value {
          type: DT_INT64
        }
      }
      attr {
        key: "Truncate"
        value {
          b: false
        }
      }
      attr {
        key: "_output_shapes"
        value {
          list {
            shape {
            }
          }
        }
      }
    }
    node_def {
      name: "mul_0"
      op: "Mul"
      input: "zero_fraction/fraction:output:0"
      input: "ToFloat:y:0"
      attr {
        key: "T"
        value {
          type: DT_FLOAT
        }
      }
    }
    ret {
      key: "mul"
      value: "mul_0:z:0"
    }
    attr {
      key: "_input_shapes"
      value {
        list {
          shape {
            unknown_rank: true
          }
          shape {
          }
        }
      }
    }
    arg_attr {
      value {
      }
    }
    arg_attr {
      key: 1
      value {
      }
    }
  }
  function {
    signature {
      name: "zero_fraction_cond_true_262"
      input_arg {
        name: "count_nonzero_notequal_zero_fraction_readvariableop"
        type: DT_FLOAT
      }
      output_arg {
        name: "cast"
        type: DT_INT64
      }
    }
    node_def {
      name: "count_nonzero/zeros"
      op: "Const"
      attr {
        key: "_output_shapes"
        value {
          list {
            shape {
            }
          }
        }
      }
      attr {
        key: "dtype"
        value {
          type: DT_FLOAT
        }
      }
      attr {
        key: "value"
        value {
          tensor {
            dtype: DT_FLOAT
            tensor_shape {
            }
            float_val: 0.0
          }
        }
      }
    }
    node_def {
      name: "count_nonzero/NotEqual"
      op: "NotEqual"
      input: "count_nonzero_notequal_zero_fraction_readvariableop"
      input: "count_nonzero/zeros:output:0"
      attr {
        key: "T"
        value {
          type: DT_FLOAT
        }
      }
      attr {
        key: "_output_shapes"
        value {
          list {
            shape {
              dim {
                size: 1
              }
              dim {
                size: 1
              }
            }
          }
        }
      }
      attr {
        key: "incompatible_shape_error"
        value {
          b: true
        }
      }
    }
    node_def {
      name: "count_nonzero/Cast"
      op: "Cast"
      input: "count_nonzero/NotEqual:z:0"
      attr {
        key: "DstT"
        value {
          type: DT_INT32
        }
      }
      attr {
        key: "SrcT"
        value {
          type: DT_BOOL
        }
      }
      attr {
        key: "Truncate"
        value {
          b: false
        }
      }
      attr {
        key: "_output_shapes"
        value {
          list {
            shape {
              dim {
                size: 1
              }
              dim {
                size: 1
              }
            }
          }
        }
      }
    }
    node_def {
      name: "count_nonzero/Const"
      op: "Const"
      attr {
        key: "_output_shapes"
        value {
          list {
            shape {
              dim {
                size: 2
              }
            }
          }
        }
      }
      attr {
        key: "dtype"
        value {
          type: DT_INT32
        }
      }
      attr {
        key: "value"
        value {
          tensor {
            dtype: DT_INT32
            tensor_shape {
              dim {
                size: 2
              }
            }
            tensor_content: "\000\000\000\000\001\000\000\000"
          }
        }
      }
    }
    node_def {
      name: "count_nonzero/nonzero_count"
      op: "Sum"
      input: "count_nonzero/Cast:y:0"
      input: "count_nonzero/Const:output:0"
      attr {
        key: "T"
        value {
          type: DT_INT32
        }
      }
      attr {
        key: "Tidx"
        value {
          type: DT_INT32
        }
      }
      attr {
        key: "_output_shapes"
        value {
          list {
            shape {
            }
          }
        }
      }
      attr {
        key: "keep_dims"
        value {
          b: false
        }
      }
    }
    node_def {
      name: "Cast"
      op: "Cast"
      input: "count_nonzero/nonzero_count:output:0"
      attr {
        key: "DstT"
        value {
          type: DT_INT64
        }
      }
      attr {
        key: "SrcT"
        value {
          type: DT_INT32
        }
      }
      attr {
        key: "Truncate"
        value {
          b: false
        }
      }
      attr {
        key: "_output_shapes"
        value {
          list {
            shape {
            }
          }
        }
      }
    }
    ret {
      key: "cast"
      value: "Cast:y:0"
    }
    attr {
      key: "_input_shapes"
      value {
        list {
          shape {
            dim {
              size: 1
            }
            dim {
              size: 1
            }
          }
        }
      }
    }
    arg_attr {
      value {
      }
    }
  }
  function {
    signature {
      name: "global_step_cond_true_6"
      input_arg {
        name: "read_readvariableop_global_step"
        type: DT_RESOURCE
      }
      input_arg {
        name: "placeholder"
        type: DT_INT64
      }
      output_arg {
        name: "identity"
        type: DT_INT64
      }
      is_stateful: true
    }
    node_def {
      name: "Read/ReadVariableOp"
      op: "ReadVariableOp"
      input: "read_readvariableop_global_step"
      attr {
        key: "_output_shapes"
        value {
          list {
            shape {
            }
          }
        }
      }
      attr {
        key: "dtype"
        value {
          type: DT_INT64
        }
      }
    }
    node_def {
      name: "Identity"
      op: "Identity"
      input: "Read/ReadVariableOp:value:0"
      attr {
        key: "T"
        value {
          type: DT_INT64
        }
      }
      attr {
        key: "_output_shapes"
        value {
          list {
            shape {
            }
          }
        }
      }
    }
    ret {
      key: "identity"
      value: "Identity:output:0"
    }
    attr {
      key: "_input_shapes"
      value {
        list {
          shape {
            unknown_rank: true
          }
          shape {
          }
        }
      }
    }
    arg_attr {
      value {
      }
    }
    arg_attr {
      key: 1
      value {
      }
    }
  }
  function {
    signature {
      name: "__inference_Dataset_flat_map_<class \'abc.ABCMeta\'>_49"
      input_arg {
        name: "args_0"
        type: DT_STRING
      }
      output_arg {
        name: "identity"
        type: DT_VARIANT
      }
      is_stateful: true
      control_output: "TensorSliceDataset"
    }
    node_def {
      name: "flat_filenames/shape"
      op: "Const"
      attr {
        key: "_output_shapes"
        value {
          list {
            shape {
              dim {
                size: 1
              }
            }
          }
        }
      }
      attr {
        key: "dtype"
        value {
          type: DT_INT32
        }
      }
      attr {
        key: "value"
        value {
          tensor {
            dtype: DT_INT32
            tensor_shape {
              dim {
                size: 1
              }
            }
            int_val: -1
          }
        }
      }
    }
    node_def {
      name: "flat_filenames"
      op: "Reshape"
      input: "args_0"
      input: "flat_filenames/shape:output:0"
      attr {
        key: "T"
        value {
          type: DT_STRING
        }
      }
      attr {
        key: "Tshape"
        value {
          type: DT_INT32
        }
      }
      attr {
        key: "_output_shapes"
        value {
          list {
            shape {
              dim {
                size: 1
              }
            }
          }
        }
      }
    }
    node_def {
      name: "TensorSliceDataset"
      op: "TensorSliceDataset"
      input: "flat_filenames:output:0"
      attr {
        key: "Toutput_types"
        value {
          list {
            type: DT_STRING
          }
        }
      }
      attr {
        key: "_output_shapes"
        value {
          list {
            shape {
            }
          }
        }
      }
      attr {
        key: "output_shapes"
        value {
          list {
            shape {
            }
          }
        }
      }
    }
    node_def {
      name: "FlatMapDataset"
      op: "FlatMapDataset"
      input: "TensorSliceDataset:handle:0"
      attr {
        key: "Targuments"
        value {
          list {
          }
        }
      }
      attr {
        key: "_output_shapes"
        value {
          list {
            shape {
            }
          }
        }
      }
      attr {
        key: "f"
        value {
          func {
            name: "__inference_Dataset_flat_map_read_one_file_46"
          }
        }
      }
      attr {
        key: "output_shapes"
        value {
          list {
            shape {
            }
          }
        }
      }
      attr {
        key: "output_types"
        value {
          list {
            type: DT_STRING
          }
        }
      }
    }
    node_def {
      name: "Identity"
      op: "Identity"
      input: "FlatMapDataset:handle:0"
      input: "^TensorSliceDataset"
      attr {
        key: "T"
        value {
          type: DT_VARIANT
        }
      }
      attr {
        key: "_output_shapes"
        value {
          list {
            shape {
            }
          }
        }
      }
    }
    ret {
      key: "identity"
      value: "Identity:output:0"
    }
    attr {
      key: "_input_shapes"
      value {
        list {
          shape {
          }
        }
      }
    }
    control_ret {
      key: "TensorSliceDataset"
      value: "TensorSliceDataset"
    }
    arg_attr {
      value {
        attr {
          key: "_user_specified_name"
          value {
            s: "args_0"
          }
        }
      }
    }
  }
  function {
    signature {
      name: "zero_fraction_cond_false_392"
      input_arg {
        name: "count_nonzero_notequal_zero_fraction_readvariableop"
        type: DT_FLOAT
      }
      output_arg {
        name: "count_nonzero_nonzero_count"
        type: DT_INT64
      }
    }
    node_def {
      name: "count_nonzero/zeros"
      op: "Const"
      attr {
        key: "_output_shapes"
        value {
          list {
            shape {
            }
          }
        }
      }
      attr {
        key: "dtype"
        value {
          type: DT_FLOAT
        }
      }
      attr {
        key: "value"
        value {
          tensor {
            dtype: DT_FLOAT
            tensor_shape {
            }
            float_val: 0.0
          }
        }
      }
    }
    node_def {
      name: "count_nonzero/NotEqual"
      op: "NotEqual"
      input: "count_nonzero_notequal_zero_fraction_readvariableop"
      input: "count_nonzero/zeros:output:0"
      attr {
        key: "T"
        value {
          type: DT_FLOAT
        }
      }
      attr {
        key: "_output_shapes"
        value {
          list {
            shape {
              dim {
                size: 1
              }
              dim {
                size: 1
              }
            }
          }
        }
      }
      attr {
        key: "incompatible_shape_error"
        value {
          b: true
        }
      }
    }
    node_def {
      name: "count_nonzero/Cast"
      op: "Cast"
      input: "count_nonzero/NotEqual:z:0"
      attr {
        key: "DstT"
        value {
          type: DT_INT64
        }
      }
      attr {
        key: "SrcT"
        value {
          type: DT_BOOL
        }
      }
      attr {
        key: "Truncate"
        value {
          b: false
        }
      }
      attr {
        key: "_output_shapes"
        value {
          list {
            shape {
              dim {
                size: 1
              }
              dim {
                size: 1
              }
            }
          }
        }
      }
    }
    node_def {
      name: "count_nonzero/Const"
      op: "Const"
      attr {
        key: "_output_shapes"
        value {
          list {
            shape {
              dim {
                size: 2
              }
            }
          }
        }
      }
      attr {
        key: "dtype"
        value {
          type: DT_INT32
        }
      }
      attr {
        key: "value"
        value {
          tensor {
            dtype: DT_INT32
            tensor_shape {
              dim {
                size: 2
              }
            }
            tensor_content: "\000\000\000\000\001\000\000\000"
          }
        }
      }
    }
    node_def {
      name: "count_nonzero/nonzero_count"
      op: "Sum"
      input: "count_nonzero/Cast:y:0"
      input: "count_nonzero/Const:output:0"
      attr {
        key: "T"
        value {
          type: DT_INT64
        }
      }
      attr {
        key: "Tidx"
        value {
          type: DT_INT32
        }
      }
      attr {
        key: "_output_shapes"
        value {
          list {
            shape {
            }
          }
        }
      }
      attr {
        key: "keep_dims"
        value {
          b: false
        }
      }
    }
    ret {
      key: "count_nonzero_nonzero_count"
      value: "count_nonzero/nonzero_count:output:0"
    }
    attr {
      key: "_input_shapes"
      value {
        list {
          shape {
            dim {
              size: 1
            }
            dim {
              size: 1
            }
          }
        }
      }
    }
    arg_attr {
      value {
      }
    }
  }
  function {
    signature {
      name: "zero_fraction_cond_false_349"
      input_arg {
        name: "count_nonzero_notequal_zero_fraction_readvariableop"
        type: DT_FLOAT
      }
      output_arg {
        name: "count_nonzero_nonzero_count"
        type: DT_INT64
      }
    }
    node_def {
      name: "count_nonzero/zeros"
      op: "Const"
      attr {
        key: "_output_shapes"
        value {
          list {
            shape {
            }
          }
        }
      }
      attr {
        key: "dtype"
        value {
          type: DT_FLOAT
        }
      }
      attr {
        key: "value"
        value {
          tensor {
            dtype: DT_FLOAT
            tensor_shape {
            }
            float_val: 0.0
          }
        }
      }
    }
    node_def {
      name: "count_nonzero/NotEqual"
      op: "NotEqual"
      input: "count_nonzero_notequal_zero_fraction_readvariableop"
      input: "count_nonzero/zeros:output:0"
      attr {
        key: "T"
        value {
          type: DT_FLOAT
        }
      }
      attr {
        key: "_output_shapes"
        value {
          list {
            shape {
              dim {
                size: 1
              }
              dim {
                size: 1
              }
            }
          }
        }
      }
      attr {
        key: "incompatible_shape_error"
        value {
          b: true
        }
      }
    }
    node_def {
      name: "count_nonzero/Cast"
      op: "Cast"
      input: "count_nonzero/NotEqual:z:0"
      attr {
        key: "DstT"
        value {
          type: DT_INT64
        }
      }
      attr {
        key: "SrcT"
        value {
          type: DT_BOOL
        }
      }
      attr {
        key: "Truncate"
        value {
          b: false
        }
      }
      attr {
        key: "_output_shapes"
        value {
          list {
            shape {
              dim {
                size: 1
              }
              dim {
                size: 1
              }
            }
          }
        }
      }
    }
    node_def {
      name: "count_nonzero/Const"
      op: "Const"
      attr {
        key: "_output_shapes"
        value {
          list {
            shape {
              dim {
                size: 2
              }
            }
          }
        }
      }
      attr {
        key: "dtype"
        value {
          type: DT_INT32
        }
      }
      attr {
        key: "value"
        value {
          tensor {
            dtype: DT_INT32
            tensor_shape {
              dim {
                size: 2
              }
            }
            tensor_content: "\000\000\000\000\001\000\000\000"
          }
        }
      }
    }
    node_def {
      name: "count_nonzero/nonzero_count"
      op: "Sum"
      input: "count_nonzero/Cast:y:0"
      input: "count_nonzero/Const:output:0"
      attr {
        key: "T"
        value {
          type: DT_INT64
        }
      }
      attr {
        key: "Tidx"
        value {
          type: DT_INT32
        }
      }
      attr {
        key: "_output_shapes"
        value {
          list {
            shape {
            }
          }
        }
      }
      attr {
        key: "keep_dims"
        value {
          b: false
        }
      }
    }
    ret {
      key: "count_nonzero_nonzero_count"
      value: "count_nonzero/nonzero_count:output:0"
    }
    attr {
      key: "_input_shapes"
      value {
        list {
          shape {
            dim {
              size: 1
            }
            dim {
              size: 1
            }
          }
        }
      }
    }
    arg_attr {
      value {
      }
    }
  }
  function {
    signature {
      name: "zero_fraction_total_zero_zero_count_4_true_381"
      input_arg {
        name: "placeholder"
        type: DT_RESOURCE
      }
      input_arg {
        name: "placeholder_1"
        type: DT_INT64
      }
      output_arg {
        name: "const"
        type: DT_FLOAT
      }
    }
    node_def {
      name: "Const"
      op: "Const"
      attr {
        key: "_output_shapes"
        value {
          list {
            shape {
            }
          }
        }
      }
      attr {
        key: "dtype"
        value {
          type: DT_FLOAT
        }
      }
      attr {
        key: "value"
        value {
          tensor {
            dtype: DT_FLOAT
            tensor_shape {
            }
            float_val: 0.0
          }
        }
      }
    }
    ret {
      key: "const"
      value: "Const:output:0"
    }
    attr {
      key: "_input_shapes"
      value {
        list {
          shape {
            unknown_rank: true
          }
          shape {
          }
        }
      }
    }
    arg_attr {
      value {
      }
    }
    arg_attr {
      key: 1
      value {
      }
    }
  }
  function {
    signature {
      name: "zero_fraction_total_zero_zero_count_false_210"
      input_arg {
        name: "zero_fraction_readvariableop_linear_linear_model_dropofflat_weights"
        type: DT_RESOURCE
      }
      input_arg {
        name: "tofloat_zero_fraction_total_size_size"
        type: DT_INT64
      }
      output_arg {
        name: "mul"
        type: DT_FLOAT
      }
      is_stateful: true
    }
    node_def {
      name: "zero_fraction/ReadVariableOp"
      op: "ReadVariableOp"
      input: "zero_fraction_readvariableop_linear_linear_model_dropofflat_weights"
      attr {
        key: "_output_shapes"
        value {
          list {
            shape {
              dim {
                size: 1
              }
              dim {
                size: 1
              }
            }
          }
        }
      }
      attr {
        key: "dtype"
        value {
          type: DT_FLOAT
        }
      }
    }
    node_def {
      name: "zero_fraction/Size"
      op: "Const"
      attr {
        key: "_output_shapes"
        value {
          list {
            shape {
            }
          }
        }
      }
      attr {
        key: "dtype"
        value {
          type: DT_INT64
        }
      }
      attr {
        key: "value"
        value {
          tensor {
            dtype: DT_INT64
            tensor_shape {
            }
            int64_val: 1
          }
        }
      }
    }
    node_def {
      name: "zero_fraction/LessEqual/y"
      op: "Const"
      attr {
        key: "_output_shapes"
        value {
          list {
            shape {
            }
          }
        }
      }
      attr {
        key: "dtype"
        value {
          type: DT_INT64
        }
      }
      attr {
        key: "value"
        value {
          tensor {
            dtype: DT_INT64
            tensor_shape {
            }
            int64_val: 2147483647
          }
        }
      }
    }
    node_def {
      name: "zero_fraction/LessEqual"
      op: "LessEqual"
      input: "zero_fraction/Size:output:0"
      input: "zero_fraction/LessEqual/y:output:0"
      attr {
        key: "T"
        value {
          type: DT_INT64
        }
      }
      attr {
        key: "_output_shapes"
        value {
          list {
            shape {
            }
          }
        }
      }
    }
    node_def {
      name: "zero_fraction/cond"
      op: "StatelessIf"
      input: "zero_fraction/LessEqual:z:0"
      input: "zero_fraction/ReadVariableOp:value:0"
      attr {
        key: "Tcond"
        value {
          type: DT_BOOL
        }
      }
      attr {
        key: "Tin"
        value {
          list {
            type: DT_FLOAT
          }
        }
      }
      attr {
        key: "Tout"
        value {
          list {
            type: DT_INT64
          }
        }
      }
      attr {
        key: "_lower_using_switch_merge"
        value {
          b: true
        }
      }
      attr {
        key: "_output_shapes"
        value {
          list {
            shape {
            }
          }
        }
      }
      attr {
        key: "else_branch"
        value {
          func {
            name: "zero_fraction_cond_false_220"
          }
        }
      }
      attr {
        key: "output_shapes"
        value {
          list {
            shape {
            }
          }
        }
      }
      attr {
        key: "then_branch"
        value {
          func {
            name: "zero_fraction_cond_true_219"
          }
        }
      }
    }
    node_def {
      name: "zero_fraction/cond/Identity"
      op: "Identity"
      input: "zero_fraction/cond:output:0"
      attr {
        key: "T"
        value {
          type: DT_INT64
        }
      }
      attr {
        key: "_output_shapes"
        value {
          list {
            shape {
            }
          }
        }
      }
    }
    node_def {
      name: "zero_fraction/counts_to_fraction/sub"
      op: "Sub"
      input: "zero_fraction/Size:output:0"
      input: "zero_fraction/cond/Identity:output:0"
      attr {
        key: "T"
        value {
          type: DT_INT64
        }
      }
      attr {
        key: "_output_shapes"
        value {
          list {
            shape {
            }
          }
        }
      }
    }
    node_def {
      name: "zero_fraction/counts_to_fraction/Cast"
      op: "Cast"
      input: "zero_fraction/counts_to_fraction/sub:z:0"
      attr {
        key: "DstT"
        value {
          type: DT_FLOAT
        }
      }
      attr {
        key: "SrcT"
        value {
          type: DT_INT64
        }
      }
      attr {
        key: "Truncate"
        value {
          b: false
        }
      }
      attr {
        key: "_output_shapes"
        value {
          list {
            shape {
            }
          }
        }
      }
    }
    node_def {
      name: "zero_fraction/counts_to_fraction/Cast_1"
      op: "Cast"
      input: "zero_fraction/Size:output:0"
      attr {
        key: "DstT"
        value {
          type: DT_FLOAT
        }
      }
      attr {
        key: "SrcT"
        value {
          type: DT_INT64
        }
      }
      attr {
        key: "Truncate"
        value {
          b: false
        }
      }
      attr {
        key: "_output_shapes"
        value {
          list {
            shape {
            }
          }
        }
      }
    }
    node_def {
      name: "zero_fraction/counts_to_fraction/truediv"
      op: "RealDiv"
      input: "zero_fraction/counts_to_fraction/Cast:y:0"
      input: "zero_fraction/counts_to_fraction/Cast_1:y:0"
      attr {
        key: "T"
        value {
          type: DT_FLOAT
        }
      }
      attr {
        key: "_output_shapes"
        value {
          list {
            shape {
            }
          }
        }
      }
    }
    node_def {
      name: "zero_fraction/fraction"
      op: "Identity"
      input: "zero_fraction/counts_to_fraction/truediv:z:0"
      attr {
        key: "T"
        value {
          type: DT_FLOAT
        }
      }
      attr {
        key: "_output_shapes"
        value {
          list {
            shape {
            }
          }
        }
      }
    }
    node_def {
      name: "ToFloat"
      op: "Cast"
      input: "tofloat_zero_fraction_total_size_size"
      attr {
        key: "DstT"
        value {
          type: DT_FLOAT
        }
      }
      attr {
        key: "SrcT"
        value {
          type: DT_INT64
        }
      }
      attr {
        key: "Truncate"
        value {
          b: false
        }
      }
      attr {
        key: "_output_shapes"
        value {
          list {
            shape {
            }
          }
        }
      }
    }
    node_def {
      name: "mul_0"
      op: "Mul"
      input: "zero_fraction/fraction:output:0"
      input: "ToFloat:y:0"
      attr {
        key: "T"
        value {
          type: DT_FLOAT
        }
      }
    }
    ret {
      key: "mul"
      value: "mul_0:z:0"
    }
    attr {
      key: "_input_shapes"
      value {
        list {
          shape {
            unknown_rank: true
          }
          shape {
          }
        }
      }
    }
    arg_attr {
      value {
      }
    }
    arg_attr {
      key: 1
      value {
      }
    }
  }
}
versions {
  producer: 119
  min_consumer: 12
}
