node {
  name: "global_step/Initializer/zeros"
  op: "Const"
  attr {
    key: "_class"
    value {
      list {
        s: "loc:@global_step"
      }
    }
  }
  attr {
    key: "_output_shapes"
    value {
      list {
        shape {
        }
      }
    }
  }
  attr {
    key: "dtype"
    value {
      type: DT_INT64
    }
  }
  attr {
    key: "value"
    value {
      tensor {
        dtype: DT_INT64
        tensor_shape {
        }
        int64_val: 0
      }
    }
  }
}
node {
  name: "global_step"
  op: "VarHandleOp"
  attr {
    key: "_class"
    value {
      list {
        s: "loc:@global_step"
      }
    }
  }
  attr {
    key: "_output_shapes"
    value {
      list {
        shape {
        }
      }
    }
  }
  attr {
    key: "container"
    value {
      s: ""
    }
  }
  attr {
    key: "dtype"
    value {
      type: DT_INT64
    }
  }
  attr {
    key: "shape"
    value {
      shape {
      }
    }
  }
  attr {
    key: "shared_name"
    value {
      s: "global_step"
    }
  }
}
node {
  name: "global_step/IsInitialized/VarIsInitializedOp"
  op: "VarIsInitializedOp"
  input: "global_step"
  attr {
    key: "_output_shapes"
    value {
      list {
        shape {
        }
      }
    }
  }
}
node {
  name: "global_step/Assign"
  op: "AssignVariableOp"
  input: "global_step"
  input: "global_step/Initializer/zeros"
  attr {
    key: "dtype"
    value {
      type: DT_INT64
    }
  }
}
node {
  name: "global_step/Read/ReadVariableOp"
  op: "ReadVariableOp"
  input: "global_step"
  attr {
    key: "_output_shapes"
    value {
      list {
        shape {
        }
      }
    }
  }
  attr {
    key: "dtype"
    value {
      type: DT_INT64
    }
  }
}
node {
  name: "global_step/VarIsInitializedOp"
  op: "VarIsInitializedOp"
  input: "global_step"
  attr {
    key: "_output_shapes"
    value {
      list {
        shape {
        }
      }
    }
  }
}
node {
  name: "global_step/cond"
  op: "If"
  input: "global_step/VarIsInitializedOp"
  input: "global_step"
  input: "global_step/Initializer/zeros"
  attr {
    key: "Tcond"
    value {
      type: DT_BOOL
    }
  }
  attr {
    key: "Tin"
    value {
      list {
        type: DT_RESOURCE
        type: DT_INT64
      }
    }
  }
  attr {
    key: "Tout"
    value {
      list {
        type: DT_INT64
      }
    }
  }
  attr {
    key: "_lower_using_switch_merge"
    value {
      b: true
    }
  }
  attr {
    key: "_output_shapes"
    value {
      list {
        shape {
        }
      }
    }
  }
  attr {
    key: "else_branch"
    value {
      func {
        name: "global_step_cond_false_7"
      }
    }
  }
  attr {
    key: "output_shapes"
    value {
      list {
        shape {
        }
      }
    }
  }
  attr {
    key: "then_branch"
    value {
      func {
        name: "global_step_cond_true_6"
      }
    }
  }
}
node {
  name: "global_step/cond/Identity"
  op: "Identity"
  input: "global_step/cond"
  attr {
    key: "T"
    value {
      type: DT_INT64
    }
  }
  attr {
    key: "_output_shapes"
    value {
      list {
        shape {
        }
      }
    }
  }
}
node {
  name: "global_step/add/y"
  op: "Const"
  attr {
    key: "_output_shapes"
    value {
      list {
        shape {
        }
      }
    }
  }
  attr {
    key: "dtype"
    value {
      type: DT_INT64
    }
  }
  attr {
    key: "value"
    value {
      tensor {
        dtype: DT_INT64
        tensor_shape {
        }
        int64_val: 0
      }
    }
  }
}
node {
  name: "global_step/add"
  op: "AddV2"
  input: "global_step/cond/Identity"
  input: "global_step/add/y"
  attr {
    key: "T"
    value {
      type: DT_INT64
    }
  }
  attr {
    key: "_output_shapes"
    value {
      list {
        shape {
        }
      }
    }
  }
}
node {
  name: "Const"
  op: "Const"
  attr {
    key: "_output_shapes"
    value {
      list {
        shape {
        }
      }
    }
  }
  attr {
    key: "dtype"
    value {
      type: DT_INT32
    }
  }
  attr {
    key: "value"
    value {
      tensor {
        dtype: DT_INT32
        tensor_shape {
        }
        int_val: 1000
      }
    }
  }
}
node {
  name: "Const_1"
  op: "Const"
  attr {
    key: "_output_shapes"
    value {
      list {
        shape {
        }
      }
    }
  }
  attr {
    key: "dtype"
    value {
      type: DT_INT32
    }
  }
  attr {
    key: "value"
    value {
      tensor {
        dtype: DT_INT32
        tensor_shape {
        }
        int_val: 2000
      }
    }
  }
}
node {
  name: "Const_2"
  op: "Const"
  attr {
    key: "_output_shapes"
    value {
      list {
        shape {
        }
      }
    }
  }
  attr {
    key: "dtype"
    value {
      type: DT_INT32
    }
  }
  attr {
    key: "value"
    value {
      tensor {
        dtype: DT_INT32
        tensor_shape {
        }
        int_val: 3000
      }
    }
  }
}
node {
  name: "Const_3"
  op: "Const"
  attr {
    key: "_output_shapes"
    value {
      list {
        shape {
        }
      }
    }
  }
  attr {
    key: "dtype"
    value {
      type: DT_INT32
    }
  }
  attr {
    key: "value"
    value {
      tensor {
        dtype: DT_INT32
        tensor_shape {
        }
        int_val: 1000
      }
    }
  }
}
node {
  name: "Const_4"
  op: "Const"
  attr {
    key: "_output_shapes"
    value {
      list {
        shape {
        }
      }
    }
  }
  attr {
    key: "dtype"
    value {
      type: DT_INT32
    }
  }
  attr {
    key: "value"
    value {
      tensor {
        dtype: DT_INT32
        tensor_shape {
        }
        int_val: 2000
      }
    }
  }
}
node {
  name: "Const_5"
  op: "Const"
  attr {
    key: "_output_shapes"
    value {
      list {
        shape {
        }
      }
    }
  }
  attr {
    key: "dtype"
    value {
      type: DT_INT32
    }
  }
  attr {
    key: "value"
    value {
      tensor {
        dtype: DT_INT32
        tensor_shape {
        }
        int_val: 3000
      }
    }
  }
}
node {
  name: "linear/linear_model/sq_footage/weights/Initializer/zeros"
  op: "Const"
  attr {
    key: "_class"
    value {
      list {
        s: "loc:@linear/linear_model/sq_footage/weights"
      }
    }
  }
  attr {
    key: "_output_shapes"
    value {
      list {
        shape {
          dim {
            size: 1
          }
          dim {
            size: 1
          }
        }
      }
    }
  }
  attr {
    key: "dtype"
    value {
      type: DT_FLOAT
    }
  }
  attr {
    key: "value"
    value {
      tensor {
        dtype: DT_FLOAT
        tensor_shape {
          dim {
            size: 1
          }
          dim {
            size: 1
          }
        }
        float_val: 0.0
      }
    }
  }
}
node {
  name: "linear/linear_model/sq_footage/weights"
  op: "VarHandleOp"
  attr {
    key: "_class"
    value {
      list {
        s: "loc:@linear/linear_model/sq_footage/weights"
      }
    }
  }
  attr {
    key: "_output_shapes"
    value {
      list {
        shape {
        }
      }
    }
  }
  attr {
    key: "container"
    value {
      s: ""
    }
  }
  attr {
    key: "dtype"
    value {
      type: DT_FLOAT
    }
  }
  attr {
    key: "shape"
    value {
      shape {
        dim {
          size: 1
        }
        dim {
          size: 1
        }
      }
    }
  }
  attr {
    key: "shared_name"
    value {
      s: "linear/linear_model/sq_footage/weights"
    }
  }
}
node {
  name: "linear/linear_model/sq_footage/weights/IsInitialized/VarIsInitializedOp"
  op: "VarIsInitializedOp"
  input: "linear/linear_model/sq_footage/weights"
  attr {
    key: "_output_shapes"
    value {
      list {
        shape {
        }
      }
    }
  }
}
node {
  name: "linear/linear_model/sq_footage/weights/Assign"
  op: "AssignVariableOp"
  input: "linear/linear_model/sq_footage/weights"
  input: "linear/linear_model/sq_footage/weights/Initializer/zeros"
  attr {
    key: "dtype"
    value {
      type: DT_FLOAT
    }
  }
}
node {
  name: "linear/linear_model/sq_footage/weights/Read/ReadVariableOp"
  op: "ReadVariableOp"
  input: "linear/linear_model/sq_footage/weights"
  attr {
    key: "_output_shapes"
    value {
      list {
        shape {
          dim {
            size: 1
          }
          dim {
            size: 1
          }
        }
      }
    }
  }
  attr {
    key: "dtype"
    value {
      type: DT_FLOAT
    }
  }
}
node {
  name: "linear/linear_model/type/weights/Initializer/zeros"
  op: "Const"
  attr {
    key: "_class"
    value {
      list {
        s: "loc:@linear/linear_model/type/weights"
      }
    }
  }
  attr {
    key: "_output_shapes"
    value {
      list {
        shape {
          dim {
            size: 2
          }
          dim {
            size: 1
          }
        }
      }
    }
  }
  attr {
    key: "dtype"
    value {
      type: DT_FLOAT
    }
  }
  attr {
    key: "value"
    value {
      tensor {
        dtype: DT_FLOAT
        tensor_shape {
          dim {
            size: 2
          }
          dim {
            size: 1
          }
        }
        float_val: 0.0
      }
    }
  }
}
node {
  name: "linear/linear_model/type/weights"
  op: "VarHandleOp"
  attr {
    key: "_class"
    value {
      list {
        s: "loc:@linear/linear_model/type/weights"
      }
    }
  }
  attr {
    key: "_output_shapes"
    value {
      list {
        shape {
        }
      }
    }
  }
  attr {
    key: "container"
    value {
      s: ""
    }
  }
  attr {
    key: "dtype"
    value {
      type: DT_FLOAT
    }
  }
  attr {
    key: "shape"
    value {
      shape {
        dim {
          size: 2
        }
        dim {
          size: 1
        }
      }
    }
  }
  attr {
    key: "shared_name"
    value {
      s: "linear/linear_model/type/weights"
    }
  }
}
node {
  name: "linear/linear_model/type/weights/IsInitialized/VarIsInitializedOp"
  op: "VarIsInitializedOp"
  input: "linear/linear_model/type/weights"
  attr {
    key: "_output_shapes"
    value {
      list {
        shape {
        }
      }
    }
  }
}
node {
  name: "linear/linear_model/type/weights/Assign"
  op: "AssignVariableOp"
  input: "linear/linear_model/type/weights"
  input: "linear/linear_model/type/weights/Initializer/zeros"
  attr {
    key: "dtype"
    value {
      type: DT_FLOAT
    }
  }
}
node {
  name: "linear/linear_model/type/weights/Read/ReadVariableOp"
  op: "ReadVariableOp"
  input: "linear/linear_model/type/weights"
  attr {
    key: "_output_shapes"
    value {
      list {
        shape {
          dim {
            size: 2
          }
          dim {
            size: 1
          }
        }
      }
    }
  }
  attr {
    key: "dtype"
    value {
      type: DT_FLOAT
    }
  }
}
node {
  name: "linear/linear_model/bias_weights/Initializer/zeros"
  op: "Const"
  attr {
    key: "_class"
    value {
      list {
        s: "loc:@linear/linear_model/bias_weights"
      }
    }
  }
  attr {
    key: "_output_shapes"
    value {
      list {
        shape {
          dim {
            size: 1
          }
        }
      }
    }
  }
  attr {
    key: "dtype"
    value {
      type: DT_FLOAT
    }
  }
  attr {
    key: "value"
    value {
      tensor {
        dtype: DT_FLOAT
        tensor_shape {
          dim {
            size: 1
          }
        }
        float_val: 0.0
      }
    }
  }
}
node {
  name: "linear/linear_model/bias_weights"
  op: "VarHandleOp"
  attr {
    key: "_class"
    value {
      list {
        s: "loc:@linear/linear_model/bias_weights"
      }
    }
  }
  attr {
    key: "_output_shapes"
    value {
      list {
        shape {
        }
      }
    }
  }
  attr {
    key: "container"
    value {
      s: ""
    }
  }
  attr {
    key: "dtype"
    value {
      type: DT_FLOAT
    }
  }
  attr {
    key: "shape"
    value {
      shape {
        dim {
          size: 1
        }
      }
    }
  }
  attr {
    key: "shared_name"
    value {
      s: "linear/linear_model/bias_weights"
    }
  }
}
node {
  name: "linear/linear_model/bias_weights/IsInitialized/VarIsInitializedOp"
  op: "VarIsInitializedOp"
  input: "linear/linear_model/bias_weights"
  attr {
    key: "_output_shapes"
    value {
      list {
        shape {
        }
      }
    }
  }
}
node {
  name: "linear/linear_model/bias_weights/Assign"
  op: "AssignVariableOp"
  input: "linear/linear_model/bias_weights"
  input: "linear/linear_model/bias_weights/Initializer/zeros"
  attr {
    key: "dtype"
    value {
      type: DT_FLOAT
    }
  }
}
node {
  name: "linear/linear_model/bias_weights/Read/ReadVariableOp"
  op: "ReadVariableOp"
  input: "linear/linear_model/bias_weights"
  attr {
    key: "_output_shapes"
    value {
      list {
        shape {
          dim {
            size: 1
          }
        }
      }
    }
  }
  attr {
    key: "dtype"
    value {
      type: DT_FLOAT
    }
  }
}
node {
  name: "linear/linear_model/linear/linear_model/linear/linear_model/sq_footage/packed"
  op: "Pack"
  input: "Const"
  input: "Const_1"
  input: "Const_2"
  input: "Const_3"
  input: "Const_4"
  input: "Const_5"
  attr {
    key: "N"
    value {
      i: 6
    }
  }
  attr {
    key: "T"
    value {
      type: DT_INT32
    }
  }
  attr {
    key: "_output_shapes"
    value {
      list {
        shape {
          dim {
            size: 6
          }
        }
      }
    }
  }
  attr {
    key: "axis"
    value {
      i: 0
    }
  }
}
node {
  name: "linear/linear_model/linear/linear_model/linear/linear_model/sq_footage/ExpandDims/dim"
  op: "Const"
  attr {
    key: "_output_shapes"
    value {
      list {
        shape {
        }
      }
    }
  }
  attr {
    key: "dtype"
    value {
      type: DT_INT32
    }
  }
  attr {
    key: "value"
    value {
      tensor {
        dtype: DT_INT32
        tensor_shape {
        }
        int_val: -1
      }
    }
  }
}
node {
  name: "linear/linear_model/linear/linear_model/linear/linear_model/sq_footage/ExpandDims"
  op: "ExpandDims"
  input: "linear/linear_model/linear/linear_model/linear/linear_model/sq_footage/packed"
  input: "linear/linear_model/linear/linear_model/linear/linear_model/sq_footage/ExpandDims/dim"
  attr {
    key: "T"
    value {
      type: DT_INT32
    }
  }
  attr {
    key: "Tdim"
    value {
      type: DT_INT32
    }
  }
  attr {
    key: "_output_shapes"
    value {
      list {
        shape {
          dim {
            size: 6
          }
          dim {
            size: 1
          }
        }
      }
    }
  }
}
node {
  name: "linear/linear_model/linear/linear_model/linear/linear_model/sq_footage/Cast"
  op: "Cast"
  input: "linear/linear_model/linear/linear_model/linear/linear_model/sq_footage/ExpandDims"
  attr {
    key: "DstT"
    value {
      type: DT_FLOAT
    }
  }
  attr {
    key: "SrcT"
    value {
      type: DT_INT32
    }
  }
  attr {
    key: "Truncate"
    value {
      b: false
    }
  }
  attr {
    key: "_output_shapes"
    value {
      list {
        shape {
          dim {
            size: 6
          }
          dim {
            size: 1
          }
        }
      }
    }
  }
}
node {
  name: "linear/linear_model/linear/linear_model/linear/linear_model/sq_footage/Shape"
  op: "Const"
  attr {
    key: "_output_shapes"
    value {
      list {
        shape {
          dim {
            size: 2
          }
        }
      }
    }
  }
  attr {
    key: "dtype"
    value {
      type: DT_INT32
    }
  }
  attr {
    key: "value"
    value {
      tensor {
        dtype: DT_INT32
        tensor_shape {
          dim {
            size: 2
          }
        }
        tensor_content: "\006\000\000\000\001\000\000\000"
      }
    }
  }
}
node {
  name: "linear/linear_model/linear/linear_model/linear/linear_model/sq_footage/strided_slice/stack"
  op: "Const"
  attr {
    key: "_output_shapes"
    value {
      list {
        shape {
          dim {
            size: 1
          }
        }
      }
    }
  }
  attr {
    key: "dtype"
    value {
      type: DT_INT32
    }
  }
  attr {
    key: "value"
    value {
      tensor {
        dtype: DT_INT32
        tensor_shape {
          dim {
            size: 1
          }
        }
        int_val: 0
      }
    }
  }
}
node {
  name: "linear/linear_model/linear/linear_model/linear/linear_model/sq_footage/strided_slice/stack_1"
  op: "Const"
  attr {
    key: "_output_shapes"
    value {
      list {
        shape {
          dim {
            size: 1
          }
        }
      }
    }
  }
  attr {
    key: "dtype"
    value {
      type: DT_INT32
    }
  }
  attr {
    key: "value"
    value {
      tensor {
        dtype: DT_INT32
        tensor_shape {
          dim {
            size: 1
          }
        }
        int_val: 1
      }
    }
  }
}
node {
  name: "linear/linear_model/linear/linear_model/linear/linear_model/sq_footage/strided_slice/stack_2"
  op: "Const"
  attr {
    key: "_output_shapes"
    value {
      list {
        shape {
          dim {
            size: 1
          }
        }
      }
    }
  }
  attr {
    key: "dtype"
    value {
      type: DT_INT32
    }
  }
  attr {
    key: "value"
    value {
      tensor {
        dtype: DT_INT32
        tensor_shape {
          dim {
            size: 1
          }
        }
        int_val: 1
      }
    }
  }
}
node {
  name: "linear/linear_model/linear/linear_model/linear/linear_model/sq_footage/strided_slice"
  op: "StridedSlice"
  input: "linear/linear_model/linear/linear_model/linear/linear_model/sq_footage/Shape"
  input: "linear/linear_model/linear/linear_model/linear/linear_model/sq_footage/strided_slice/stack"
  input: "linear/linear_model/linear/linear_model/linear/linear_model/sq_footage/strided_slice/stack_1"
  input: "linear/linear_model/linear/linear_model/linear/linear_model/sq_footage/strided_slice/stack_2"
  attr {
    key: "Index"
    value {
      type: DT_INT32
    }
  }
  attr {
    key: "T"
    value {
      type: DT_INT32
    }
  }
  attr {
    key: "_output_shapes"
    value {
      list {
        shape {
        }
      }
    }
  }
  attr {
    key: "begin_mask"
    value {
      i: 0
    }
  }
  attr {
    key: "ellipsis_mask"
    value {
      i: 0
    }
  }
  attr {
    key: "end_mask"
    value {
      i: 0
    }
  }
  attr {
    key: "new_axis_mask"
    value {
      i: 0
    }
  }
  attr {
    key: "shrink_axis_mask"
    value {
      i: 1
    }
  }
}
node {
  name: "linear/linear_model/linear/linear_model/linear/linear_model/sq_footage/Reshape/shape/1"
  op: "Const"
  attr {
    key: "_output_shapes"
    value {
      list {
        shape {
        }
      }
    }
  }
  attr {
    key: "dtype"
    value {
      type: DT_INT32
    }
  }
  attr {
    key: "value"
    value {
      tensor {
        dtype: DT_INT32
        tensor_shape {
        }
        int_val: 1
      }
    }
  }
}
node {
  name: "linear/linear_model/linear/linear_model/linear/linear_model/sq_footage/Reshape/shape"
  op: "Pack"
  input: "linear/linear_model/linear/linear_model/linear/linear_model/sq_footage/strided_slice"
  input: "linear/linear_model/linear/linear_model/linear/linear_model/sq_footage/Reshape/shape/1"
  attr {
    key: "N"
    value {
      i: 2
    }
  }
  attr {
    key: "T"
    value {
      type: DT_INT32
    }
  }
  attr {
    key: "_output_shapes"
    value {
      list {
        shape {
          dim {
            size: 2
          }
        }
      }
    }
  }
  attr {
    key: "axis"
    value {
      i: 0
    }
  }
}
node {
  name: "linear/linear_model/linear/linear_model/linear/linear_model/sq_footage/Reshape"
  op: "Reshape"
  input: "linear/linear_model/linear/linear_model/linear/linear_model/sq_footage/Cast"
  input: "linear/linear_model/linear/linear_model/linear/linear_model/sq_footage/Reshape/shape"
  attr {
    key: "T"
    value {
      type: DT_FLOAT
    }
  }
  attr {
    key: "Tshape"
    value {
      type: DT_INT32
    }
  }
  attr {
    key: "_output_shapes"
    value {
      list {
        shape {
          dim {
            size: 6
          }
          dim {
            size: 1
          }
        }
      }
    }
  }
}
node {
  name: "linear/linear_model/linear/linear_model/linear/linear_model/sq_footage/weighted_sum/ReadVariableOp"
  op: "ReadVariableOp"
  input: "linear/linear_model/sq_footage/weights"
  attr {
    key: "_output_shapes"
    value {
      list {
        shape {
          dim {
            size: 1
          }
          dim {
            size: 1
          }
        }
      }
    }
  }
  attr {
    key: "dtype"
    value {
      type: DT_FLOAT
    }
  }
}
node {
  name: "linear/linear_model/linear/linear_model/linear/linear_model/sq_footage/weighted_sum"
  op: "MatMul"
  input: "linear/linear_model/linear/linear_model/linear/linear_model/sq_footage/Reshape"
  input: "linear/linear_model/linear/linear_model/linear/linear_model/sq_footage/weighted_sum/ReadVariableOp"
  attr {
    key: "T"
    value {
      type: DT_FLOAT
    }
  }
  attr {
    key: "_output_shapes"
    value {
      list {
        shape {
          dim {
            size: 6
          }
          dim {
            size: 1
          }
        }
      }
    }
  }
  attr {
    key: "transpose_a"
    value {
      b: false
    }
  }
  attr {
    key: "transpose_b"
    value {
      b: false
    }
  }
}
node {
  name: "linear/linear_model/linear/linear_model/linear/linear_model/type/Const"
  op: "Const"
  attr {
    key: "_output_shapes"
    value {
      list {
        shape {
          dim {
            size: 6
          }
        }
      }
    }
  }
  attr {
    key: "dtype"
    value {
      type: DT_STRING
    }
  }
  attr {
    key: "value"
    value {
      tensor {
        dtype: DT_STRING
        tensor_shape {
          dim {
            size: 6
          }
        }
        string_val: "house"
        string_val: "house"
        string_val: "house"
        string_val: "apt"
        string_val: "apt"
        string_val: "apt"
      }
    }
  }
}
node {
  name: "linear/linear_model/linear/linear_model/linear/linear_model/type/ExpandDims/dim"
  op: "Const"
  attr {
    key: "_output_shapes"
    value {
      list {
        shape {
        }
      }
    }
  }
  attr {
    key: "dtype"
    value {
      type: DT_INT32
    }
  }
  attr {
    key: "value"
    value {
      tensor {
        dtype: DT_INT32
        tensor_shape {
        }
        int_val: -1
      }
    }
  }
}
node {
  name: "linear/linear_model/linear/linear_model/linear/linear_model/type/ExpandDims"
  op: "ExpandDims"
  input: "linear/linear_model/linear/linear_model/linear/linear_model/type/Const"
  input: "linear/linear_model/linear/linear_model/linear/linear_model/type/ExpandDims/dim"
  attr {
    key: "T"
    value {
      type: DT_STRING
    }
  }
  attr {
    key: "Tdim"
    value {
      type: DT_INT32
    }
  }
  attr {
    key: "_output_shapes"
    value {
      list {
        shape {
          dim {
            size: 6
          }
          dim {
            size: 1
          }
        }
      }
    }
  }
}
node {
  name: "linear/linear_model/linear/linear_model/linear/linear_model/type/to_sparse_input/ignore_value/x"
  op: "Const"
  attr {
    key: "_output_shapes"
    value {
      list {
        shape {
        }
      }
    }
  }
  attr {
    key: "dtype"
    value {
      type: DT_STRING
    }
  }
  attr {
    key: "value"
    value {
      tensor {
        dtype: DT_STRING
        tensor_shape {
        }
        string_val: ""
      }
    }
  }
}
node {
  name: "linear/linear_model/linear/linear_model/linear/linear_model/type/to_sparse_input/NotEqual"
  op: "NotEqual"
  input: "linear/linear_model/linear/linear_model/linear/linear_model/type/ExpandDims"
  input: "linear/linear_model/linear/linear_model/linear/linear_model/type/to_sparse_input/ignore_value/x"
  attr {
    key: "T"
    value {
      type: DT_STRING
    }
  }
  attr {
    key: "_output_shapes"
    value {
      list {
        shape {
          dim {
            size: 6
          }
          dim {
            size: 1
          }
        }
      }
    }
  }
  attr {
    key: "incompatible_shape_error"
    value {
      b: true
    }
  }
}
node {
  name: "linear/linear_model/linear/linear_model/linear/linear_model/type/to_sparse_input/indices"
  op: "Where"
  input: "linear/linear_model/linear/linear_model/linear/linear_model/type/to_sparse_input/NotEqual"
  attr {
    key: "T"
    value {
      type: DT_BOOL
    }
  }
  attr {
    key: "_output_shapes"
    value {
      list {
        shape {
          dim {
            size: -1
          }
          dim {
            size: 2
          }
        }
      }
    }
  }
}
node {
  name: "linear/linear_model/linear/linear_model/linear/linear_model/type/to_sparse_input/values"
  op: "GatherNd"
  input: "linear/linear_model/linear/linear_model/linear/linear_model/type/ExpandDims"
  input: "linear/linear_model/linear/linear_model/linear/linear_model/type/to_sparse_input/indices"
  attr {
    key: "Tindices"
    value {
      type: DT_INT64
    }
  }
  attr {
    key: "Tparams"
    value {
      type: DT_STRING
    }
  }
  attr {
    key: "_output_shapes"
    value {
      list {
        shape {
          dim {
            size: -1
          }
        }
      }
    }
  }
}
node {
  name: "linear/linear_model/linear/linear_model/linear/linear_model/type/to_sparse_input/dense_shape"
  op: "Const"
  attr {
    key: "_output_shapes"
    value {
      list {
        shape {
          dim {
            size: 2
          }
        }
      }
    }
  }
  attr {
    key: "dtype"
    value {
      type: DT_INT64
    }
  }
  attr {
    key: "value"
    value {
      tensor {
        dtype: DT_INT64
        tensor_shape {
          dim {
            size: 2
          }
        }
        tensor_content: "\006\000\000\000\000\000\000\000\001\000\000\000\000\000\000\000"
      }
    }
  }
}
node {
  name: "linear/linear_model/linear/linear_model/linear/linear_model/type/type_lookup/Const"
  op: "Const"
  attr {
    key: "_output_shapes"
    value {
      list {
        shape {
          dim {
            size: 2
          }
        }
      }
    }
  }
  attr {
    key: "dtype"
    value {
      type: DT_STRING
    }
  }
  attr {
    key: "value"
    value {
      tensor {
        dtype: DT_STRING
        tensor_shape {
          dim {
            size: 2
          }
        }
        string_val: "house"
        string_val: "apt"
      }
    }
  }
}
node {
  name: "linear/linear_model/linear/linear_model/linear/linear_model/type/type_lookup/Size"
  op: "Const"
  attr {
    key: "_output_shapes"
    value {
      list {
        shape {
        }
      }
    }
  }
  attr {
    key: "dtype"
    value {
      type: DT_INT32
    }
  }
  attr {
    key: "value"
    value {
      tensor {
        dtype: DT_INT32
        tensor_shape {
        }
        int_val: 2
      }
    }
  }
}
node {
  name: "linear/linear_model/linear/linear_model/linear/linear_model/type/type_lookup/range/start"
  op: "Const"
  attr {
    key: "_output_shapes"
    value {
      list {
        shape {
        }
      }
    }
  }
  attr {
    key: "dtype"
    value {
      type: DT_INT32
    }
  }
  attr {
    key: "value"
    value {
      tensor {
        dtype: DT_INT32
        tensor_shape {
        }
        int_val: 0
      }
    }
  }
}
node {
  name: "linear/linear_model/linear/linear_model/linear/linear_model/type/type_lookup/range/delta"
  op: "Const"
  attr {
    key: "_output_shapes"
    value {
      list {
        shape {
        }
      }
    }
  }
  attr {
    key: "dtype"
    value {
      type: DT_INT32
    }
  }
  attr {
    key: "value"
    value {
      tensor {
        dtype: DT_INT32
        tensor_shape {
        }
        int_val: 1
      }
    }
  }
}
node {
  name: "linear/linear_model/linear/linear_model/linear/linear_model/type/type_lookup/range"
  op: "Range"
  input: "linear/linear_model/linear/linear_model/linear/linear_model/type/type_lookup/range/start"
  input: "linear/linear_model/linear/linear_model/linear/linear_model/type/type_lookup/Size"
  input: "linear/linear_model/linear/linear_model/linear/linear_model/type/type_lookup/range/delta"
  attr {
    key: "Tidx"
    value {
      type: DT_INT32
    }
  }
  attr {
    key: "_output_shapes"
    value {
      list {
        shape {
          dim {
            size: 2
          }
        }
      }
    }
  }
}
node {
  name: "linear/linear_model/linear/linear_model/linear/linear_model/type/type_lookup/Cast"
  op: "Cast"
  input: "linear/linear_model/linear/linear_model/linear/linear_model/type/type_lookup/range"
  attr {
    key: "DstT"
    value {
      type: DT_INT64
    }
  }
  attr {
    key: "SrcT"
    value {
      type: DT_INT32
    }
  }
  attr {
    key: "Truncate"
    value {
      b: false
    }
  }
  attr {
    key: "_output_shapes"
    value {
      list {
        shape {
          dim {
            size: 2
          }
        }
      }
    }
  }
}
node {
  name: "linear/linear_model/linear/linear_model/linear/linear_model/type/type_lookup/hash_table/Const"
  op: "Const"
  attr {
    key: "_output_shapes"
    value {
      list {
        shape {
        }
      }
    }
  }
  attr {
    key: "dtype"
    value {
      type: DT_INT64
    }
  }
  attr {
    key: "value"
    value {
      tensor {
        dtype: DT_INT64
        tensor_shape {
        }
        int64_val: -1
      }
    }
  }
}
node {
  name: "linear/linear_model/linear/linear_model/linear/linear_model/type/type_lookup/hash_table/hash_table"
  op: "HashTableV2"
  attr {
    key: "_output_shapes"
    value {
      list {
        shape {
        }
      }
    }
  }
  attr {
    key: "container"
    value {
      s: ""
    }
  }
  attr {
    key: "key_dtype"
    value {
      type: DT_STRING
    }
  }
  attr {
    key: "shared_name"
    value {
      s: "hash_table_0c5c60f3-254b-4ff7-bd96-3c40680fb5cb"
    }
  }
  attr {
    key: "use_node_name_sharing"
    value {
      b: false
    }
  }
  attr {
    key: "value_dtype"
    value {
      type: DT_INT64
    }
  }
}
node {
  name: "linear/linear_model/linear/linear_model/linear/linear_model/type/type_lookup/hash_table/table_init/LookupTableImportV2"
  op: "LookupTableImportV2"
  input: "linear/linear_model/linear/linear_model/linear/linear_model/type/type_lookup/hash_table/hash_table"
  input: "linear/linear_model/linear/linear_model/linear/linear_model/type/type_lookup/Const"
  input: "linear/linear_model/linear/linear_model/linear/linear_model/type/type_lookup/Cast"
  attr {
    key: "Tin"
    value {
      type: DT_STRING
    }
  }
  attr {
    key: "Tout"
    value {
      type: DT_INT64
    }
  }
}
node {
  name: "linear/linear_model/linear/linear_model/linear/linear_model/type/hash_table_Lookup/LookupTableFindV2"
  op: "LookupTableFindV2"
  input: "linear/linear_model/linear/linear_model/linear/linear_model/type/type_lookup/hash_table/hash_table"
  input: "linear/linear_model/linear/linear_model/linear/linear_model/type/to_sparse_input/values"
  input: "linear/linear_model/linear/linear_model/linear/linear_model/type/type_lookup/hash_table/Const"
  attr {
    key: "Tin"
    value {
      type: DT_STRING
    }
  }
  attr {
    key: "Tout"
    value {
      type: DT_INT64
    }
  }
  attr {
    key: "_output_shapes"
    value {
      list {
        shape {
          dim {
            size: -1
          }
        }
      }
    }
  }
}
node {
  name: "linear/linear_model/linear/linear_model/linear/linear_model/type/Shape/Cast"
  op: "Cast"
  input: "linear/linear_model/linear/linear_model/linear/linear_model/type/to_sparse_input/dense_shape"
  attr {
    key: "DstT"
    value {
      type: DT_INT32
    }
  }
  attr {
    key: "SrcT"
    value {
      type: DT_INT64
    }
  }
  attr {
    key: "Truncate"
    value {
      b: false
    }
  }
  attr {
    key: "_output_shapes"
    value {
      list {
        shape {
          dim {
            size: 2
          }
        }
      }
    }
  }
}
node {
  name: "linear/linear_model/linear/linear_model/linear/linear_model/type/strided_slice/stack"
  op: "Const"
  attr {
    key: "_output_shapes"
    value {
      list {
        shape {
          dim {
            size: 1
          }
        }
      }
    }
  }
  attr {
    key: "dtype"
    value {
      type: DT_INT32
    }
  }
  attr {
    key: "value"
    value {
      tensor {
        dtype: DT_INT32
        tensor_shape {
          dim {
            size: 1
          }
        }
        int_val: 0
      }
    }
  }
}
node {
  name: "linear/linear_model/linear/linear_model/linear/linear_model/type/strided_slice/stack_1"
  op: "Const"
  attr {
    key: "_output_shapes"
    value {
      list {
        shape {
          dim {
            size: 1
          }
        }
      }
    }
  }
  attr {
    key: "dtype"
    value {
      type: DT_INT32
    }
  }
  attr {
    key: "value"
    value {
      tensor {
        dtype: DT_INT32
        tensor_shape {
          dim {
            size: 1
          }
        }
        int_val: 1
      }
    }
  }
}
node {
  name: "linear/linear_model/linear/linear_model/linear/linear_model/type/strided_slice/stack_2"
  op: "Const"
  attr {
    key: "_output_shapes"
    value {
      list {
        shape {
          dim {
            size: 1
          }
        }
      }
    }
  }
  attr {
    key: "dtype"
    value {
      type: DT_INT32
    }
  }
  attr {
    key: "value"
    value {
      tensor {
        dtype: DT_INT32
        tensor_shape {
          dim {
            size: 1
          }
        }
        int_val: 1
      }
    }
  }
}
node {
  name: "linear/linear_model/linear/linear_model/linear/linear_model/type/strided_slice"
  op: "StridedSlice"
  input: "linear/linear_model/linear/linear_model/linear/linear_model/type/Shape/Cast"
  input: "linear/linear_model/linear/linear_model/linear/linear_model/type/strided_slice/stack"
  input: "linear/linear_model/linear/linear_model/linear/linear_model/type/strided_slice/stack_1"
  input: "linear/linear_model/linear/linear_model/linear/linear_model/type/strided_slice/stack_2"
  attr {
    key: "Index"
    value {
      type: DT_INT32
    }
  }
  attr {
    key: "T"
    value {
      type: DT_INT32
    }
  }
  attr {
    key: "_output_shapes"
    value {
      list {
        shape {
        }
      }
    }
  }
  attr {
    key: "begin_mask"
    value {
      i: 0
    }
  }
  attr {
    key: "ellipsis_mask"
    value {
      i: 0
    }
  }
  attr {
    key: "end_mask"
    value {
      i: 0
    }
  }
  attr {
    key: "new_axis_mask"
    value {
      i: 0
    }
  }
  attr {
    key: "shrink_axis_mask"
    value {
      i: 1
    }
  }
}
node {
  name: "linear/linear_model/linear/linear_model/linear/linear_model/type/Cast/x/1"
  op: "Const"
  attr {
    key: "_output_shapes"
    value {
      list {
        shape {
        }
      }
    }
  }
  attr {
    key: "dtype"
    value {
      type: DT_INT32
    }
  }
  attr {
    key: "value"
    value {
      tensor {
        dtype: DT_INT32
        tensor_shape {
        }
        int_val: -1
      }
    }
  }
}
node {
  name: "linear/linear_model/linear/linear_model/linear/linear_model/type/Cast/x"
  op: "Pack"
  input: "linear/linear_model/linear/linear_model/linear/linear_model/type/strided_slice"
  input: "linear/linear_model/linear/linear_model/linear/linear_model/type/Cast/x/1"
  attr {
    key: "N"
    value {
      i: 2
    }
  }
  attr {
    key: "T"
    value {
      type: DT_INT32
    }
  }
  attr {
    key: "_output_shapes"
    value {
      list {
        shape {
          dim {
            size: 2
          }
        }
      }
    }
  }
  attr {
    key: "axis"
    value {
      i: 0
    }
  }
}
node {
  name: "linear/linear_model/linear/linear_model/linear/linear_model/type/Cast"
  op: "Cast"
  input: "linear/linear_model/linear/linear_model/linear/linear_model/type/Cast/x"
  attr {
    key: "DstT"
    value {
      type: DT_INT64
    }
  }
  attr {
    key: "SrcT"
    value {
      type: DT_INT32
    }
  }
  attr {
    key: "Truncate"
    value {
      b: false
    }
  }
  attr {
    key: "_output_shapes"
    value {
      list {
        shape {
          dim {
            size: 2
          }
        }
      }
    }
  }
}
node {
  name: "linear/linear_model/linear/linear_model/linear/linear_model/type/SparseReshape"
  op: "SparseReshape"
  input: "linear/linear_model/linear/linear_model/linear/linear_model/type/to_sparse_input/indices"
  input: "linear/linear_model/linear/linear_model/linear/linear_model/type/to_sparse_input/dense_shape"
  input: "linear/linear_model/linear/linear_model/linear/linear_model/type/Cast"
  attr {
    key: "_output_shapes"
    value {
      list {
        shape {
          dim {
            size: -1
          }
          dim {
            size: 2
          }
        }
        shape {
          dim {
            size: 2
          }
        }
      }
    }
  }
}
node {
  name: "linear/linear_model/linear/linear_model/linear/linear_model/type/SparseReshape/Identity"
  op: "Identity"
  input: "linear/linear_model/linear/linear_model/linear/linear_model/type/hash_table_Lookup/LookupTableFindV2"
  attr {
    key: "T"
    value {
      type: DT_INT64
    }
  }
  attr {
    key: "_output_shapes"
    value {
      list {
        shape {
          dim {
            size: -1
          }
        }
      }
    }
  }
}
node {
  name: "linear/linear_model/linear/linear_model/linear/linear_model/type/weighted_sum/Slice/begin"
  op: "Const"
  attr {
    key: "_output_shapes"
    value {
      list {
        shape {
          dim {
            size: 1
          }
        }
      }
    }
  }
  attr {
    key: "dtype"
    value {
      type: DT_INT32
    }
  }
  attr {
    key: "value"
    value {
      tensor {
        dtype: DT_INT32
        tensor_shape {
          dim {
            size: 1
          }
        }
        int_val: 0
      }
    }
  }
}
node {
  name: "linear/linear_model/linear/linear_model/linear/linear_model/type/weighted_sum/Slice/size"
  op: "Const"
  attr {
    key: "_output_shapes"
    value {
      list {
        shape {
          dim {
            size: 1
          }
        }
      }
    }
  }
  attr {
    key: "dtype"
    value {
      type: DT_INT32
    }
  }
  attr {
    key: "value"
    value {
      tensor {
        dtype: DT_INT32
        tensor_shape {
          dim {
            size: 1
          }
        }
        int_val: 1
      }
    }
  }
}
node {
  name: "linear/linear_model/linear/linear_model/linear/linear_model/type/weighted_sum/Slice"
  op: "Slice"
  input: "linear/linear_model/linear/linear_model/linear/linear_model/type/SparseReshape:1"
  input: "linear/linear_model/linear/linear_model/linear/linear_model/type/weighted_sum/Slice/begin"
  input: "linear/linear_model/linear/linear_model/linear/linear_model/type/weighted_sum/Slice/size"
  attr {
    key: "Index"
    value {
      type: DT_INT32
    }
  }
  attr {
    key: "T"
    value {
      type: DT_INT64
    }
  }
  attr {
    key: "_output_shapes"
    value {
      list {
        shape {
          dim {
            size: 1
          }
        }
      }
    }
  }
}
node {
  name: "linear/linear_model/linear/linear_model/linear/linear_model/type/weighted_sum/Const"
  op: "Const"
  attr {
    key: "_output_shapes"
    value {
      list {
        shape {
          dim {
            size: 1
          }
        }
      }
    }
  }
  attr {
    key: "dtype"
    value {
      type: DT_INT32
    }
  }
  attr {
    key: "value"
    value {
      tensor {
        dtype: DT_INT32
        tensor_shape {
          dim {
            size: 1
          }
        }
        int_val: 0
      }
    }
  }
}
node {
  name: "linear/linear_model/linear/linear_model/linear/linear_model/type/weighted_sum/Prod"
  op: "Prod"
  input: "linear/linear_model/linear/linear_model/linear/linear_model/type/weighted_sum/Slice"
  input: "linear/linear_model/linear/linear_model/linear/linear_model/type/weighted_sum/Const"
  attr {
    key: "T"
    value {
      type: DT_INT64
    }
  }
  attr {
    key: "Tidx"
    value {
      type: DT_INT32
    }
  }
  attr {
    key: "_output_shapes"
    value {
      list {
        shape {
        }
      }
    }
  }
  attr {
    key: "keep_dims"
    value {
      b: false
    }
  }
}
node {
  name: "linear/linear_model/linear/linear_model/linear/linear_model/type/weighted_sum/GatherV2/indices"
  op: "Const"
  attr {
    key: "_output_shapes"
    value {
      list {
        shape {
        }
      }
    }
  }
  attr {
    key: "dtype"
    value {
      type: DT_INT32
    }
  }
  attr {
    key: "value"
    value {
      tensor {
        dtype: DT_INT32
        tensor_shape {
        }
        int_val: 1
      }
    }
  }
}
node {
  name: "linear/linear_model/linear/linear_model/linear/linear_model/type/weighted_sum/GatherV2/axis"
  op: "Const"
  attr {
    key: "_output_shapes"
    value {
      list {
        shape {
        }
      }
    }
  }
  attr {
    key: "dtype"
    value {
      type: DT_INT32
    }
  }
  attr {
    key: "value"
    value {
      tensor {
        dtype: DT_INT32
        tensor_shape {
        }
        int_val: 0
      }
    }
  }
}
node {
  name: "linear/linear_model/linear/linear_model/linear/linear_model/type/weighted_sum/GatherV2"
  op: "GatherV2"
  input: "linear/linear_model/linear/linear_model/linear/linear_model/type/SparseReshape:1"
  input: "linear/linear_model/linear/linear_model/linear/linear_model/type/weighted_sum/GatherV2/indices"
  input: "linear/linear_model/linear/linear_model/linear/linear_model/type/weighted_sum/GatherV2/axis"
  attr {
    key: "Taxis"
    value {
      type: DT_INT32
    }
  }
  attr {
    key: "Tindices"
    value {
      type: DT_INT32
    }
  }
  attr {
    key: "Tparams"
    value {
      type: DT_INT64
    }
  }
  attr {
    key: "_output_shapes"
    value {
      list {
        shape {
        }
      }
    }
  }
  attr {
    key: "batch_dims"
    value {
      i: 0
    }
  }
}
node {
  name: "linear/linear_model/linear/linear_model/linear/linear_model/type/weighted_sum/Cast/x"
  op: "Pack"
  input: "linear/linear_model/linear/linear_model/linear/linear_model/type/weighted_sum/Prod"
  input: "linear/linear_model/linear/linear_model/linear/linear_model/type/weighted_sum/GatherV2"
  attr {
    key: "N"
    value {
      i: 2
    }
  }
  attr {
    key: "T"
    value {
      type: DT_INT64
    }
  }
  attr {
    key: "_output_shapes"
    value {
      list {
        shape {
          dim {
            size: 2
          }
        }
      }
    }
  }
  attr {
    key: "axis"
    value {
      i: 0
    }
  }
}
node {
  name: "linear/linear_model/linear/linear_model/linear/linear_model/type/weighted_sum/SparseReshape"
  op: "SparseReshape"
  input: "linear/linear_model/linear/linear_model/linear/linear_model/type/SparseReshape"
  input: "linear/linear_model/linear/linear_model/linear/linear_model/type/SparseReshape:1"
  input: "linear/linear_model/linear/linear_model/linear/linear_model/type/weighted_sum/Cast/x"
  attr {
    key: "_output_shapes"
    value {
      list {
        shape {
          dim {
            size: -1
          }
          dim {
            size: 2
          }
        }
        shape {
          dim {
            size: 2
          }
        }
      }
    }
  }
}
node {
  name: "linear/linear_model/linear/linear_model/linear/linear_model/type/weighted_sum/SparseReshape/Identity"
  op: "Identity"
  input: "linear/linear_model/linear/linear_model/linear/linear_model/type/SparseReshape/Identity"
  attr {
    key: "T"
    value {
      type: DT_INT64
    }
  }
  attr {
    key: "_output_shapes"
    value {
      list {
        shape {
          dim {
            size: -1
          }
        }
      }
    }
  }
}
node {
  name: "linear/linear_model/linear/linear_model/linear/linear_model/type/weighted_sum/GreaterEqual/y"
  op: "Const"
  attr {
    key: "_output_shapes"
    value {
      list {
        shape {
        }
      }
    }
  }
  attr {
    key: "dtype"
    value {
      type: DT_INT64
    }
  }
  attr {
    key: "value"
    value {
      tensor {
        dtype: DT_INT64
        tensor_shape {
        }
        int64_val: 0
      }
    }
  }
}
node {
  name: "linear/linear_model/linear/linear_model/linear/linear_model/type/weighted_sum/GreaterEqual"
  op: "GreaterEqual"
  input: "linear/linear_model/linear/linear_model/linear/linear_model/type/weighted_sum/SparseReshape/Identity"
  input: "linear/linear_model/linear/linear_model/linear/linear_model/type/weighted_sum/GreaterEqual/y"
  attr {
    key: "T"
    value {
      type: DT_INT64
    }
  }
  attr {
    key: "_output_shapes"
    value {
      list {
        shape {
          dim {
            size: -1
          }
        }
      }
    }
  }
}
node {
  name: "linear/linear_model/linear/linear_model/linear/linear_model/type/weighted_sum/Where"
  op: "Where"
  input: "linear/linear_model/linear/linear_model/linear/linear_model/type/weighted_sum/GreaterEqual"
  attr {
    key: "T"
    value {
      type: DT_BOOL
    }
  }
  attr {
    key: "_output_shapes"
    value {
      list {
        shape {
          dim {
            size: -1
          }
          dim {
            size: 1
          }
        }
      }
    }
  }
}
node {
  name: "linear/linear_model/linear/linear_model/linear/linear_model/type/weighted_sum/Reshape/shape"
  op: "Const"
  attr {
    key: "_output_shapes"
    value {
      list {
        shape {
          dim {
            size: 1
          }
        }
      }
    }
  }
  attr {
    key: "dtype"
    value {
      type: DT_INT32
    }
  }
  attr {
    key: "value"
    value {
      tensor {
        dtype: DT_INT32
        tensor_shape {
          dim {
            size: 1
          }
        }
        int_val: -1
      }
    }
  }
}
node {
  name: "linear/linear_model/linear/linear_model/linear/linear_model/type/weighted_sum/Reshape"
  op: "Reshape"
  input: "linear/linear_model/linear/linear_model/linear/linear_model/type/weighted_sum/Where"
  input: "linear/linear_model/linear/linear_model/linear/linear_model/type/weighted_sum/Reshape/shape"
  attr {
    key: "T"
    value {
      type: DT_INT64
    }
  }
  attr {
    key: "Tshape"
    value {
      type: DT_INT32
    }
  }
  attr {
    key: "_output_shapes"
    value {
      list {
        shape {
          dim {
            size: -1
          }
        }
      }
    }
  }
}
node {
  name: "linear/linear_model/linear/linear_model/linear/linear_model/type/weighted_sum/GatherV2_1/axis"
  op: "Const"
  attr {
    key: "_output_shapes"
    value {
      list {
        shape {
        }
      }
    }
  }
  attr {
    key: "dtype"
    value {
      type: DT_INT32
    }
  }
  attr {
    key: "value"
    value {
      tensor {
        dtype: DT_INT32
        tensor_shape {
        }
        int_val: 0
      }
    }
  }
}
node {
  name: "linear/linear_model/linear/linear_model/linear/linear_model/type/weighted_sum/GatherV2_1"
  op: "GatherV2"
  input: "linear/linear_model/linear/linear_model/linear/linear_model/type/weighted_sum/SparseReshape"
  input: "linear/linear_model/linear/linear_model/linear/linear_model/type/weighted_sum/Reshape"
  input: "linear/linear_model/linear/linear_model/linear/linear_model/type/weighted_sum/GatherV2_1/axis"
  attr {
    key: "Taxis"
    value {
      type: DT_INT32
    }
  }
  attr {
    key: "Tindices"
    value {
      type: DT_INT64
    }
  }
  attr {
    key: "Tparams"
    value {
      type: DT_INT64
    }
  }
  attr {
    key: "_output_shapes"
    value {
      list {
        shape {
          dim {
            size: -1
          }
          dim {
            size: 2
          }
        }
      }
    }
  }
  attr {
    key: "batch_dims"
    value {
      i: 0
    }
  }
}
node {
  name: "linear/linear_model/linear/linear_model/linear/linear_model/type/weighted_sum/GatherV2_2/axis"
  op: "Const"
  attr {
    key: "_output_shapes"
    value {
      list {
        shape {
        }
      }
    }
  }
  attr {
    key: "dtype"
    value {
      type: DT_INT32
    }
  }
  attr {
    key: "value"
    value {
      tensor {
        dtype: DT_INT32
        tensor_shape {
        }
        int_val: 0
      }
    }
  }
}
node {
  name: "linear/linear_model/linear/linear_model/linear/linear_model/type/weighted_sum/GatherV2_2"
  op: "GatherV2"
  input: "linear/linear_model/linear/linear_model/linear/linear_model/type/weighted_sum/SparseReshape/Identity"
  input: "linear/linear_model/linear/linear_model/linear/linear_model/type/weighted_sum/Reshape"
  input: "linear/linear_model/linear/linear_model/linear/linear_model/type/weighted_sum/GatherV2_2/axis"
  attr {
    key: "Taxis"
    value {
      type: DT_INT32
    }
  }
  attr {
    key: "Tindices"
    value {
      type: DT_INT64
    }
  }
  attr {
    key: "Tparams"
    value {
      type: DT_INT64
    }
  }
  attr {
    key: "_output_shapes"
    value {
      list {
        shape {
          dim {
            size: -1
          }
        }
      }
    }
  }
  attr {
    key: "batch_dims"
    value {
      i: 0
    }
  }
}
node {
  name: "linear/linear_model/linear/linear_model/linear/linear_model/type/weighted_sum/Identity"
  op: "Identity"
  input: "linear/linear_model/linear/linear_model/linear/linear_model/type/weighted_sum/SparseReshape:1"
  attr {
    key: "T"
    value {
      type: DT_INT64
    }
  }
  attr {
    key: "_output_shapes"
    value {
      list {
        shape {
          dim {
            size: 2
          }
        }
      }
    }
  }
}
node {
  name: "linear/linear_model/linear/linear_model/linear/linear_model/type/weighted_sum/SparseFillEmptyRows/Const"
  op: "Const"
  attr {
    key: "_output_shapes"
    value {
      list {
        shape {
        }
      }
    }
  }
  attr {
    key: "dtype"
    value {
      type: DT_INT64
    }
  }
  attr {
    key: "value"
    value {
      tensor {
        dtype: DT_INT64
        tensor_shape {
        }
        int64_val: 0
      }
    }
  }
}
node {
  name: "linear/linear_model/linear/linear_model/linear/linear_model/type/weighted_sum/SparseFillEmptyRows/SparseFillEmptyRows"
  op: "SparseFillEmptyRows"
  input: "linear/linear_model/linear/linear_model/linear/linear_model/type/weighted_sum/GatherV2_1"
  input: "linear/linear_model/linear/linear_model/linear/linear_model/type/weighted_sum/GatherV2_2"
  input: "linear/linear_model/linear/linear_model/linear/linear_model/type/weighted_sum/Identity"
  input: "linear/linear_model/linear/linear_model/linear/linear_model/type/weighted_sum/SparseFillEmptyRows/Const"
  attr {
    key: "T"
    value {
      type: DT_INT64
    }
  }
  attr {
    key: "_output_shapes"
    value {
      list {
        shape {
          dim {
            size: -1
          }
          dim {
            size: 2
          }
        }
        shape {
          dim {
            size: -1
          }
        }
        shape {
          dim {
            size: 6
          }
        }
        shape {
          dim {
            size: -1
          }
        }
      }
    }
  }
}
node {
  name: "linear/linear_model/linear/linear_model/linear/linear_model/type/weighted_sum/embedding_lookup_sparse/strided_slice/stack"
  op: "Const"
  attr {
    key: "_output_shapes"
    value {
      list {
        shape {
          dim {
            size: 2
          }
        }
      }
    }
  }
  attr {
    key: "dtype"
    value {
      type: DT_INT32
    }
  }
  attr {
    key: "value"
    value {
      tensor {
        dtype: DT_INT32
        tensor_shape {
          dim {
            size: 2
          }
        }
        tensor_content: "\000\000\000\000\000\000\000\000"
      }
    }
  }
}
node {
  name: "linear/linear_model/linear/linear_model/linear/linear_model/type/weighted_sum/embedding_lookup_sparse/strided_slice/stack_1"
  op: "Const"
  attr {
    key: "_output_shapes"
    value {
      list {
        shape {
          dim {
            size: 2
          }
        }
      }
    }
  }
  attr {
    key: "dtype"
    value {
      type: DT_INT32
    }
  }
  attr {
    key: "value"
    value {
      tensor {
        dtype: DT_INT32
        tensor_shape {
          dim {
            size: 2
          }
        }
        tensor_content: "\000\000\000\000\001\000\000\000"
      }
    }
  }
}
node {
  name: "linear/linear_model/linear/linear_model/linear/linear_model/type/weighted_sum/embedding_lookup_sparse/strided_slice/stack_2"
  op: "Const"
  attr {
    key: "_output_shapes"
    value {
      list {
        shape {
          dim {
            size: 2
          }
        }
      }
    }
  }
  attr {
    key: "dtype"
    value {
      type: DT_INT32
    }
  }
  attr {
    key: "value"
    value {
      tensor {
        dtype: DT_INT32
        tensor_shape {
          dim {
            size: 2
          }
        }
        tensor_content: "\001\000\000\000\001\000\000\000"
      }
    }
  }
}
node {
  name: "linear/linear_model/linear/linear_model/linear/linear_model/type/weighted_sum/embedding_lookup_sparse/strided_slice"
  op: "StridedSlice"
  input: "linear/linear_model/linear/linear_model/linear/linear_model/type/weighted_sum/SparseFillEmptyRows/SparseFillEmptyRows"
  input: "linear/linear_model/linear/linear_model/linear/linear_model/type/weighted_sum/embedding_lookup_sparse/strided_slice/stack"
  input: "linear/linear_model/linear/linear_model/linear/linear_model/type/weighted_sum/embedding_lookup_sparse/strided_slice/stack_1"
  input: "linear/linear_model/linear/linear_model/linear/linear_model/type/weighted_sum/embedding_lookup_sparse/strided_slice/stack_2"
  attr {
    key: "Index"
    value {
      type: DT_INT32
    }
  }
  attr {
    key: "T"
    value {
      type: DT_INT64
    }
  }
  attr {
    key: "_output_shapes"
    value {
      list {
        shape {
          dim {
            size: -1
          }
        }
      }
    }
  }
  attr {
    key: "begin_mask"
    value {
      i: 1
    }
  }
  attr {
    key: "ellipsis_mask"
    value {
      i: 0
    }
  }
  attr {
    key: "end_mask"
    value {
      i: 1
    }
  }
  attr {
    key: "new_axis_mask"
    value {
      i: 0
    }
  }
  attr {
    key: "shrink_axis_mask"
    value {
      i: 2
    }
  }
}
node {
  name: "linear/linear_model/linear/linear_model/linear/linear_model/type/weighted_sum/embedding_lookup_sparse/Cast"
  op: "Cast"
  input: "linear/linear_model/linear/linear_model/linear/linear_model/type/weighted_sum/embedding_lookup_sparse/strided_slice"
  attr {
    key: "DstT"
    value {
      type: DT_INT32
    }
  }
  attr {
    key: "SrcT"
    value {
      type: DT_INT64
    }
  }
  attr {
    key: "Truncate"
    value {
      b: false
    }
  }
  attr {
    key: "_output_shapes"
    value {
      list {
        shape {
          dim {
            size: -1
          }
        }
      }
    }
  }
}
node {
  name: "linear/linear_model/linear/linear_model/linear/linear_model/type/weighted_sum/embedding_lookup_sparse/Unique"
  op: "Unique"
  input: "linear/linear_model/linear/linear_model/linear/linear_model/type/weighted_sum/SparseFillEmptyRows/SparseFillEmptyRows:1"
  attr {
    key: "T"
    value {
      type: DT_INT64
    }
  }
  attr {
    key: "_output_shapes"
    value {
      list {
        shape {
          dim {
            size: -1
          }
        }
        shape {
          dim {
            size: -1
          }
        }
      }
    }
  }
  attr {
    key: "out_idx"
    value {
      type: DT_INT32
    }
  }
}
node {
  name: "linear/linear_model/linear/linear_model/linear/linear_model/type/weighted_sum/embedding_lookup_sparse/embedding_lookup"
  op: "ResourceGather"
  input: "linear/linear_model/type/weights"
  input: "linear/linear_model/linear/linear_model/linear/linear_model/type/weighted_sum/embedding_lookup_sparse/Unique"
  attr {
    key: "Tindices"
    value {
      type: DT_INT64
    }
  }
  attr {
    key: "_class"
    value {
      list {
        s: "loc:@linear/linear_model/type/weights"
      }
    }
  }
  attr {
    key: "_output_shapes"
    value {
      list {
        shape {
          dim {
            size: -1
          }
          dim {
            size: 1
          }
        }
      }
    }
  }
  attr {
    key: "batch_dims"
    value {
      i: 0
    }
  }
  attr {
    key: "dtype"
    value {
      type: DT_FLOAT
    }
  }
  attr {
    key: "validate_indices"
    value {
      b: true
    }
  }
}
node {
  name: "linear/linear_model/linear/linear_model/linear/linear_model/type/weighted_sum/embedding_lookup_sparse/embedding_lookup/Identity"
  op: "Identity"
  input: "linear/linear_model/linear/linear_model/linear/linear_model/type/weighted_sum/embedding_lookup_sparse/embedding_lookup"
  attr {
    key: "T"
    value {
      type: DT_FLOAT
    }
  }
  attr {
    key: "_class"
    value {
      list {
        s: "loc:@linear/linear_model/type/weights"
      }
    }
  }
  attr {
    key: "_output_shapes"
    value {
      list {
        shape {
          dim {
            size: -1
          }
          dim {
            size: 1
          }
        }
      }
    }
  }
}
node {
  name: "linear/linear_model/linear/linear_model/linear/linear_model/type/weighted_sum/embedding_lookup_sparse/embedding_lookup/Identity_1"
  op: "Identity"
  input: "linear/linear_model/linear/linear_model/linear/linear_model/type/weighted_sum/embedding_lookup_sparse/embedding_lookup/Identity"
  attr {
    key: "T"
    value {
      type: DT_FLOAT
    }
  }
  attr {
    key: "_output_shapes"
    value {
      list {
        shape {
          dim {
            size: -1
          }
          dim {
            size: 1
          }
        }
      }
    }
  }
}
node {
  name: "linear/linear_model/linear/linear_model/linear/linear_model/type/weighted_sum/embedding_lookup_sparse"
  op: "SparseSegmentSum"
  input: "linear/linear_model/linear/linear_model/linear/linear_model/type/weighted_sum/embedding_lookup_sparse/embedding_lookup/Identity_1"
  input: "linear/linear_model/linear/linear_model/linear/linear_model/type/weighted_sum/embedding_lookup_sparse/Unique:1"
  input: "linear/linear_model/linear/linear_model/linear/linear_model/type/weighted_sum/embedding_lookup_sparse/Cast"
  attr {
    key: "T"
    value {
      type: DT_FLOAT
    }
  }
  attr {
    key: "Tidx"
    value {
      type: DT_INT32
    }
  }
  attr {
    key: "_output_shapes"
    value {
      list {
        shape {
          dim {
            size: -1
          }
          dim {
            size: 1
          }
        }
      }
    }
  }
}
node {
  name: "linear/linear_model/linear/linear_model/linear/linear_model/type/weighted_sum/Reshape_1/shape"
  op: "Const"
  attr {
    key: "_output_shapes"
    value {
      list {
        shape {
          dim {
            size: 2
          }
        }
      }
    }
  }
  attr {
    key: "dtype"
    value {
      type: DT_INT32
    }
  }
  attr {
    key: "value"
    value {
      tensor {
        dtype: DT_INT32
        tensor_shape {
          dim {
            size: 2
          }
        }
        tensor_content: "\377\377\377\377\001\000\000\000"
      }
    }
  }
}
node {
  name: "linear/linear_model/linear/linear_model/linear/linear_model/type/weighted_sum/Reshape_1"
  op: "Reshape"
  input: "linear/linear_model/linear/linear_model/linear/linear_model/type/weighted_sum/SparseFillEmptyRows/SparseFillEmptyRows:2"
  input: "linear/linear_model/linear/linear_model/linear/linear_model/type/weighted_sum/Reshape_1/shape"
  attr {
    key: "T"
    value {
      type: DT_BOOL
    }
  }
  attr {
    key: "Tshape"
    value {
      type: DT_INT32
    }
  }
  attr {
    key: "_output_shapes"
    value {
      list {
        shape {
          dim {
            size: 6
          }
          dim {
            size: 1
          }
        }
      }
    }
  }
}
node {
  name: "linear/linear_model/linear/linear_model/linear/linear_model/type/weighted_sum/Shape"
  op: "Shape"
  input: "linear/linear_model/linear/linear_model/linear/linear_model/type/weighted_sum/embedding_lookup_sparse"
  attr {
    key: "T"
    value {
      type: DT_FLOAT
    }
  }
  attr {
    key: "_output_shapes"
    value {
      list {
        shape {
          dim {
            size: 2
          }
        }
      }
    }
  }
  attr {
    key: "out_type"
    value {
      type: DT_INT32
    }
  }
}
node {
  name: "linear/linear_model/linear/linear_model/linear/linear_model/type/weighted_sum/strided_slice/stack"
  op: "Const"
  attr {
    key: "_output_shapes"
    value {
      list {
        shape {
          dim {
            size: 1
          }
        }
      }
    }
  }
  attr {
    key: "dtype"
    value {
      type: DT_INT32
    }
  }
  attr {
    key: "value"
    value {
      tensor {
        dtype: DT_INT32
        tensor_shape {
          dim {
            size: 1
          }
        }
        int_val: 1
      }
    }
  }
}
node {
  name: "linear/linear_model/linear/linear_model/linear/linear_model/type/weighted_sum/strided_slice/stack_1"
  op: "Const"
  attr {
    key: "_output_shapes"
    value {
      list {
        shape {
          dim {
            size: 1
          }
        }
      }
    }
  }
  attr {
    key: "dtype"
    value {
      type: DT_INT32
    }
  }
  attr {
    key: "value"
    value {
      tensor {
        dtype: DT_INT32
        tensor_shape {
          dim {
            size: 1
          }
        }
        int_val: 2
      }
    }
  }
}
node {
  name: "linear/linear_model/linear/linear_model/linear/linear_model/type/weighted_sum/strided_slice/stack_2"
  op: "Const"
  attr {
    key: "_output_shapes"
    value {
      list {
        shape {
          dim {
            size: 1
          }
        }
      }
    }
  }
  attr {
    key: "dtype"
    value {
      type: DT_INT32
    }
  }
  attr {
    key: "value"
    value {
      tensor {
        dtype: DT_INT32
        tensor_shape {
          dim {
            size: 1
          }
        }
        int_val: 1
      }
    }
  }
}
node {
  name: "linear/linear_model/linear/linear_model/linear/linear_model/type/weighted_sum/strided_slice"
  op: "StridedSlice"
  input: "linear/linear_model/linear/linear_model/linear/linear_model/type/weighted_sum/Shape"
  input: "linear/linear_model/linear/linear_model/linear/linear_model/type/weighted_sum/strided_slice/stack"
  input: "linear/linear_model/linear/linear_model/linear/linear_model/type/weighted_sum/strided_slice/stack_1"
  input: "linear/linear_model/linear/linear_model/linear/linear_model/type/weighted_sum/strided_slice/stack_2"
  attr {
    key: "Index"
    value {
      type: DT_INT32
    }
  }
  attr {
    key: "T"
    value {
      type: DT_INT32
    }
  }
  attr {
    key: "_output_shapes"
    value {
      list {
        shape {
        }
      }
    }
  }
  attr {
    key: "begin_mask"
    value {
      i: 0
    }
  }
  attr {
    key: "ellipsis_mask"
    value {
      i: 0
    }
  }
  attr {
    key: "end_mask"
    value {
      i: 0
    }
  }
  attr {
    key: "new_axis_mask"
    value {
      i: 0
    }
  }
  attr {
    key: "shrink_axis_mask"
    value {
      i: 1
    }
  }
}
node {
  name: "linear/linear_model/linear/linear_model/linear/linear_model/type/weighted_sum/stack/0"
  op: "Const"
  attr {
    key: "_output_shapes"
    value {
      list {
        shape {
        }
      }
    }
  }
  attr {
    key: "dtype"
    value {
      type: DT_INT32
    }
  }
  attr {
    key: "value"
    value {
      tensor {
        dtype: DT_INT32
        tensor_shape {
        }
        int_val: 1
      }
    }
  }
}
node {
  name: "linear/linear_model/linear/linear_model/linear/linear_model/type/weighted_sum/stack"
  op: "Pack"
  input: "linear/linear_model/linear/linear_model/linear/linear_model/type/weighted_sum/stack/0"
  input: "linear/linear_model/linear/linear_model/linear/linear_model/type/weighted_sum/strided_slice"
  attr {
    key: "N"
    value {
      i: 2
    }
  }
  attr {
    key: "T"
    value {
      type: DT_INT32
    }
  }
  attr {
    key: "_output_shapes"
    value {
      list {
        shape {
          dim {
            size: 2
          }
        }
      }
    }
  }
  attr {
    key: "axis"
    value {
      i: 0
    }
  }
}
node {
  name: "linear/linear_model/linear/linear_model/linear/linear_model/type/weighted_sum/Tile"
  op: "Tile"
  input: "linear/linear_model/linear/linear_model/linear/linear_model/type/weighted_sum/Reshape_1"
  input: "linear/linear_model/linear/linear_model/linear/linear_model/type/weighted_sum/stack"
  attr {
    key: "T"
    value {
      type: DT_BOOL
    }
  }
  attr {
    key: "Tmultiples"
    value {
      type: DT_INT32
    }
  }
  attr {
    key: "_output_shapes"
    value {
      list {
        shape {
          dim {
            size: 6
          }
          dim {
            size: -1
          }
        }
      }
    }
  }
}
node {
  name: "linear/linear_model/linear/linear_model/linear/linear_model/type/weighted_sum/zeros_like"
  op: "ZerosLike"
  input: "linear/linear_model/linear/linear_model/linear/linear_model/type/weighted_sum/embedding_lookup_sparse"
  attr {
    key: "T"
    value {
      type: DT_FLOAT
    }
  }
  attr {
    key: "_output_shapes"
    value {
      list {
        shape {
          dim {
            size: -1
          }
          dim {
            size: 1
          }
        }
      }
    }
  }
}
node {
  name: "linear/linear_model/linear/linear_model/linear/linear_model/type/weighted_sum"
  op: "Select"
  input: "linear/linear_model/linear/linear_model/linear/linear_model/type/weighted_sum/Tile"
  input: "linear/linear_model/linear/linear_model/linear/linear_model/type/weighted_sum/zeros_like"
  input: "linear/linear_model/linear/linear_model/linear/linear_model/type/weighted_sum/embedding_lookup_sparse"
  attr {
    key: "T"
    value {
      type: DT_FLOAT
    }
  }
  attr {
    key: "_output_shapes"
    value {
      list {
        shape {
          dim {
            size: 6
          }
          dim {
            size: 1
          }
        }
      }
    }
  }
}
node {
  name: "linear/linear_model/linear/linear_model/linear/linear_model/type/weighted_sum/Cast_1"
  op: "Cast"
  input: "linear/linear_model/linear/linear_model/linear/linear_model/type/SparseReshape:1"
  attr {
    key: "DstT"
    value {
      type: DT_INT32
    }
  }
  attr {
    key: "SrcT"
    value {
      type: DT_INT64
    }
  }
  attr {
    key: "Truncate"
    value {
      b: false
    }
  }
  attr {
    key: "_output_shapes"
    value {
      list {
        shape {
          dim {
            size: 2
          }
        }
      }
    }
  }
}
node {
  name: "linear/linear_model/linear/linear_model/linear/linear_model/type/weighted_sum/Slice_1/begin"
  op: "Const"
  attr {
    key: "_output_shapes"
    value {
      list {
        shape {
          dim {
            size: 1
          }
        }
      }
    }
  }
  attr {
    key: "dtype"
    value {
      type: DT_INT32
    }
  }
  attr {
    key: "value"
    value {
      tensor {
        dtype: DT_INT32
        tensor_shape {
          dim {
            size: 1
          }
        }
        int_val: 0
      }
    }
  }
}
node {
  name: "linear/linear_model/linear/linear_model/linear/linear_model/type/weighted_sum/Slice_1/size"
  op: "Const"
  attr {
    key: "_output_shapes"
    value {
      list {
        shape {
          dim {
            size: 1
          }
        }
      }
    }
  }
  attr {
    key: "dtype"
    value {
      type: DT_INT32
    }
  }
  attr {
    key: "value"
    value {
      tensor {
        dtype: DT_INT32
        tensor_shape {
          dim {
            size: 1
          }
        }
        int_val: 1
      }
    }
  }
}
node {
  name: "linear/linear_model/linear/linear_model/linear/linear_model/type/weighted_sum/Slice_1"
  op: "Slice"
  input: "linear/linear_model/linear/linear_model/linear/linear_model/type/weighted_sum/Cast_1"
  input: "linear/linear_model/linear/linear_model/linear/linear_model/type/weighted_sum/Slice_1/begin"
  input: "linear/linear_model/linear/linear_model/linear/linear_model/type/weighted_sum/Slice_1/size"
  attr {
    key: "Index"
    value {
      type: DT_INT32
    }
  }
  attr {
    key: "T"
    value {
      type: DT_INT32
    }
  }
  attr {
    key: "_output_shapes"
    value {
      list {
        shape {
          dim {
            size: 1
          }
        }
      }
    }
  }
}
node {
  name: "linear/linear_model/linear/linear_model/linear/linear_model/type/weighted_sum/Shape_1"
  op: "Const"
  attr {
    key: "_output_shapes"
    value {
      list {
        shape {
          dim {
            size: 2
          }
        }
      }
    }
  }
  attr {
    key: "dtype"
    value {
      type: DT_INT32
    }
  }
  attr {
    key: "value"
    value {
      tensor {
        dtype: DT_INT32
        tensor_shape {
          dim {
            size: 2
          }
        }
        tensor_content: "\006\000\000\000\001\000\000\000"
      }
    }
  }
}
node {
  name: "linear/linear_model/linear/linear_model/linear/linear_model/type/weighted_sum/Slice_2/begin"
  op: "Const"
  attr {
    key: "_output_shapes"
    value {
      list {
        shape {
          dim {
            size: 1
          }
        }
      }
    }
  }
  attr {
    key: "dtype"
    value {
      type: DT_INT32
    }
  }
  attr {
    key: "value"
    value {
      tensor {
        dtype: DT_INT32
        tensor_shape {
          dim {
            size: 1
          }
        }
        int_val: 1
      }
    }
  }
}
node {
  name: "linear/linear_model/linear/linear_model/linear/linear_model/type/weighted_sum/Slice_2/size"
  op: "Const"
  attr {
    key: "_output_shapes"
    value {
      list {
        shape {
          dim {
            size: 1
          }
        }
      }
    }
  }
  attr {
    key: "dtype"
    value {
      type: DT_INT32
    }
  }
  attr {
    key: "value"
    value {
      tensor {
        dtype: DT_INT32
        tensor_shape {
          dim {
            size: 1
          }
        }
        int_val: -1
      }
    }
  }
}
node {
  name: "linear/linear_model/linear/linear_model/linear/linear_model/type/weighted_sum/Slice_2"
  op: "Slice"
  input: "linear/linear_model/linear/linear_model/linear/linear_model/type/weighted_sum/Shape_1"
  input: "linear/linear_model/linear/linear_model/linear/linear_model/type/weighted_sum/Slice_2/begin"
  input: "linear/linear_model/linear/linear_model/linear/linear_model/type/weighted_sum/Slice_2/size"
  attr {
    key: "Index"
    value {
      type: DT_INT32
    }
  }
  attr {
    key: "T"
    value {
      type: DT_INT32
    }
  }
  attr {
    key: "_output_shapes"
    value {
      list {
        shape {
          dim {
            size: 1
          }
        }
      }
    }
  }
}
node {
  name: "linear/linear_model/linear/linear_model/linear/linear_model/type/weighted_sum/concat/axis"
  op: "Const"
  attr {
    key: "_output_shapes"
    value {
      list {
        shape {
        }
      }
    }
  }
  attr {
    key: "dtype"
    value {
      type: DT_INT32
    }
  }
  attr {
    key: "value"
    value {
      tensor {
        dtype: DT_INT32
        tensor_shape {
        }
        int_val: 0
      }
    }
  }
}
node {
  name: "linear/linear_model/linear/linear_model/linear/linear_model/type/weighted_sum/concat"
  op: "ConcatV2"
  input: "linear/linear_model/linear/linear_model/linear/linear_model/type/weighted_sum/Slice_1"
  input: "linear/linear_model/linear/linear_model/linear/linear_model/type/weighted_sum/Slice_2"
  input: "linear/linear_model/linear/linear_model/linear/linear_model/type/weighted_sum/concat/axis"
  attr {
    key: "N"
    value {
      i: 2
    }
  }
  attr {
    key: "T"
    value {
      type: DT_INT32
    }
  }
  attr {
    key: "Tidx"
    value {
      type: DT_INT32
    }
  }
  attr {
    key: "_output_shapes"
    value {
      list {
        shape {
          dim {
            size: 2
          }
        }
      }
    }
  }
}
node {
  name: "linear/linear_model/linear/linear_model/linear/linear_model/type/weighted_sum/Reshape_2"
  op: "Reshape"
  input: "linear/linear_model/linear/linear_model/linear/linear_model/type/weighted_sum"
  input: "linear/linear_model/linear/linear_model/linear/linear_model/type/weighted_sum/concat"
  attr {
    key: "T"
    value {
      type: DT_FLOAT
    }
  }
  attr {
    key: "Tshape"
    value {
      type: DT_INT32
    }
  }
  attr {
    key: "_output_shapes"
    value {
      list {
        shape {
          dim {
            size: 6
          }
          dim {
            size: 1
          }
        }
      }
    }
  }
}
node {
  name: "linear/linear_model/linear/linear_model/linear/linear_model/weighted_sum_no_bias"
  op: "AddN"
  input: "linear/linear_model/linear/linear_model/linear/linear_model/sq_footage/weighted_sum"
  input: "linear/linear_model/linear/linear_model/linear/linear_model/type/weighted_sum/Reshape_2"
  attr {
    key: "N"
    value {
      i: 2
    }
  }
  attr {
    key: "T"
    value {
      type: DT_FLOAT
    }
  }
  attr {
    key: "_output_shapes"
    value {
      list {
        shape {
          dim {
            size: 6
          }
          dim {
            size: 1
          }
        }
      }
    }
  }
}
node {
  name: "linear/linear_model/linear/linear_model/linear/linear_model/weighted_sum/ReadVariableOp"
  op: "ReadVariableOp"
  input: "linear/linear_model/bias_weights"
  attr {
    key: "_output_shapes"
    value {
      list {
        shape {
          dim {
            size: 1
          }
        }
      }
    }
  }
  attr {
    key: "dtype"
    value {
      type: DT_FLOAT
    }
  }
}
node {
  name: "linear/linear_model/linear/linear_model/linear/linear_model/weighted_sum"
  op: "BiasAdd"
  input: "linear/linear_model/linear/linear_model/linear/linear_model/weighted_sum_no_bias"
  input: "linear/linear_model/linear/linear_model/linear/linear_model/weighted_sum/ReadVariableOp"
  attr {
    key: "T"
    value {
      type: DT_FLOAT
    }
  }
  attr {
    key: "_output_shapes"
    value {
      list {
        shape {
          dim {
            size: 6
          }
          dim {
            size: 1
          }
        }
      }
    }
  }
  attr {
    key: "data_format"
    value {
      s: "NHWC"
    }
  }
}
node {
  name: "ReadVariableOp"
  op: "ReadVariableOp"
  input: "linear/linear_model/bias_weights"
  attr {
    key: "_output_shapes"
    value {
      list {
        shape {
          dim {
            size: 1
          }
        }
      }
    }
  }
  attr {
    key: "dtype"
    value {
      type: DT_FLOAT
    }
  }
}
node {
  name: "strided_slice/stack"
  op: "Const"
  attr {
    key: "_output_shapes"
    value {
      list {
        shape {
          dim {
            size: 1
          }
        }
      }
    }
  }
  attr {
    key: "dtype"
    value {
      type: DT_INT32
    }
  }
  attr {
    key: "value"
    value {
      tensor {
        dtype: DT_INT32
        tensor_shape {
          dim {
            size: 1
          }
        }
        int_val: 0
      }
    }
  }
}
node {
  name: "strided_slice/stack_1"
  op: "Const"
  attr {
    key: "_output_shapes"
    value {
      list {
        shape {
          dim {
            size: 1
          }
        }
      }
    }
  }
  attr {
    key: "dtype"
    value {
      type: DT_INT32
    }
  }
  attr {
    key: "value"
    value {
      tensor {
        dtype: DT_INT32
        tensor_shape {
          dim {
            size: 1
          }
        }
        int_val: 1
      }
    }
  }
}
node {
  name: "strided_slice/stack_2"
  op: "Const"
  attr {
    key: "_output_shapes"
    value {
      list {
        shape {
          dim {
            size: 1
          }
        }
      }
    }
  }
  attr {
    key: "dtype"
    value {
      type: DT_INT32
    }
  }
  attr {
    key: "value"
    value {
      tensor {
        dtype: DT_INT32
        tensor_shape {
          dim {
            size: 1
          }
        }
        int_val: 1
      }
    }
  }
}
node {
  name: "strided_slice"
  op: "StridedSlice"
  input: "ReadVariableOp"
  input: "strided_slice/stack"
  input: "strided_slice/stack_1"
  input: "strided_slice/stack_2"
  attr {
    key: "Index"
    value {
      type: DT_INT32
    }
  }
  attr {
    key: "T"
    value {
      type: DT_FLOAT
    }
  }
  attr {
    key: "_output_shapes"
    value {
      list {
        shape {
        }
      }
    }
  }
  attr {
    key: "begin_mask"
    value {
      i: 0
    }
  }
  attr {
    key: "ellipsis_mask"
    value {
      i: 0
    }
  }
  attr {
    key: "end_mask"
    value {
      i: 0
    }
  }
  attr {
    key: "new_axis_mask"
    value {
      i: 0
    }
  }
  attr {
    key: "shrink_axis_mask"
    value {
      i: 1
    }
  }
}
node {
  name: "bias/tags"
  op: "Const"
  attr {
    key: "_output_shapes"
    value {
      list {
        shape {
        }
      }
    }
  }
  attr {
    key: "dtype"
    value {
      type: DT_STRING
    }
  }
  attr {
    key: "value"
    value {
      tensor {
        dtype: DT_STRING
        tensor_shape {
        }
        string_val: "bias"
      }
    }
  }
}
node {
  name: "bias"
  op: "ScalarSummary"
  input: "bias/tags"
  input: "strided_slice"
  attr {
    key: "T"
    value {
      type: DT_FLOAT
    }
  }
  attr {
    key: "_output_shapes"
    value {
      list {
        shape {
        }
      }
    }
  }
}
node {
  name: "zero_fraction/total_size/Size/ReadVariableOp"
  op: "ReadVariableOp"
  input: "linear/linear_model/sq_footage/weights"
  attr {
    key: "_output_shapes"
    value {
      list {
        shape {
          dim {
            size: 1
          }
          dim {
            size: 1
          }
        }
      }
    }
  }
  attr {
    key: "dtype"
    value {
      type: DT_FLOAT
    }
  }
}
node {
  name: "zero_fraction/total_size/Size"
  op: "Const"
  attr {
    key: "_output_shapes"
    value {
      list {
        shape {
        }
      }
    }
  }
  attr {
    key: "dtype"
    value {
      type: DT_INT64
    }
  }
  attr {
    key: "value"
    value {
      tensor {
        dtype: DT_INT64
        tensor_shape {
        }
        int64_val: 1
      }
    }
  }
}
node {
  name: "zero_fraction/total_size/Size_1/ReadVariableOp"
  op: "ReadVariableOp"
  input: "linear/linear_model/type/weights"
  attr {
    key: "_output_shapes"
    value {
      list {
        shape {
          dim {
            size: 2
          }
          dim {
            size: 1
          }
        }
      }
    }
  }
  attr {
    key: "dtype"
    value {
      type: DT_FLOAT
    }
  }
}
node {
  name: "zero_fraction/total_size/Size_1"
  op: "Const"
  attr {
    key: "_output_shapes"
    value {
      list {
        shape {
        }
      }
    }
  }
  attr {
    key: "dtype"
    value {
      type: DT_INT64
    }
  }
  attr {
    key: "value"
    value {
      tensor {
        dtype: DT_INT64
        tensor_shape {
        }
        int64_val: 2
      }
    }
  }
}
node {
  name: "zero_fraction/total_size/AddN"
  op: "AddN"
  input: "zero_fraction/total_size/Size"
  input: "zero_fraction/total_size/Size_1"
  attr {
    key: "N"
    value {
      i: 2
    }
  }
  attr {
    key: "T"
    value {
      type: DT_INT64
    }
  }
  attr {
    key: "_output_shapes"
    value {
      list {
        shape {
        }
      }
    }
  }
}
node {
  name: "zero_fraction/total_zero/Const"
  op: "Const"
  attr {
    key: "_output_shapes"
    value {
      list {
        shape {
        }
      }
    }
  }
  attr {
    key: "dtype"
    value {
      type: DT_INT64
    }
  }
  attr {
    key: "value"
    value {
      tensor {
        dtype: DT_INT64
        tensor_shape {
        }
        int64_val: 0
      }
    }
  }
}
node {
  name: "zero_fraction/total_zero/Equal"
  op: "Equal"
  input: "zero_fraction/total_size/Size"
  input: "zero_fraction/total_zero/Const"
  attr {
    key: "T"
    value {
      type: DT_INT64
    }
  }
  attr {
    key: "_output_shapes"
    value {
      list {
        shape {
        }
      }
    }
  }
  attr {
    key: "incompatible_shape_error"
    value {
      b: true
    }
  }
}
node {
  name: "zero_fraction/total_zero/zero_count"
  op: "If"
  input: "zero_fraction/total_zero/Equal"
  input: "linear/linear_model/sq_footage/weights"
  input: "zero_fraction/total_size/Size"
  attr {
    key: "Tcond"
    value {
      type: DT_BOOL
    }
  }
  attr {
    key: "Tin"
    value {
      list {
        type: DT_RESOURCE
        type: DT_INT64
      }
    }
  }
  attr {
    key: "Tout"
    value {
      list {
        type: DT_FLOAT
      }
    }
  }
  attr {
    key: "_lower_using_switch_merge"
    value {
      b: true
    }
  }
  attr {
    key: "_output_shapes"
    value {
      list {
        shape {
        }
      }
    }
  }
  attr {
    key: "else_branch"
    value {
      func {
        name: "zero_fraction_total_zero_zero_count_false_159"
      }
    }
  }
  attr {
    key: "output_shapes"
    value {
      list {
        shape {
        }
      }
    }
  }
  attr {
    key: "then_branch"
    value {
      func {
        name: "zero_fraction_total_zero_zero_count_true_158"
      }
    }
  }
}
node {
  name: "zero_fraction/total_zero/zero_count/Identity"
  op: "Identity"
  input: "zero_fraction/total_zero/zero_count"
  attr {
    key: "T"
    value {
      type: DT_FLOAT
    }
  }
  attr {
    key: "_output_shapes"
    value {
      list {
        shape {
        }
      }
    }
  }
}
node {
  name: "zero_fraction/total_zero/Const_1"
  op: "Const"
  attr {
    key: "_output_shapes"
    value {
      list {
        shape {
        }
      }
    }
  }
  attr {
    key: "dtype"
    value {
      type: DT_INT64
    }
  }
  attr {
    key: "value"
    value {
      tensor {
        dtype: DT_INT64
        tensor_shape {
        }
        int64_val: 0
      }
    }
  }
}
node {
  name: "zero_fraction/total_zero/Equal_1"
  op: "Equal"
  input: "zero_fraction/total_size/Size_1"
  input: "zero_fraction/total_zero/Const_1"
  attr {
    key: "T"
    value {
      type: DT_INT64
    }
  }
  attr {
    key: "_output_shapes"
    value {
      list {
        shape {
        }
      }
    }
  }
  attr {
    key: "incompatible_shape_error"
    value {
      b: true
    }
  }
}
node {
  name: "zero_fraction/total_zero/zero_count_1"
  op: "If"
  input: "zero_fraction/total_zero/Equal_1"
  input: "linear/linear_model/type/weights"
  input: "zero_fraction/total_size/Size_1"
  attr {
    key: "Tcond"
    value {
      type: DT_BOOL
    }
  }
  attr {
    key: "Tin"
    value {
      list {
        type: DT_RESOURCE
        type: DT_INT64
      }
    }
  }
  attr {
    key: "Tout"
    value {
      list {
        type: DT_FLOAT
      }
    }
  }
  attr {
    key: "_lower_using_switch_merge"
    value {
      b: true
    }
  }
  attr {
    key: "_output_shapes"
    value {
      list {
        shape {
        }
      }
    }
  }
  attr {
    key: "else_branch"
    value {
      func {
        name: "zero_fraction_total_zero_zero_count_1_false_202"
      }
    }
  }
  attr {
    key: "output_shapes"
    value {
      list {
        shape {
        }
      }
    }
  }
  attr {
    key: "then_branch"
    value {
      func {
        name: "zero_fraction_total_zero_zero_count_1_true_201"
      }
    }
  }
}
node {
  name: "zero_fraction/total_zero/zero_count_1/Identity"
  op: "Identity"
  input: "zero_fraction/total_zero/zero_count_1"
  attr {
    key: "T"
    value {
      type: DT_FLOAT
    }
  }
  attr {
    key: "_output_shapes"
    value {
      list {
        shape {
        }
      }
    }
  }
}
node {
  name: "zero_fraction/total_zero/AddN"
  op: "AddN"
  input: "zero_fraction/total_zero/zero_count/Identity"
  input: "zero_fraction/total_zero/zero_count_1/Identity"
  attr {
    key: "N"
    value {
      i: 2
    }
  }
  attr {
    key: "T"
    value {
      type: DT_FLOAT
    }
  }
  attr {
    key: "_output_shapes"
    value {
      list {
        shape {
        }
      }
    }
  }
}
node {
  name: "zero_fraction/compute/float32_size"
  op: "Cast"
  input: "zero_fraction/total_size/AddN"
  attr {
    key: "DstT"
    value {
      type: DT_FLOAT
    }
  }
  attr {
    key: "SrcT"
    value {
      type: DT_INT64
    }
  }
  attr {
    key: "Truncate"
    value {
      b: false
    }
  }
  attr {
    key: "_output_shapes"
    value {
      list {
        shape {
        }
      }
    }
  }
}
node {
  name: "zero_fraction/compute/truediv"
  op: "RealDiv"
  input: "zero_fraction/total_zero/AddN"
  input: "zero_fraction/compute/float32_size"
  attr {
    key: "T"
    value {
      type: DT_FLOAT
    }
  }
  attr {
    key: "_output_shapes"
    value {
      list {
        shape {
        }
      }
    }
  }
}
node {
  name: "zero_fraction/zero_fraction_or_nan"
  op: "Identity"
  input: "zero_fraction/compute/truediv"
  attr {
    key: "T"
    value {
      type: DT_FLOAT
    }
  }
  attr {
    key: "_output_shapes"
    value {
      list {
        shape {
        }
      }
    }
  }
}
node {
  name: "fraction_of_zero_weights/tags"
  op: "Const"
  attr {
    key: "_output_shapes"
    value {
      list {
        shape {
        }
      }
    }
  }
  attr {
    key: "dtype"
    value {
      type: DT_STRING
    }
  }
  attr {
    key: "value"
    value {
      tensor {
        dtype: DT_STRING
        tensor_shape {
        }
        string_val: "fraction_of_zero_weights"
      }
    }
  }
}
node {
  name: "fraction_of_zero_weights"
  op: "ScalarSummary"
  input: "fraction_of_zero_weights/tags"
  input: "zero_fraction/zero_fraction_or_nan"
  attr {
    key: "T"
    value {
      type: DT_FLOAT
    }
  }
  attr {
    key: "_output_shapes"
    value {
      list {
        shape {
        }
      }
    }
  }
}
node {
  name: "head/logits/Shape"
  op: "Const"
  attr {
    key: "_output_shapes"
    value {
      list {
        shape {
          dim {
            size: 2
          }
        }
      }
    }
  }
  attr {
    key: "dtype"
    value {
      type: DT_INT32
    }
  }
  attr {
    key: "value"
    value {
      tensor {
        dtype: DT_INT32
        tensor_shape {
          dim {
            size: 2
          }
        }
        tensor_content: "\006\000\000\000\001\000\000\000"
      }
    }
  }
}
node {
  name: "head/logits/assert_rank_at_least/rank"
  op: "Const"
  attr {
    key: "_output_shapes"
    value {
      list {
        shape {
        }
      }
    }
  }
  attr {
    key: "dtype"
    value {
      type: DT_INT32
    }
  }
  attr {
    key: "value"
    value {
      tensor {
        dtype: DT_INT32
        tensor_shape {
        }
        int_val: 2
      }
    }
  }
}
node {
  name: "head/logits/assert_rank_at_least/assert_type/statically_determined_correct_type"
  op: "NoOp"
}
node {
  name: "head/logits/assert_rank_at_least/static_checks_determined_all_ok"
  op: "NoOp"
}
node {
  name: "head/losses/logits/Shape"
  op: "Const"
  attr {
    key: "_output_shapes"
    value {
      list {
        shape {
          dim {
            size: 2
          }
        }
      }
    }
  }
  attr {
    key: "dtype"
    value {
      type: DT_INT32
    }
  }
  attr {
    key: "value"
    value {
      tensor {
        dtype: DT_INT32
        tensor_shape {
          dim {
            size: 2
          }
        }
        tensor_content: "\006\000\000\000\001\000\000\000"
      }
    }
  }
}
node {
  name: "head/losses/logits/assert_rank_at_least/rank"
  op: "Const"
  attr {
    key: "_output_shapes"
    value {
      list {
        shape {
        }
      }
    }
  }
  attr {
    key: "dtype"
    value {
      type: DT_INT32
    }
  }
  attr {
    key: "value"
    value {
      tensor {
        dtype: DT_INT32
        tensor_shape {
        }
        int_val: 2
      }
    }
  }
}
node {
  name: "head/losses/logits/assert_rank_at_least/assert_type/statically_determined_correct_type"
  op: "NoOp"
}
node {
  name: "head/losses/logits/assert_rank_at_least/static_checks_determined_all_ok"
  op: "NoOp"
}
node {
  name: "head/losses/labels/Const"
  op: "Const"
  attr {
    key: "_output_shapes"
    value {
      list {
        shape {
          dim {
            size: 6
          }
        }
      }
    }
  }
  attr {
    key: "dtype"
    value {
      type: DT_INT32
    }
  }
  attr {
    key: "value"
    value {
      tensor {
        dtype: DT_INT32
        tensor_shape {
          dim {
            size: 6
          }
        }
        tensor_content: "\364\001\000\000\350\003\000\000\334\005\000\000\274\002\000\000\024\005\000\000l\007\000\000"
      }
    }
  }
}
node {
  name: "head/losses/labels/ExpandDims/dim"
  op: "Const"
  attr {
    key: "_output_shapes"
    value {
      list {
        shape {
        }
      }
    }
  }
  attr {
    key: "dtype"
    value {
      type: DT_INT32
    }
  }
  attr {
    key: "value"
    value {
      tensor {
        dtype: DT_INT32
        tensor_shape {
        }
        int_val: -1
      }
    }
  }
}
node {
  name: "head/losses/labels/ExpandDims"
  op: "ExpandDims"
  input: "head/losses/labels/Const"
  input: "head/losses/labels/ExpandDims/dim"
  attr {
    key: "T"
    value {
      type: DT_INT32
    }
  }
  attr {
    key: "Tdim"
    value {
      type: DT_INT32
    }
  }
  attr {
    key: "_output_shapes"
    value {
      list {
        shape {
          dim {
            size: 6
          }
          dim {
            size: 1
          }
        }
      }
    }
  }
}
node {
  name: "head/losses/labels/assert_rank_at_least/rank"
  op: "Const"
  attr {
    key: "_output_shapes"
    value {
      list {
        shape {
        }
      }
    }
  }
  attr {
    key: "dtype"
    value {
      type: DT_INT32
    }
  }
  attr {
    key: "value"
    value {
      tensor {
        dtype: DT_INT32
        tensor_shape {
        }
        int_val: 2
      }
    }
  }
}
node {
  name: "head/losses/labels/assert_rank_at_least/Shape"
  op: "Const"
  attr {
    key: "_output_shapes"
    value {
      list {
        shape {
          dim {
            size: 2
          }
        }
      }
    }
  }
  attr {
    key: "dtype"
    value {
      type: DT_INT32
    }
  }
  attr {
    key: "value"
    value {
      tensor {
        dtype: DT_INT32
        tensor_shape {
          dim {
            size: 2
          }
        }
        tensor_content: "\006\000\000\000\001\000\000\000"
      }
    }
  }
}
node {
  name: "head/losses/labels/assert_rank_at_least/assert_type/statically_determined_correct_type"
  op: "NoOp"
}
node {
  name: "head/losses/labels/assert_rank_at_least/static_checks_determined_all_ok"
  op: "NoOp"
}
node {
  name: "head/losses/labels/Shape"
  op: "Const"
  input: "^head/losses/labels/assert_rank_at_least/static_checks_determined_all_ok"
  attr {
    key: "_output_shapes"
    value {
      list {
        shape {
          dim {
            size: 2
          }
        }
      }
    }
  }
  attr {
    key: "dtype"
    value {
      type: DT_INT32
    }
  }
  attr {
    key: "value"
    value {
      tensor {
        dtype: DT_INT32
        tensor_shape {
          dim {
            size: 2
          }
        }
        tensor_content: "\006\000\000\000\001\000\000\000"
      }
    }
  }
}
node {
  name: "head/losses/labels/strided_slice/stack"
  op: "Const"
  input: "^head/losses/labels/assert_rank_at_least/static_checks_determined_all_ok"
  attr {
    key: "_output_shapes"
    value {
      list {
        shape {
          dim {
            size: 1
          }
        }
      }
    }
  }
  attr {
    key: "dtype"
    value {
      type: DT_INT32
    }
  }
  attr {
    key: "value"
    value {
      tensor {
        dtype: DT_INT32
        tensor_shape {
          dim {
            size: 1
          }
        }
        int_val: 0
      }
    }
  }
}
node {
  name: "head/losses/labels/strided_slice/stack_1"
  op: "Const"
  input: "^head/losses/labels/assert_rank_at_least/static_checks_determined_all_ok"
  attr {
    key: "_output_shapes"
    value {
      list {
        shape {
          dim {
            size: 1
          }
        }
      }
    }
  }
  attr {
    key: "dtype"
    value {
      type: DT_INT32
    }
  }
  attr {
    key: "value"
    value {
      tensor {
        dtype: DT_INT32
        tensor_shape {
          dim {
            size: 1
          }
        }
        int_val: -1
      }
    }
  }
}
node {
  name: "head/losses/labels/strided_slice/stack_2"
  op: "Const"
  input: "^head/losses/labels/assert_rank_at_least/static_checks_determined_all_ok"
  attr {
    key: "_output_shapes"
    value {
      list {
        shape {
          dim {
            size: 1
          }
        }
      }
    }
  }
  attr {
    key: "dtype"
    value {
      type: DT_INT32
    }
  }
  attr {
    key: "value"
    value {
      tensor {
        dtype: DT_INT32
        tensor_shape {
          dim {
            size: 1
          }
        }
        int_val: 1
      }
    }
  }
}
node {
  name: "head/losses/labels/strided_slice"
  op: "StridedSlice"
  input: "head/losses/labels/Shape"
  input: "head/losses/labels/strided_slice/stack"
  input: "head/losses/labels/strided_slice/stack_1"
  input: "head/losses/labels/strided_slice/stack_2"
  attr {
    key: "Index"
    value {
      type: DT_INT32
    }
  }
  attr {
    key: "T"
    value {
      type: DT_INT32
    }
  }
  attr {
    key: "_output_shapes"
    value {
      list {
        shape {
          dim {
            size: 1
          }
        }
      }
    }
  }
  attr {
    key: "begin_mask"
    value {
      i: 1
    }
  }
  attr {
    key: "ellipsis_mask"
    value {
      i: 0
    }
  }
  attr {
    key: "end_mask"
    value {
      i: 0
    }
  }
  attr {
    key: "new_axis_mask"
    value {
      i: 0
    }
  }
  attr {
    key: "shrink_axis_mask"
    value {
      i: 0
    }
  }
}
node {
  name: "head/losses/labels/concat/values_1"
  op: "Const"
  input: "^head/losses/labels/assert_rank_at_least/static_checks_determined_all_ok"
  attr {
    key: "_output_shapes"
    value {
      list {
        shape {
          dim {
            size: 1
          }
        }
      }
    }
  }
  attr {
    key: "dtype"
    value {
      type: DT_INT32
    }
  }
  attr {
    key: "value"
    value {
      tensor {
        dtype: DT_INT32
        tensor_shape {
          dim {
            size: 1
          }
        }
        int_val: 1
      }
    }
  }
}
node {
  name: "head/losses/labels/concat/axis"
  op: "Const"
  input: "^head/losses/labels/assert_rank_at_least/static_checks_determined_all_ok"
  attr {
    key: "_output_shapes"
    value {
      list {
        shape {
        }
      }
    }
  }
  attr {
    key: "dtype"
    value {
      type: DT_INT32
    }
  }
  attr {
    key: "value"
    value {
      tensor {
        dtype: DT_INT32
        tensor_shape {
        }
        int_val: 0
      }
    }
  }
}
node {
  name: "head/losses/labels/concat"
  op: "ConcatV2"
  input: "head/losses/labels/strided_slice"
  input: "head/losses/labels/concat/values_1"
  input: "head/losses/labels/concat/axis"
  attr {
    key: "N"
    value {
      i: 2
    }
  }
  attr {
    key: "T"
    value {
      type: DT_INT32
    }
  }
  attr {
    key: "Tidx"
    value {
      type: DT_INT32
    }
  }
  attr {
    key: "_output_shapes"
    value {
      list {
        shape {
          dim {
            size: 2
          }
        }
      }
    }
  }
}
node {
  name: "head/losses/labels/Shape_1"
  op: "Const"
  input: "^head/losses/labels/assert_rank_at_least/static_checks_determined_all_ok"
  attr {
    key: "_output_shapes"
    value {
      list {
        shape {
          dim {
            size: 2
          }
        }
      }
    }
  }
  attr {
    key: "dtype"
    value {
      type: DT_INT32
    }
  }
  attr {
    key: "value"
    value {
      tensor {
        dtype: DT_INT32
        tensor_shape {
          dim {
            size: 2
          }
        }
        tensor_content: "\006\000\000\000\001\000\000\000"
      }
    }
  }
}
node {
  name: "head/losses/labels/assert_equal/Equal"
  op: "Equal"
  input: "head/losses/labels/concat"
  input: "head/losses/labels/Shape_1"
  attr {
    key: "T"
    value {
      type: DT_INT32
    }
  }
  attr {
    key: "_output_shapes"
    value {
      list {
        shape {
          dim {
            size: 2
          }
        }
      }
    }
  }
  attr {
    key: "incompatible_shape_error"
    value {
      b: true
    }
  }
}
node {
  name: "head/losses/labels/assert_equal/Const"
  op: "Const"
  input: "^head/losses/labels/assert_rank_at_least/static_checks_determined_all_ok"
  attr {
    key: "_output_shapes"
    value {
      list {
        shape {
          dim {
            size: 1
          }
        }
      }
    }
  }
  attr {
    key: "dtype"
    value {
      type: DT_INT32
    }
  }
  attr {
    key: "value"
    value {
      tensor {
        dtype: DT_INT32
        tensor_shape {
          dim {
            size: 1
          }
        }
        int_val: 0
      }
    }
  }
}
node {
  name: "head/losses/labels/assert_equal/All"
  op: "All"
  input: "head/losses/labels/assert_equal/Equal"
  input: "head/losses/labels/assert_equal/Const"
  attr {
    key: "Tidx"
    value {
      type: DT_INT32
    }
  }
  attr {
    key: "_output_shapes"
    value {
      list {
        shape {
        }
      }
    }
  }
  attr {
    key: "keep_dims"
    value {
      b: false
    }
  }
}
node {
  name: "head/losses/labels/assert_equal/Assert/Const"
  op: "Const"
  input: "^head/losses/labels/assert_rank_at_least/static_checks_determined_all_ok"
  attr {
    key: "_output_shapes"
    value {
      list {
        shape {
        }
      }
    }
  }
  attr {
    key: "dtype"
    value {
      type: DT_STRING
    }
  }
  attr {
    key: "value"
    value {
      tensor {
        dtype: DT_STRING
        tensor_shape {
        }
        string_val: "expected_labels_shape: "
      }
    }
  }
}
node {
  name: "head/losses/labels/assert_equal/Assert/Const_1"
  op: "Const"
  input: "^head/losses/labels/assert_rank_at_least/static_checks_determined_all_ok"
  attr {
    key: "_output_shapes"
    value {
      list {
        shape {
        }
      }
    }
  }
  attr {
    key: "dtype"
    value {
      type: DT_STRING
    }
  }
  attr {
    key: "value"
    value {
      tensor {
        dtype: DT_STRING
        tensor_shape {
        }
        string_val: "labels_shape: "
      }
    }
  }
}
node {
  name: "head/losses/labels/assert_equal/Assert/Assert/data_0"
  op: "Const"
  input: "^head/losses/labels/assert_rank_at_least/static_checks_determined_all_ok"
  attr {
    key: "_output_shapes"
    value {
      list {
        shape {
        }
      }
    }
  }
  attr {
    key: "dtype"
    value {
      type: DT_STRING
    }
  }
  attr {
    key: "value"
    value {
      tensor {
        dtype: DT_STRING
        tensor_shape {
        }
        string_val: "expected_labels_shape: "
      }
    }
  }
}
node {
  name: "head/losses/labels/assert_equal/Assert/Assert/data_2"
  op: "Const"
  input: "^head/losses/labels/assert_rank_at_least/static_checks_determined_all_ok"
  attr {
    key: "_output_shapes"
    value {
      list {
        shape {
        }
      }
    }
  }
  attr {
    key: "dtype"
    value {
      type: DT_STRING
    }
  }
  attr {
    key: "value"
    value {
      tensor {
        dtype: DT_STRING
        tensor_shape {
        }
        string_val: "labels_shape: "
      }
    }
  }
}
node {
  name: "head/losses/labels/assert_equal/Assert/Assert"
  op: "Assert"
  input: "head/losses/labels/assert_equal/All"
  input: "head/losses/labels/assert_equal/Assert/Assert/data_0"
  input: "head/losses/labels/concat"
  input: "head/losses/labels/assert_equal/Assert/Assert/data_2"
  input: "head/losses/labels/Shape_1"
  attr {
    key: "T"
    value {
      list {
        type: DT_STRING
        type: DT_INT32
        type: DT_STRING
        type: DT_INT32
      }
    }
  }
  attr {
    key: "summarize"
    value {
      i: 3
    }
  }
}
node {
  name: "head/losses/labels"
  op: "Identity"
  input: "head/losses/labels/ExpandDims"
  input: "^head/losses/labels/assert_equal/Assert/Assert"
  input: "^head/losses/labels/assert_rank_at_least/static_checks_determined_all_ok"
  attr {
    key: "T"
    value {
      type: DT_INT32
    }
  }
  attr {
    key: "_output_shapes"
    value {
      list {
        shape {
          dim {
            size: 6
          }
          dim {
            size: 1
          }
        }
      }
    }
  }
}
node {
  name: "head/losses/ToFloat"
  op: "Cast"
  input: "head/losses/labels"
  attr {
    key: "DstT"
    value {
      type: DT_FLOAT
    }
  }
  attr {
    key: "SrcT"
    value {
      type: DT_INT32
    }
  }
  attr {
    key: "Truncate"
    value {
      b: false
    }
  }
  attr {
    key: "_output_shapes"
    value {
      list {
        shape {
          dim {
            size: 6
          }
          dim {
            size: 1
          }
        }
      }
    }
  }
}
node {
  name: "head/losses/mean_squared_error/SquaredDifference"
  op: "SquaredDifference"
  input: "linear/linear_model/linear/linear_model/linear/linear_model/weighted_sum"
  input: "head/losses/ToFloat"
  attr {
    key: "T"
    value {
      type: DT_FLOAT
    }
  }
  attr {
    key: "_output_shapes"
    value {
      list {
        shape {
          dim {
            size: 6
          }
          dim {
            size: 1
          }
        }
      }
    }
  }
}
node {
  name: "head/losses/mean_squared_error/assert_broadcastable/weights"
  op: "Const"
  attr {
    key: "_output_shapes"
    value {
      list {
        shape {
        }
      }
    }
  }
  attr {
    key: "dtype"
    value {
      type: DT_FLOAT
    }
  }
  attr {
    key: "value"
    value {
      tensor {
        dtype: DT_FLOAT
        tensor_shape {
        }
        float_val: 1.0
      }
    }
  }
}
node {
  name: "head/losses/mean_squared_error/assert_broadcastable/weights/shape"
  op: "Const"
  attr {
    key: "_output_shapes"
    value {
      list {
        shape {
          dim {
          }
        }
      }
    }
  }
  attr {
    key: "dtype"
    value {
      type: DT_INT32
    }
  }
  attr {
    key: "value"
    value {
      tensor {
        dtype: DT_INT32
        tensor_shape {
          dim {
          }
        }
      }
    }
  }
}
node {
  name: "head/losses/mean_squared_error/assert_broadcastable/weights/rank"
  op: "Const"
  attr {
    key: "_output_shapes"
    value {
      list {
        shape {
        }
      }
    }
  }
  attr {
    key: "dtype"
    value {
      type: DT_INT32
    }
  }
  attr {
    key: "value"
    value {
      tensor {
        dtype: DT_INT32
        tensor_shape {
        }
        int_val: 0
      }
    }
  }
}
node {
  name: "head/losses/mean_squared_error/assert_broadcastable/values/shape"
  op: "Const"
  attr {
    key: "_output_shapes"
    value {
      list {
        shape {
          dim {
            size: 2
          }
        }
      }
    }
  }
  attr {
    key: "dtype"
    value {
      type: DT_INT32
    }
  }
  attr {
    key: "value"
    value {
      tensor {
        dtype: DT_INT32
        tensor_shape {
          dim {
            size: 2
          }
        }
        tensor_content: "\006\000\000\000\001\000\000\000"
      }
    }
  }
}
node {
  name: "head/losses/mean_squared_error/assert_broadcastable/values/rank"
  op: "Const"
  attr {
    key: "_output_shapes"
    value {
      list {
        shape {
        }
      }
    }
  }
  attr {
    key: "dtype"
    value {
      type: DT_INT32
    }
  }
  attr {
    key: "value"
    value {
      tensor {
        dtype: DT_INT32
        tensor_shape {
        }
        int_val: 2
      }
    }
  }
}
node {
  name: "head/losses/mean_squared_error/assert_broadcastable/static_scalar_check_success"
  op: "NoOp"
}
node {
  name: "head/losses/mean_squared_error/Cast/x"
  op: "Const"
  input: "^head/losses/mean_squared_error/assert_broadcastable/static_scalar_check_success"
  attr {
    key: "_output_shapes"
    value {
      list {
        shape {
        }
      }
    }
  }
  attr {
    key: "dtype"
    value {
      type: DT_FLOAT
    }
  }
  attr {
    key: "value"
    value {
      tensor {
        dtype: DT_FLOAT
        tensor_shape {
        }
        float_val: 1.0
      }
    }
  }
}
node {
  name: "head/losses/mean_squared_error/Mul"
  op: "Mul"
  input: "head/losses/mean_squared_error/SquaredDifference"
  input: "head/losses/mean_squared_error/Cast/x"
  attr {
    key: "T"
    value {
      type: DT_FLOAT
    }
  }
  attr {
    key: "_output_shapes"
    value {
      list {
        shape {
          dim {
            size: 6
          }
          dim {
            size: 1
          }
        }
      }
    }
  }
}
node {
  name: "head/losses/weighted_loss/Cast/x"
  op: "Const"
  attr {
    key: "_output_shapes"
    value {
      list {
        shape {
        }
      }
    }
  }
  attr {
    key: "dtype"
    value {
      type: DT_FLOAT
    }
  }
  attr {
    key: "value"
    value {
      tensor {
        dtype: DT_FLOAT
        tensor_shape {
        }
        float_val: 1.0
      }
    }
  }
}
node {
  name: "head/losses/weighted_loss/broadcast_weights/assert_broadcastable/weights/shape"
  op: "Const"
  attr {
    key: "_output_shapes"
    value {
      list {
        shape {
          dim {
          }
        }
      }
    }
  }
  attr {
    key: "dtype"
    value {
      type: DT_INT32
    }
  }
  attr {
    key: "value"
    value {
      tensor {
        dtype: DT_INT32
        tensor_shape {
          dim {
          }
        }
      }
    }
  }
}
node {
  name: "head/losses/weighted_loss/broadcast_weights/assert_broadcastable/weights/rank"
  op: "Const"
  attr {
    key: "_output_shapes"
    value {
      list {
        shape {
        }
      }
    }
  }
  attr {
    key: "dtype"
    value {
      type: DT_INT32
    }
  }
  attr {
    key: "value"
    value {
      tensor {
        dtype: DT_INT32
        tensor_shape {
        }
        int_val: 0
      }
    }
  }
}
node {
  name: "head/losses/weighted_loss/broadcast_weights/assert_broadcastable/values/shape"
  op: "Const"
  attr {
    key: "_output_shapes"
    value {
      list {
        shape {
          dim {
            size: 2
          }
        }
      }
    }
  }
  attr {
    key: "dtype"
    value {
      type: DT_INT32
    }
  }
  attr {
    key: "value"
    value {
      tensor {
        dtype: DT_INT32
        tensor_shape {
          dim {
            size: 2
          }
        }
        tensor_content: "\006\000\000\000\001\000\000\000"
      }
    }
  }
}
node {
  name: "head/losses/weighted_loss/broadcast_weights/assert_broadcastable/values/rank"
  op: "Const"
  attr {
    key: "_output_shapes"
    value {
      list {
        shape {
        }
      }
    }
  }
  attr {
    key: "dtype"
    value {
      type: DT_INT32
    }
  }
  attr {
    key: "value"
    value {
      tensor {
        dtype: DT_INT32
        tensor_shape {
        }
        int_val: 2
      }
    }
  }
}
node {
  name: "head/losses/weighted_loss/broadcast_weights/assert_broadcastable/static_scalar_check_success"
  op: "NoOp"
}
node {
  name: "head/losses/weighted_loss/broadcast_weights/ones_like/Shape"
  op: "Const"
  input: "^head/losses/weighted_loss/broadcast_weights/assert_broadcastable/static_scalar_check_success"
  attr {
    key: "_output_shapes"
    value {
      list {
        shape {
          dim {
            size: 2
          }
        }
      }
    }
  }
  attr {
    key: "dtype"
    value {
      type: DT_INT32
    }
  }
  attr {
    key: "value"
    value {
      tensor {
        dtype: DT_INT32
        tensor_shape {
          dim {
            size: 2
          }
        }
        tensor_content: "\006\000\000\000\001\000\000\000"
      }
    }
  }
}
node {
  name: "head/losses/weighted_loss/broadcast_weights/ones_like/Const"
  op: "Const"
  input: "^head/losses/weighted_loss/broadcast_weights/assert_broadcastable/static_scalar_check_success"
  attr {
    key: "_output_shapes"
    value {
      list {
        shape {
        }
      }
    }
  }
  attr {
    key: "dtype"
    value {
      type: DT_FLOAT
    }
  }
  attr {
    key: "value"
    value {
      tensor {
        dtype: DT_FLOAT
        tensor_shape {
        }
        float_val: 1.0
      }
    }
  }
}
node {
  name: "head/losses/weighted_loss/broadcast_weights/ones_like"
  op: "Fill"
  input: "head/losses/weighted_loss/broadcast_weights/ones_like/Shape"
  input: "head/losses/weighted_loss/broadcast_weights/ones_like/Const"
  attr {
    key: "T"
    value {
      type: DT_FLOAT
    }
  }
  attr {
    key: "_output_shapes"
    value {
      list {
        shape {
          dim {
            size: 6
          }
          dim {
            size: 1
          }
        }
      }
    }
  }
  attr {
    key: "index_type"
    value {
      type: DT_INT32
    }
  }
}
node {
  name: "head/losses/weighted_loss/broadcast_weights"
  op: "Mul"
  input: "head/losses/weighted_loss/Cast/x"
  input: "head/losses/weighted_loss/broadcast_weights/ones_like"
  attr {
    key: "T"
    value {
      type: DT_FLOAT
    }
  }
  attr {
    key: "_output_shapes"
    value {
      list {
        shape {
          dim {
            size: 6
          }
          dim {
            size: 1
          }
        }
      }
    }
  }
}
node {
  name: "head/losses/weighted_loss/Mul"
  op: "Mul"
  input: "head/losses/mean_squared_error/Mul"
  input: "head/losses/weighted_loss/broadcast_weights"
  attr {
    key: "T"
    value {
      type: DT_FLOAT
    }
  }
  attr {
    key: "_output_shapes"
    value {
      list {
        shape {
          dim {
            size: 6
          }
          dim {
            size: 1
          }
        }
      }
    }
  }
}
node {
  name: "head/losses/weighted_loss/Const"
  op: "Const"
  attr {
    key: "_output_shapes"
    value {
      list {
        shape {
          dim {
            size: 2
          }
        }
      }
    }
  }
  attr {
    key: "dtype"
    value {
      type: DT_INT32
    }
  }
  attr {
    key: "value"
    value {
      tensor {
        dtype: DT_INT32
        tensor_shape {
          dim {
            size: 2
          }
        }
        tensor_content: "\000\000\000\000\001\000\000\000"
      }
    }
  }
}
node {
  name: "head/losses/weighted_loss/Sum"
  op: "Sum"
  input: "head/losses/weighted_loss/Mul"
  input: "head/losses/weighted_loss/Const"
  attr {
    key: "T"
    value {
      type: DT_FLOAT
    }
  }
  attr {
    key: "Tidx"
    value {
      type: DT_INT32
    }
  }
  attr {
    key: "_output_shapes"
    value {
      list {
        shape {
        }
      }
    }
  }
  attr {
    key: "keep_dims"
    value {
      b: false
    }
  }
}
node {
  name: "head/losses/weighted_loss/num_elements"
  op: "Const"
  attr {
    key: "_output_shapes"
    value {
      list {
        shape {
        }
      }
    }
  }
  attr {
    key: "dtype"
    value {
      type: DT_INT32
    }
  }
  attr {
    key: "value"
    value {
      tensor {
        dtype: DT_INT32
        tensor_shape {
        }
        int_val: 6
      }
    }
  }
}
node {
  name: "head/losses/weighted_loss/num_elements/Cast"
  op: "Cast"
  input: "head/losses/weighted_loss/num_elements"
  attr {
    key: "DstT"
    value {
      type: DT_FLOAT
    }
  }
  attr {
    key: "SrcT"
    value {
      type: DT_INT32
    }
  }
  attr {
    key: "Truncate"
    value {
      b: false
    }
  }
  attr {
    key: "_output_shapes"
    value {
      list {
        shape {
        }
      }
    }
  }
}
node {
  name: "head/losses/weighted_loss/Const_1"
  op: "Const"
  attr {
    key: "_output_shapes"
    value {
      list {
        shape {
          dim {
          }
        }
      }
    }
  }
  attr {
    key: "dtype"
    value {
      type: DT_INT32
    }
  }
  attr {
    key: "value"
    value {
      tensor {
        dtype: DT_INT32
        tensor_shape {
          dim {
          }
        }
      }
    }
  }
}
node {
  name: "head/losses/weighted_loss/Sum_1"
  op: "Sum"
  input: "head/losses/weighted_loss/Sum"
  input: "head/losses/weighted_loss/Const_1"
  attr {
    key: "T"
    value {
      type: DT_FLOAT
    }
  }
  attr {
    key: "Tidx"
    value {
      type: DT_INT32
    }
  }
  attr {
    key: "_output_shapes"
    value {
      list {
        shape {
        }
      }
    }
  }
  attr {
    key: "keep_dims"
    value {
      b: false
    }
  }
}
node {
  name: "head/losses/weighted_loss/value"
  op: "DivNoNan"
  input: "head/losses/weighted_loss/Sum_1"
  input: "head/losses/weighted_loss/num_elements/Cast"
  attr {
    key: "T"
    value {
      type: DT_FLOAT
    }
  }
  attr {
    key: "_output_shapes"
    value {
      list {
        shape {
        }
      }
    }
  }
}
node {
  name: "training/Ftrl/gradients/gradients/Shape"
  op: "Const"
  attr {
    key: "_output_shapes"
    value {
      list {
        shape {
          dim {
          }
        }
      }
    }
  }
  attr {
    key: "dtype"
    value {
      type: DT_INT32
    }
  }
  attr {
    key: "value"
    value {
      tensor {
        dtype: DT_INT32
        tensor_shape {
          dim {
          }
        }
      }
    }
  }
}
node {
  name: "training/Ftrl/gradients/gradients/grad_ys_0"
  op: "Const"
  attr {
    key: "_output_shapes"
    value {
      list {
        shape {
        }
      }
    }
  }
  attr {
    key: "dtype"
    value {
      type: DT_FLOAT
    }
  }
  attr {
    key: "value"
    value {
      tensor {
        dtype: DT_FLOAT
        tensor_shape {
        }
        float_val: 1.0
      }
    }
  }
}
node {
  name: "training/Ftrl/gradients/gradients/Fill"
  op: "Fill"
  input: "training/Ftrl/gradients/gradients/Shape"
  input: "training/Ftrl/gradients/gradients/grad_ys_0"
  attr {
    key: "T"
    value {
      type: DT_FLOAT
    }
  }
  attr {
    key: "_output_shapes"
    value {
      list {
        shape {
        }
      }
    }
  }
  attr {
    key: "index_type"
    value {
      type: DT_INT32
    }
  }
}
node {
  name: "training/Ftrl/gradients/gradients/head/losses/weighted_loss/value_grad/Shape"
  op: "Const"
  attr {
    key: "_output_shapes"
    value {
      list {
        shape {
          dim {
          }
        }
      }
    }
  }
  attr {
    key: "dtype"
    value {
      type: DT_INT32
    }
  }
  attr {
    key: "value"
    value {
      tensor {
        dtype: DT_INT32
        tensor_shape {
          dim {
          }
        }
      }
    }
  }
}
node {
  name: "training/Ftrl/gradients/gradients/head/losses/weighted_loss/value_grad/Shape_1"
  op: "Const"
  attr {
    key: "_output_shapes"
    value {
      list {
        shape {
          dim {
          }
        }
      }
    }
  }
  attr {
    key: "dtype"
    value {
      type: DT_INT32
    }
  }
  attr {
    key: "value"
    value {
      tensor {
        dtype: DT_INT32
        tensor_shape {
          dim {
          }
        }
      }
    }
  }
}
node {
  name: "training/Ftrl/gradients/gradients/head/losses/weighted_loss/value_grad/BroadcastGradientArgs"
  op: "BroadcastGradientArgs"
  input: "training/Ftrl/gradients/gradients/head/losses/weighted_loss/value_grad/Shape"
  input: "training/Ftrl/gradients/gradients/head/losses/weighted_loss/value_grad/Shape_1"
  attr {
    key: "T"
    value {
      type: DT_INT32
    }
  }
  attr {
    key: "_output_shapes"
    value {
      list {
        shape {
          dim {
            size: -1
          }
        }
        shape {
          dim {
            size: -1
          }
        }
      }
    }
  }
}
node {
  name: "training/Ftrl/gradients/gradients/head/losses/weighted_loss/value_grad/div_no_nan"
  op: "DivNoNan"
  input: "training/Ftrl/gradients/gradients/Fill"
  input: "head/losses/weighted_loss/num_elements/Cast"
  attr {
    key: "T"
    value {
      type: DT_FLOAT
    }
  }
  attr {
    key: "_output_shapes"
    value {
      list {
        shape {
        }
      }
    }
  }
}
node {
  name: "training/Ftrl/gradients/gradients/head/losses/weighted_loss/value_grad/Sum"
  op: "Sum"
  input: "training/Ftrl/gradients/gradients/head/losses/weighted_loss/value_grad/div_no_nan"
  input: "training/Ftrl/gradients/gradients/head/losses/weighted_loss/value_grad/BroadcastGradientArgs"
  attr {
    key: "T"
    value {
      type: DT_FLOAT
    }
  }
  attr {
    key: "Tidx"
    value {
      type: DT_INT32
    }
  }
  attr {
    key: "_output_shapes"
    value {
      list {
        shape {
        }
      }
    }
  }
  attr {
    key: "keep_dims"
    value {
      b: false
    }
  }
}
node {
  name: "training/Ftrl/gradients/gradients/head/losses/weighted_loss/value_grad/Reshape"
  op: "Reshape"
  input: "training/Ftrl/gradients/gradients/head/losses/weighted_loss/value_grad/Sum"
  input: "training/Ftrl/gradients/gradients/head/losses/weighted_loss/value_grad/Shape"
  attr {
    key: "T"
    value {
      type: DT_FLOAT
    }
  }
  attr {
    key: "Tshape"
    value {
      type: DT_INT32
    }
  }
  attr {
    key: "_output_shapes"
    value {
      list {
        shape {
        }
      }
    }
  }
}
node {
  name: "training/Ftrl/gradients/gradients/head/losses/weighted_loss/value_grad/Neg"
  op: "Neg"
  input: "head/losses/weighted_loss/Sum_1"
  attr {
    key: "T"
    value {
      type: DT_FLOAT
    }
  }
  attr {
    key: "_output_shapes"
    value {
      list {
        shape {
        }
      }
    }
  }
}
node {
  name: "training/Ftrl/gradients/gradients/head/losses/weighted_loss/value_grad/div_no_nan_1"
  op: "DivNoNan"
  input: "training/Ftrl/gradients/gradients/head/losses/weighted_loss/value_grad/Neg"
  input: "head/losses/weighted_loss/num_elements/Cast"
  attr {
    key: "T"
    value {
      type: DT_FLOAT
    }
  }
  attr {
    key: "_output_shapes"
    value {
      list {
        shape {
        }
      }
    }
  }
}
node {
  name: "training/Ftrl/gradients/gradients/head/losses/weighted_loss/value_grad/div_no_nan_2"
  op: "DivNoNan"
  input: "training/Ftrl/gradients/gradients/head/losses/weighted_loss/value_grad/div_no_nan_1"
  input: "head/losses/weighted_loss/num_elements/Cast"
  attr {
    key: "T"
    value {
      type: DT_FLOAT
    }
  }
  attr {
    key: "_output_shapes"
    value {
      list {
        shape {
        }
      }
    }
  }
}
node {
  name: "training/Ftrl/gradients/gradients/head/losses/weighted_loss/value_grad/mul"
  op: "Mul"
  input: "training/Ftrl/gradients/gradients/Fill"
  input: "training/Ftrl/gradients/gradients/head/losses/weighted_loss/value_grad/div_no_nan_2"
  attr {
    key: "T"
    value {
      type: DT_FLOAT
    }
  }
  attr {
    key: "_output_shapes"
    value {
      list {
        shape {
        }
      }
    }
  }
}
node {
  name: "training/Ftrl/gradients/gradients/head/losses/weighted_loss/value_grad/Sum_1"
  op: "Sum"
  input: "training/Ftrl/gradients/gradients/head/losses/weighted_loss/value_grad/mul"
  input: "training/Ftrl/gradients/gradients/head/losses/weighted_loss/value_grad/BroadcastGradientArgs:1"
  attr {
    key: "T"
    value {
      type: DT_FLOAT
    }
  }
  attr {
    key: "Tidx"
    value {
      type: DT_INT32
    }
  }
  attr {
    key: "_output_shapes"
    value {
      list {
        shape {
        }
      }
    }
  }
  attr {
    key: "keep_dims"
    value {
      b: false
    }
  }
}
node {
  name: "training/Ftrl/gradients/gradients/head/losses/weighted_loss/value_grad/Reshape_1"
  op: "Reshape"
  input: "training/Ftrl/gradients/gradients/head/losses/weighted_loss/value_grad/Sum_1"
  input: "training/Ftrl/gradients/gradients/head/losses/weighted_loss/value_grad/Shape_1"
  attr {
    key: "T"
    value {
      type: DT_FLOAT
    }
  }
  attr {
    key: "Tshape"
    value {
      type: DT_INT32
    }
  }
  attr {
    key: "_output_shapes"
    value {
      list {
        shape {
        }
      }
    }
  }
}
node {
  name: "training/Ftrl/gradients/gradients/head/losses/weighted_loss/Sum_1_grad/Reshape/shape"
  op: "Const"
  attr {
    key: "_output_shapes"
    value {
      list {
        shape {
          dim {
          }
        }
      }
    }
  }
  attr {
    key: "dtype"
    value {
      type: DT_INT32
    }
  }
  attr {
    key: "value"
    value {
      tensor {
        dtype: DT_INT32
        tensor_shape {
          dim {
          }
        }
      }
    }
  }
}
node {
  name: "training/Ftrl/gradients/gradients/head/losses/weighted_loss/Sum_1_grad/Reshape"
  op: "Reshape"
  input: "training/Ftrl/gradients/gradients/head/losses/weighted_loss/value_grad/Reshape"
  input: "training/Ftrl/gradients/gradients/head/losses/weighted_loss/Sum_1_grad/Reshape/shape"
  attr {
    key: "T"
    value {
      type: DT_FLOAT
    }
  }
  attr {
    key: "Tshape"
    value {
      type: DT_INT32
    }
  }
  attr {
    key: "_output_shapes"
    value {
      list {
        shape {
        }
      }
    }
  }
}
node {
  name: "training/Ftrl/gradients/gradients/head/losses/weighted_loss/Sum_1_grad/Const"
  op: "Const"
  attr {
    key: "_output_shapes"
    value {
      list {
        shape {
          dim {
          }
        }
      }
    }
  }
  attr {
    key: "dtype"
    value {
      type: DT_INT32
    }
  }
  attr {
    key: "value"
    value {
      tensor {
        dtype: DT_INT32
        tensor_shape {
          dim {
          }
        }
      }
    }
  }
}
node {
  name: "training/Ftrl/gradients/gradients/head/losses/weighted_loss/Sum_1_grad/Tile"
  op: "Tile"
  input: "training/Ftrl/gradients/gradients/head/losses/weighted_loss/Sum_1_grad/Reshape"
  input: "training/Ftrl/gradients/gradients/head/losses/weighted_loss/Sum_1_grad/Const"
  attr {
    key: "T"
    value {
      type: DT_FLOAT
    }
  }
  attr {
    key: "Tmultiples"
    value {
      type: DT_INT32
    }
  }
  attr {
    key: "_output_shapes"
    value {
      list {
        shape {
        }
      }
    }
  }
}
node {
  name: "training/Ftrl/gradients/gradients/head/losses/weighted_loss/Sum_grad/Reshape/shape"
  op: "Const"
  attr {
    key: "_output_shapes"
    value {
      list {
        shape {
          dim {
            size: 2
          }
        }
      }
    }
  }
  attr {
    key: "dtype"
    value {
      type: DT_INT32
    }
  }
  attr {
    key: "value"
    value {
      tensor {
        dtype: DT_INT32
        tensor_shape {
          dim {
            size: 2
          }
        }
        tensor_content: "\001\000\000\000\001\000\000\000"
      }
    }
  }
}
node {
  name: "training/Ftrl/gradients/gradients/head/losses/weighted_loss/Sum_grad/Reshape"
  op: "Reshape"
  input: "training/Ftrl/gradients/gradients/head/losses/weighted_loss/Sum_1_grad/Tile"
  input: "training/Ftrl/gradients/gradients/head/losses/weighted_loss/Sum_grad/Reshape/shape"
  attr {
    key: "T"
    value {
      type: DT_FLOAT
    }
  }
  attr {
    key: "Tshape"
    value {
      type: DT_INT32
    }
  }
  attr {
    key: "_output_shapes"
    value {
      list {
        shape {
          dim {
            size: 1
          }
          dim {
            size: 1
          }
        }
      }
    }
  }
}
node {
  name: "training/Ftrl/gradients/gradients/head/losses/weighted_loss/Sum_grad/Const"
  op: "Const"
  attr {
    key: "_output_shapes"
    value {
      list {
        shape {
          dim {
            size: 2
          }
        }
      }
    }
  }
  attr {
    key: "dtype"
    value {
      type: DT_INT32
    }
  }
  attr {
    key: "value"
    value {
      tensor {
        dtype: DT_INT32
        tensor_shape {
          dim {
            size: 2
          }
        }
        tensor_content: "\006\000\000\000\001\000\000\000"
      }
    }
  }
}
node {
  name: "training/Ftrl/gradients/gradients/head/losses/weighted_loss/Sum_grad/Tile"
  op: "Tile"
  input: "training/Ftrl/gradients/gradients/head/losses/weighted_loss/Sum_grad/Reshape"
  input: "training/Ftrl/gradients/gradients/head/losses/weighted_loss/Sum_grad/Const"
  attr {
    key: "T"
    value {
      type: DT_FLOAT
    }
  }
  attr {
    key: "Tmultiples"
    value {
      type: DT_INT32
    }
  }
  attr {
    key: "_output_shapes"
    value {
      list {
        shape {
          dim {
            size: 6
          }
          dim {
            size: 1
          }
        }
      }
    }
  }
}
node {
  name: "training/Ftrl/gradients/gradients/head/losses/weighted_loss/Mul_grad/Mul"
  op: "Mul"
  input: "training/Ftrl/gradients/gradients/head/losses/weighted_loss/Sum_grad/Tile"
  input: "head/losses/weighted_loss/broadcast_weights"
  attr {
    key: "T"
    value {
      type: DT_FLOAT
    }
  }
  attr {
    key: "_output_shapes"
    value {
      list {
        shape {
          dim {
            size: 6
          }
          dim {
            size: 1
          }
        }
      }
    }
  }
}
node {
  name: "training/Ftrl/gradients/gradients/head/losses/weighted_loss/Mul_grad/Mul_1"
  op: "Mul"
  input: "training/Ftrl/gradients/gradients/head/losses/weighted_loss/Sum_grad/Tile"
  input: "head/losses/mean_squared_error/Mul"
  attr {
    key: "T"
    value {
      type: DT_FLOAT
    }
  }
  attr {
    key: "_output_shapes"
    value {
      list {
        shape {
          dim {
            size: 6
          }
          dim {
            size: 1
          }
        }
      }
    }
  }
}
node {
  name: "training/Ftrl/gradients/gradients/head/losses/mean_squared_error/Mul_grad/BroadcastGradientArgs/s0"
  op: "Const"
  attr {
    key: "_output_shapes"
    value {
      list {
        shape {
          dim {
            size: 2
          }
        }
      }
    }
  }
  attr {
    key: "dtype"
    value {
      type: DT_INT32
    }
  }
  attr {
    key: "value"
    value {
      tensor {
        dtype: DT_INT32
        tensor_shape {
          dim {
            size: 2
          }
        }
        tensor_content: "\006\000\000\000\001\000\000\000"
      }
    }
  }
}
node {
  name: "training/Ftrl/gradients/gradients/head/losses/mean_squared_error/Mul_grad/BroadcastGradientArgs/s1"
  op: "Const"
  attr {
    key: "_output_shapes"
    value {
      list {
        shape {
          dim {
          }
        }
      }
    }
  }
  attr {
    key: "dtype"
    value {
      type: DT_INT32
    }
  }
  attr {
    key: "value"
    value {
      tensor {
        dtype: DT_INT32
        tensor_shape {
          dim {
          }
        }
      }
    }
  }
}
node {
  name: "training/Ftrl/gradients/gradients/head/losses/mean_squared_error/Mul_grad/BroadcastGradientArgs"
  op: "BroadcastGradientArgs"
  input: "training/Ftrl/gradients/gradients/head/losses/mean_squared_error/Mul_grad/BroadcastGradientArgs/s0"
  input: "training/Ftrl/gradients/gradients/head/losses/mean_squared_error/Mul_grad/BroadcastGradientArgs/s1"
  attr {
    key: "T"
    value {
      type: DT_INT32
    }
  }
  attr {
    key: "_output_shapes"
    value {
      list {
        shape {
          dim {
            size: -1
          }
        }
        shape {
          dim {
            size: -1
          }
        }
      }
    }
  }
}
node {
  name: "training/Ftrl/gradients/gradients/head/losses/mean_squared_error/Mul_grad/Mul"
  op: "Mul"
  input: "training/Ftrl/gradients/gradients/head/losses/weighted_loss/Mul_grad/Mul"
  input: "head/losses/mean_squared_error/Cast/x"
  attr {
    key: "T"
    value {
      type: DT_FLOAT
    }
  }
  attr {
    key: "_output_shapes"
    value {
      list {
        shape {
          dim {
            size: 6
          }
          dim {
            size: 1
          }
        }
      }
    }
  }
}
node {
  name: "training/Ftrl/gradients/gradients/head/losses/mean_squared_error/Mul_grad/Mul_1"
  op: "Mul"
  input: "head/losses/mean_squared_error/SquaredDifference"
  input: "training/Ftrl/gradients/gradients/head/losses/weighted_loss/Mul_grad/Mul"
  attr {
    key: "T"
    value {
      type: DT_FLOAT
    }
  }
  attr {
    key: "_output_shapes"
    value {
      list {
        shape {
          dim {
            size: 6
          }
          dim {
            size: 1
          }
        }
      }
    }
  }
}
node {
  name: "training/Ftrl/gradients/gradients/head/losses/mean_squared_error/Mul_grad/Sum/reduction_indices"
  op: "Const"
  attr {
    key: "_output_shapes"
    value {
      list {
        shape {
          dim {
            size: 2
          }
        }
      }
    }
  }
  attr {
    key: "dtype"
    value {
      type: DT_INT32
    }
  }
  attr {
    key: "value"
    value {
      tensor {
        dtype: DT_INT32
        tensor_shape {
          dim {
            size: 2
          }
        }
        tensor_content: "\000\000\000\000\001\000\000\000"
      }
    }
  }
}
node {
  name: "training/Ftrl/gradients/gradients/head/losses/mean_squared_error/Mul_grad/Sum"
  op: "Sum"
  input: "training/Ftrl/gradients/gradients/head/losses/mean_squared_error/Mul_grad/Mul_1"
  input: "training/Ftrl/gradients/gradients/head/losses/mean_squared_error/Mul_grad/Sum/reduction_indices"
  attr {
    key: "T"
    value {
      type: DT_FLOAT
    }
  }
  attr {
    key: "Tidx"
    value {
      type: DT_INT32
    }
  }
  attr {
    key: "_output_shapes"
    value {
      list {
        shape {
        }
      }
    }
  }
  attr {
    key: "keep_dims"
    value {
      b: false
    }
  }
}
node {
  name: "training/Ftrl/gradients/gradients/head/losses/mean_squared_error/Mul_grad/Reshape/shape"
  op: "Const"
  attr {
    key: "_output_shapes"
    value {
      list {
        shape {
          dim {
          }
        }
      }
    }
  }
  attr {
    key: "dtype"
    value {
      type: DT_INT32
    }
  }
  attr {
    key: "value"
    value {
      tensor {
        dtype: DT_INT32
        tensor_shape {
          dim {
          }
        }
      }
    }
  }
}
node {
  name: "training/Ftrl/gradients/gradients/head/losses/mean_squared_error/Mul_grad/Reshape"
  op: "Reshape"
  input: "training/Ftrl/gradients/gradients/head/losses/mean_squared_error/Mul_grad/Sum"
  input: "training/Ftrl/gradients/gradients/head/losses/mean_squared_error/Mul_grad/Reshape/shape"
  attr {
    key: "T"
    value {
      type: DT_FLOAT
    }
  }
  attr {
    key: "Tshape"
    value {
      type: DT_INT32
    }
  }
  attr {
    key: "_output_shapes"
    value {
      list {
        shape {
        }
      }
    }
  }
}
node {
  name: "training/Ftrl/gradients/gradients/head/losses/mean_squared_error/SquaredDifference_grad/scalar"
  op: "Const"
  input: "^training/Ftrl/gradients/gradients/head/losses/mean_squared_error/Mul_grad/Mul"
  attr {
    key: "_output_shapes"
    value {
      list {
        shape {
        }
      }
    }
  }
  attr {
    key: "dtype"
    value {
      type: DT_FLOAT
    }
  }
  attr {
    key: "value"
    value {
      tensor {
        dtype: DT_FLOAT
        tensor_shape {
        }
        float_val: 2.0
      }
    }
  }
}
node {
  name: "training/Ftrl/gradients/gradients/head/losses/mean_squared_error/SquaredDifference_grad/Mul"
  op: "Mul"
  input: "training/Ftrl/gradients/gradients/head/losses/mean_squared_error/SquaredDifference_grad/scalar"
  input: "training/Ftrl/gradients/gradients/head/losses/mean_squared_error/Mul_grad/Mul"
  attr {
    key: "T"
    value {
      type: DT_FLOAT
    }
  }
  attr {
    key: "_output_shapes"
    value {
      list {
        shape {
          dim {
            size: 6
          }
          dim {
            size: 1
          }
        }
      }
    }
  }
}
node {
  name: "training/Ftrl/gradients/gradients/head/losses/mean_squared_error/SquaredDifference_grad/sub"
  op: "Sub"
  input: "linear/linear_model/linear/linear_model/linear/linear_model/weighted_sum"
  input: "head/losses/ToFloat"
  input: "^training/Ftrl/gradients/gradients/head/losses/mean_squared_error/Mul_grad/Mul"
  attr {
    key: "T"
    value {
      type: DT_FLOAT
    }
  }
  attr {
    key: "_output_shapes"
    value {
      list {
        shape {
          dim {
            size: 6
          }
          dim {
            size: 1
          }
        }
      }
    }
  }
}
node {
  name: "training/Ftrl/gradients/gradients/head/losses/mean_squared_error/SquaredDifference_grad/mul_1"
  op: "Mul"
  input: "training/Ftrl/gradients/gradients/head/losses/mean_squared_error/SquaredDifference_grad/Mul"
  input: "training/Ftrl/gradients/gradients/head/losses/mean_squared_error/SquaredDifference_grad/sub"
  attr {
    key: "T"
    value {
      type: DT_FLOAT
    }
  }
  attr {
    key: "_output_shapes"
    value {
      list {
        shape {
          dim {
            size: 6
          }
          dim {
            size: 1
          }
        }
      }
    }
  }
}
node {
  name: "training/Ftrl/gradients/gradients/head/losses/mean_squared_error/SquaredDifference_grad/Neg"
  op: "Neg"
  input: "training/Ftrl/gradients/gradients/head/losses/mean_squared_error/SquaredDifference_grad/mul_1"
  attr {
    key: "T"
    value {
      type: DT_FLOAT
    }
  }
  attr {
    key: "_output_shapes"
    value {
      list {
        shape {
          dim {
            size: 6
          }
          dim {
            size: 1
          }
        }
      }
    }
  }
}
node {
  name: "training/Ftrl/gradients/gradients/linear/linear_model/linear/linear_model/linear/linear_model/weighted_sum_grad/BiasAddGrad"
  op: "BiasAddGrad"
  input: "training/Ftrl/gradients/gradients/head/losses/mean_squared_error/SquaredDifference_grad/mul_1"
  attr {
    key: "T"
    value {
      type: DT_FLOAT
    }
  }
  attr {
    key: "_output_shapes"
    value {
      list {
        shape {
          dim {
            size: 1
          }
        }
      }
    }
  }
  attr {
    key: "data_format"
    value {
      s: "NHWC"
    }
  }
}
node {
  name: "training/Ftrl/gradients/gradients/linear/linear_model/linear/linear_model/linear/linear_model/sq_footage/weighted_sum_grad/MatMul"
  op: "MatMul"
  input: "training/Ftrl/gradients/gradients/head/losses/mean_squared_error/SquaredDifference_grad/mul_1"
  input: "linear/linear_model/linear/linear_model/linear/linear_model/sq_footage/weighted_sum/ReadVariableOp"
  attr {
    key: "T"
    value {
      type: DT_FLOAT
    }
  }
  attr {
    key: "_output_shapes"
    value {
      list {
        shape {
          dim {
            size: 6
          }
          dim {
            size: 1
          }
        }
      }
    }
  }
  attr {
    key: "transpose_a"
    value {
      b: false
    }
  }
  attr {
    key: "transpose_b"
    value {
      b: true
    }
  }
}
node {
  name: "training/Ftrl/gradients/gradients/linear/linear_model/linear/linear_model/linear/linear_model/sq_footage/weighted_sum_grad/MatMul_1"
  op: "MatMul"
  input: "linear/linear_model/linear/linear_model/linear/linear_model/sq_footage/Reshape"
  input: "training/Ftrl/gradients/gradients/head/losses/mean_squared_error/SquaredDifference_grad/mul_1"
  attr {
    key: "T"
    value {
      type: DT_FLOAT
    }
  }
  attr {
    key: "_output_shapes"
    value {
      list {
        shape {
          dim {
            size: 1
          }
          dim {
            size: 1
          }
        }
      }
    }
  }
  attr {
    key: "transpose_a"
    value {
      b: true
    }
  }
  attr {
    key: "transpose_b"
    value {
      b: false
    }
  }
}
node {
  name: "training/Ftrl/gradients/gradients/linear/linear_model/linear/linear_model/linear/linear_model/type/weighted_sum/Reshape_2_grad/Shape"
  op: "Const"
  attr {
    key: "_output_shapes"
    value {
      list {
        shape {
          dim {
            size: 2
          }
        }
      }
    }
  }
  attr {
    key: "dtype"
    value {
      type: DT_INT32
    }
  }
  attr {
    key: "value"
    value {
      tensor {
        dtype: DT_INT32
        tensor_shape {
          dim {
            size: 2
          }
        }
        tensor_content: "\006\000\000\000\001\000\000\000"
      }
    }
  }
}
node {
  name: "training/Ftrl/gradients/gradients/linear/linear_model/linear/linear_model/linear/linear_model/type/weighted_sum/Reshape_2_grad/Reshape"
  op: "Reshape"
  input: "training/Ftrl/gradients/gradients/head/losses/mean_squared_error/SquaredDifference_grad/mul_1"
  input: "training/Ftrl/gradients/gradients/linear/linear_model/linear/linear_model/linear/linear_model/type/weighted_sum/Reshape_2_grad/Shape"
  attr {
    key: "T"
    value {
      type: DT_FLOAT
    }
  }
  attr {
    key: "Tshape"
    value {
      type: DT_INT32
    }
  }
  attr {
    key: "_output_shapes"
    value {
      list {
        shape {
          dim {
            size: 6
          }
          dim {
            size: 1
          }
        }
      }
    }
  }
}
node {
  name: "training/Ftrl/gradients/gradients/linear/linear_model/linear/linear_model/linear/linear_model/type/weighted_sum_grad/zeros_like"
  op: "ZerosLike"
  input: "linear/linear_model/linear/linear_model/linear/linear_model/type/weighted_sum/zeros_like"
  attr {
    key: "T"
    value {
      type: DT_FLOAT
    }
  }
  attr {
    key: "_output_shapes"
    value {
      list {
        shape {
          dim {
            size: -1
          }
          dim {
            size: 1
          }
        }
      }
    }
  }
}
node {
  name: "training/Ftrl/gradients/gradients/linear/linear_model/linear/linear_model/linear/linear_model/type/weighted_sum_grad/Select"
  op: "Select"
  input: "linear/linear_model/linear/linear_model/linear/linear_model/type/weighted_sum/Tile"
  input: "training/Ftrl/gradients/gradients/linear/linear_model/linear/linear_model/linear/linear_model/type/weighted_sum/Reshape_2_grad/Reshape"
  input: "training/Ftrl/gradients/gradients/linear/linear_model/linear/linear_model/linear/linear_model/type/weighted_sum_grad/zeros_like"
  attr {
    key: "T"
    value {
      type: DT_FLOAT
    }
  }
  attr {
    key: "_output_shapes"
    value {
      list {
        shape {
          dim {
            size: 6
          }
          dim {
            size: 1
          }
        }
      }
    }
  }
}
node {
  name: "training/Ftrl/gradients/gradients/linear/linear_model/linear/linear_model/linear/linear_model/type/weighted_sum_grad/Select_1"
  op: "Select"
  input: "linear/linear_model/linear/linear_model/linear/linear_model/type/weighted_sum/Tile"
  input: "training/Ftrl/gradients/gradients/linear/linear_model/linear/linear_model/linear/linear_model/type/weighted_sum_grad/zeros_like"
  input: "training/Ftrl/gradients/gradients/linear/linear_model/linear/linear_model/linear/linear_model/type/weighted_sum/Reshape_2_grad/Reshape"
  attr {
    key: "T"
    value {
      type: DT_FLOAT
    }
  }
  attr {
    key: "_output_shapes"
    value {
      list {
        shape {
          dim {
            size: 6
          }
          dim {
            size: 1
          }
        }
      }
    }
  }
}
node {
  name: "training/Ftrl/gradients/gradients/linear/linear_model/linear/linear_model/linear/linear_model/type/weighted_sum/embedding_lookup_sparse_grad/Shape"
  op: "Shape"
  input: "linear/linear_model/linear/linear_model/linear/linear_model/type/weighted_sum/embedding_lookup_sparse/embedding_lookup/Identity_1"
  attr {
    key: "T"
    value {
      type: DT_FLOAT
    }
  }
  attr {
    key: "_output_shapes"
    value {
      list {
        shape {
          dim {
            size: 2
          }
        }
      }
    }
  }
  attr {
    key: "out_type"
    value {
      type: DT_INT32
    }
  }
}
node {
  name: "training/Ftrl/gradients/gradients/linear/linear_model/linear/linear_model/linear/linear_model/type/weighted_sum/embedding_lookup_sparse_grad/strided_slice/stack"
  op: "Const"
  attr {
    key: "_output_shapes"
    value {
      list {
        shape {
          dim {
            size: 1
          }
        }
      }
    }
  }
  attr {
    key: "dtype"
    value {
      type: DT_INT32
    }
  }
  attr {
    key: "value"
    value {
      tensor {
        dtype: DT_INT32
        tensor_shape {
          dim {
            size: 1
          }
        }
        int_val: 0
      }
    }
  }
}
node {
  name: "training/Ftrl/gradients/gradients/linear/linear_model/linear/linear_model/linear/linear_model/type/weighted_sum/embedding_lookup_sparse_grad/strided_slice/stack_1"
  op: "Const"
  attr {
    key: "_output_shapes"
    value {
      list {
        shape {
          dim {
            size: 1
          }
        }
      }
    }
  }
  attr {
    key: "dtype"
    value {
      type: DT_INT32
    }
  }
  attr {
    key: "value"
    value {
      tensor {
        dtype: DT_INT32
        tensor_shape {
          dim {
            size: 1
          }
        }
        int_val: 1
      }
    }
  }
}
node {
  name: "training/Ftrl/gradients/gradients/linear/linear_model/linear/linear_model/linear/linear_model/type/weighted_sum/embedding_lookup_sparse_grad/strided_slice/stack_2"
  op: "Const"
  attr {
    key: "_output_shapes"
    value {
      list {
        shape {
          dim {
            size: 1
          }
        }
      }
    }
  }
  attr {
    key: "dtype"
    value {
      type: DT_INT32
    }
  }
  attr {
    key: "value"
    value {
      tensor {
        dtype: DT_INT32
        tensor_shape {
          dim {
            size: 1
          }
        }
        int_val: 1
      }
    }
  }
}
node {
  name: "training/Ftrl/gradients/gradients/linear/linear_model/linear/linear_model/linear/linear_model/type/weighted_sum/embedding_lookup_sparse_grad/strided_slice"
  op: "StridedSlice"
  input: "training/Ftrl/gradients/gradients/linear/linear_model/linear/linear_model/linear/linear_model/type/weighted_sum/embedding_lookup_sparse_grad/Shape"
  input: "training/Ftrl/gradients/gradients/linear/linear_model/linear/linear_model/linear/linear_model/type/weighted_sum/embedding_lookup_sparse_grad/strided_slice/stack"
  input: "training/Ftrl/gradients/gradients/linear/linear_model/linear/linear_model/linear/linear_model/type/weighted_sum/embedding_lookup_sparse_grad/strided_slice/stack_1"
  input: "training/Ftrl/gradients/gradients/linear/linear_model/linear/linear_model/linear/linear_model/type/weighted_sum/embedding_lookup_sparse_grad/strided_slice/stack_2"
  attr {
    key: "Index"
    value {
      type: DT_INT32
    }
  }
  attr {
    key: "T"
    value {
      type: DT_INT32
    }
  }
  attr {
    key: "_output_shapes"
    value {
      list {
        shape {
        }
      }
    }
  }
  attr {
    key: "begin_mask"
    value {
      i: 0
    }
  }
  attr {
    key: "ellipsis_mask"
    value {
      i: 0
    }
  }
  attr {
    key: "end_mask"
    value {
      i: 0
    }
  }
  attr {
    key: "new_axis_mask"
    value {
      i: 0
    }
  }
  attr {
    key: "shrink_axis_mask"
    value {
      i: 1
    }
  }
}
node {
  name: "training/Ftrl/gradients/gradients/linear/linear_model/linear/linear_model/linear/linear_model/type/weighted_sum/embedding_lookup_sparse_grad/GatherV2/axis"
  op: "Const"
  attr {
    key: "_output_shapes"
    value {
      list {
        shape {
        }
      }
    }
  }
  attr {
    key: "dtype"
    value {
      type: DT_INT32
    }
  }
  attr {
    key: "value"
    value {
      tensor {
        dtype: DT_INT32
        tensor_shape {
        }
        int_val: 0
      }
    }
  }
}
node {
  name: "training/Ftrl/gradients/gradients/linear/linear_model/linear/linear_model/linear/linear_model/type/weighted_sum/embedding_lookup_sparse_grad/GatherV2"
  op: "GatherV2"
  input: "training/Ftrl/gradients/gradients/linear/linear_model/linear/linear_model/linear/linear_model/type/weighted_sum_grad/Select_1"
  input: "linear/linear_model/linear/linear_model/linear/linear_model/type/weighted_sum/embedding_lookup_sparse/Cast"
  input: "training/Ftrl/gradients/gradients/linear/linear_model/linear/linear_model/linear/linear_model/type/weighted_sum/embedding_lookup_sparse_grad/GatherV2/axis"
  attr {
    key: "Taxis"
    value {
      type: DT_INT32
    }
  }
  attr {
    key: "Tindices"
    value {
      type: DT_INT32
    }
  }
  attr {
    key: "Tparams"
    value {
      type: DT_FLOAT
    }
  }
  attr {
    key: "_output_shapes"
    value {
      list {
        shape {
          dim {
            size: -1
          }
          dim {
            size: 1
          }
        }
      }
    }
  }
  attr {
    key: "batch_dims"
    value {
      i: 0
    }
  }
}
node {
  name: "training/Ftrl/gradients/gradients/linear/linear_model/linear/linear_model/linear/linear_model/type/weighted_sum/embedding_lookup_sparse_grad/UnsortedSegmentSum"
  op: "UnsortedSegmentSum"
  input: "training/Ftrl/gradients/gradients/linear/linear_model/linear/linear_model/linear/linear_model/type/weighted_sum/embedding_lookup_sparse_grad/GatherV2"
  input: "linear/linear_model/linear/linear_model/linear/linear_model/type/weighted_sum/embedding_lookup_sparse/Unique:1"
  input: "training/Ftrl/gradients/gradients/linear/linear_model/linear/linear_model/linear/linear_model/type/weighted_sum/embedding_lookup_sparse_grad/strided_slice"
  attr {
    key: "T"
    value {
      type: DT_FLOAT
    }
  }
  attr {
    key: "Tindices"
    value {
      type: DT_INT32
    }
  }
  attr {
    key: "Tnumsegments"
    value {
      type: DT_INT32
    }
  }
  attr {
    key: "_output_shapes"
    value {
      list {
        shape {
          dim {
            size: -1
          }
          dim {
            size: 1
          }
        }
      }
    }
  }
}
node {
  name: "training/Ftrl/gradients/gradients/linear/linear_model/linear/linear_model/linear/linear_model/type/weighted_sum/embedding_lookup_sparse/embedding_lookup_grad/Const"
  op: "Const"
  attr {
    key: "_output_shapes"
    value {
      list {
        shape {
          dim {
            size: 2
          }
        }
      }
    }
  }
  attr {
    key: "dtype"
    value {
      type: DT_INT32
    }
  }
  attr {
    key: "value"
    value {
      tensor {
        dtype: DT_INT32
        tensor_shape {
          dim {
            size: 2
          }
        }
        tensor_content: "\002\000\000\000\001\000\000\000"
      }
    }
  }
}
node {
  name: "training/Ftrl/gradients/gradients/linear/linear_model/linear/linear_model/linear/linear_model/type/weighted_sum/embedding_lookup_sparse/embedding_lookup_grad/Size"
  op: "Size"
  input: "linear/linear_model/linear/linear_model/linear/linear_model/type/weighted_sum/embedding_lookup_sparse/Unique"
  attr {
    key: "T"
    value {
      type: DT_INT64
    }
  }
  attr {
    key: "_output_shapes"
    value {
      list {
        shape {
        }
      }
    }
  }
  attr {
    key: "out_type"
    value {
      type: DT_INT32
    }
  }
}
node {
  name: "training/Ftrl/gradients/gradients/linear/linear_model/linear/linear_model/linear/linear_model/type/weighted_sum/embedding_lookup_sparse/embedding_lookup_grad/ExpandDims/dim"
  op: "Const"
  attr {
    key: "_output_shapes"
    value {
      list {
        shape {
        }
      }
    }
  }
  attr {
    key: "dtype"
    value {
      type: DT_INT32
    }
  }
  attr {
    key: "value"
    value {
      tensor {
        dtype: DT_INT32
        tensor_shape {
        }
        int_val: 0
      }
    }
  }
}
node {
  name: "training/Ftrl/gradients/gradients/linear/linear_model/linear/linear_model/linear/linear_model/type/weighted_sum/embedding_lookup_sparse/embedding_lookup_grad/ExpandDims"
  op: "ExpandDims"
  input: "training/Ftrl/gradients/gradients/linear/linear_model/linear/linear_model/linear/linear_model/type/weighted_sum/embedding_lookup_sparse/embedding_lookup_grad/Size"
  input: "training/Ftrl/gradients/gradients/linear/linear_model/linear/linear_model/linear/linear_model/type/weighted_sum/embedding_lookup_sparse/embedding_lookup_grad/ExpandDims/dim"
  attr {
    key: "T"
    value {
      type: DT_INT32
    }
  }
  attr {
    key: "Tdim"
    value {
      type: DT_INT32
    }
  }
  attr {
    key: "_output_shapes"
    value {
      list {
        shape {
          dim {
            size: 1
          }
        }
      }
    }
  }
}
node {
  name: "training/Ftrl/gradients/gradients/linear/linear_model/linear/linear_model/linear/linear_model/type/weighted_sum/embedding_lookup_sparse/embedding_lookup_grad/strided_slice/stack"
  op: "Const"
  attr {
    key: "_output_shapes"
    value {
      list {
        shape {
          dim {
            size: 1
          }
        }
      }
    }
  }
  attr {
    key: "dtype"
    value {
      type: DT_INT32
    }
  }
  attr {
    key: "value"
    value {
      tensor {
        dtype: DT_INT32
        tensor_shape {
          dim {
            size: 1
          }
        }
        int_val: 1
      }
    }
  }
}
node {
  name: "training/Ftrl/gradients/gradients/linear/linear_model/linear/linear_model/linear/linear_model/type/weighted_sum/embedding_lookup_sparse/embedding_lookup_grad/strided_slice/stack_1"
  op: "Const"
  attr {
    key: "_output_shapes"
    value {
      list {
        shape {
          dim {
            size: 1
          }
        }
      }
    }
  }
  attr {
    key: "dtype"
    value {
      type: DT_INT32
    }
  }
  attr {
    key: "value"
    value {
      tensor {
        dtype: DT_INT32
        tensor_shape {
          dim {
            size: 1
          }
        }
        int_val: 0
      }
    }
  }
}
node {
  name: "training/Ftrl/gradients/gradients/linear/linear_model/linear/linear_model/linear/linear_model/type/weighted_sum/embedding_lookup_sparse/embedding_lookup_grad/strided_slice/stack_2"
  op: "Const"
  attr {
    key: "_output_shapes"
    value {
      list {
        shape {
          dim {
            size: 1
          }
        }
      }
    }
  }
  attr {
    key: "dtype"
    value {
      type: DT_INT32
    }
  }
  attr {
    key: "value"
    value {
      tensor {
        dtype: DT_INT32
        tensor_shape {
          dim {
            size: 1
          }
        }
        int_val: 1
      }
    }
  }
}
node {
  name: "training/Ftrl/gradients/gradients/linear/linear_model/linear/linear_model/linear/linear_model/type/weighted_sum/embedding_lookup_sparse/embedding_lookup_grad/strided_slice"
  op: "StridedSlice"
  input: "training/Ftrl/gradients/gradients/linear/linear_model/linear/linear_model/linear/linear_model/type/weighted_sum/embedding_lookup_sparse/embedding_lookup_grad/Const"
…
    }
  }
}
node {
  name: "save/SaveV2"
  op: "SaveV2"
  input: "save/ShardedFilename"
  input: "save/SaveV2/tensor_names"
  input: "save/SaveV2/shape_and_slices"
  input: "global_step/Read/ReadVariableOp"
  input: "linear/linear_model/bias_weights/Read/ReadVariableOp"
  input: "linear/linear_model/sq_footage/weights/Read/ReadVariableOp"
  input: "linear/linear_model/type/weights/Read/ReadVariableOp"
  input: "training/Ftrl/decay/Read/ReadVariableOp"
  input: "training/Ftrl/l1_regularization_strength/Read/ReadVariableOp"
  input: "training/Ftrl/l2_regularization_strength/Read/ReadVariableOp"
  input: "training/Ftrl/learning_rate/Read/ReadVariableOp"
  input: "training/Ftrl/learning_rate_power/Read/ReadVariableOp"
  input: "training/Ftrl/linear/linear_model/bias_weights/accumulator/Read/ReadVariableOp"
  input: "training/Ftrl/linear/linear_model/bias_weights/linear/Read/ReadVariableOp"
  input: "training/Ftrl/linear/linear_model/sq_footage/weights/accumulator/Read/ReadVariableOp"
  input: "training/Ftrl/linear/linear_model/sq_footage/weights/linear/Read/ReadVariableOp"
  input: "training/Ftrl/linear/linear_model/type/weights/accumulator/Read/ReadVariableOp"
  input: "training/Ftrl/linear/linear_model/type/weights/linear/Read/ReadVariableOp"
  device: "/device:CPU:0"
  attr {
    key: "dtypes"
    value {
      list {
        type: DT_INT64
        type: DT_FLOAT
        type: DT_FLOAT
        type: DT_FLOAT
        type: DT_FLOAT
        type: DT_FLOAT
        type: DT_FLOAT
        type: DT_FLOAT
        type: DT_FLOAT
        type: DT_FLOAT
        type: DT_FLOAT
        type: DT_FLOAT
        type: DT_FLOAT
        type: DT_FLOAT
        type: DT_FLOAT
      }
    }
  }
}
node {
  name: "save/control_dependency"
  op: "Identity"
  input: "save/ShardedFilename"
  input: "^save/SaveV2"
  device: "/device:CPU:0"
  attr {
    key: "T"
    value {
      type: DT_STRING
    }
  }
  attr {
    key: "_class"
    value {
      list {
        s: "loc:@save/ShardedFilename"
      }
    }
  }
  attr {
    key: "_output_shapes"
    value {
      list {
        shape {
        }
      }
    }
  }
}
node {
  name: "save/MergeV2Checkpoints/checkpoint_prefixes"
  op: "Pack"
  input: "save/ShardedFilename"
  input: "^save/control_dependency"
  device: "/device:CPU:0"
  attr {
    key: "N"
    value {
      i: 1
    }
  }
  attr {
    key: "T"
    value {
      type: DT_STRING
    }
  }
  attr {
    key: "_output_shapes"
    value {
      list {
        shape {
          dim {
            size: 1
          }
        }
      }
    }
  }
  attr {
    key: "axis"
    value {
      i: 0
    }
  }
}
node {
  name: "save/MergeV2Checkpoints"
  op: "MergeV2Checkpoints"
  input: "save/MergeV2Checkpoints/checkpoint_prefixes"
  input: "save/Const"
  device: "/device:CPU:0"
  attr {
    key: "delete_old_dirs"
    value {
      b: true
    }
  }
}
node {
  name: "save/Identity"
  op: "Identity"
  input: "save/Const"
  input: "^save/MergeV2Checkpoints"
  input: "^save/control_dependency"
  device: "/device:CPU:0"
  attr {
    key: "T"
    value {
      type: DT_STRING
    }
  }
  attr {
    key: "_output_shapes"
    value {
      list {
        shape {
        }
      }
    }
  }
}
node {
  name: "save/RestoreV2/tensor_names"
  op: "Const"
  device: "/device:CPU:0"
  attr {
    key: "_output_shapes"
    value {
      list {
        shape {
          dim {
            size: 15
          }
        }
      }
    }
  }
  attr {
    key: "dtype"
    value {
      type: DT_STRING
    }
  }
  attr {
    key: "value"
    value {
      tensor {
        dtype: DT_STRING
        tensor_shape {
          dim {
            size: 15
          }
        }
        string_val: "global_step"
        string_val: "linear/linear_model/bias_weights"
        string_val: "linear/linear_model/sq_footage/weights"
        string_val: "linear/linear_model/type/weights"
        string_val: "training/Ftrl/decay"
        string_val: "training/Ftrl/l1_regularization_strength"
        string_val: "training/Ftrl/l2_regularization_strength"
        string_val: "training/Ftrl/learning_rate"
        string_val: "training/Ftrl/learning_rate_power"
        string_val: "training/Ftrl/linear/linear_model/bias_weights/accumulator"
        string_val: "training/Ftrl/linear/linear_model/bias_weights/linear"
        string_val: "training/Ftrl/linear/linear_model/sq_footage/weights/accumulator"
        string_val: "training/Ftrl/linear/linear_model/sq_footage/weights/linear"
        string_val: "training/Ftrl/linear/linear_model/type/weights/accumulator"
        string_val: "training/Ftrl/linear/linear_model/type/weights/linear"
      }
    }
  }
}
node {
  name: "save/RestoreV2/shape_and_slices"
  op: "Const"
  device: "/device:CPU:0"
  attr {
    key: "_output_shapes"
    value {
      list {
        shape {
          dim {
            size: 15
          }
        }
      }
    }
  }
  attr {
    key: "dtype"
    value {
      type: DT_STRING
    }
  }
  attr {
    key: "value"
    value {
      tensor {
        dtype: DT_STRING
        tensor_shape {
          dim {
            size: 15
          }
        }
        string_val: ""
        string_val: ""
        string_val: ""
        string_val: ""
        string_val: ""
        string_val: ""
        string_val: ""
        string_val: ""
        string_val: ""
        string_val: ""
        string_val: ""
        string_val: ""
        string_val: ""
        string_val: ""
        string_val: ""
      }
    }
  }
}
node {
  name: "save/RestoreV2"
  op: "RestoreV2"
  input: "save/Const"
  input: "save/RestoreV2/tensor_names"
  input: "save/RestoreV2/shape_and_slices"
  device: "/device:CPU:0"
  attr {
    key: "_output_shapes"
    value {
      list {
        shape {
          unknown_rank: true
        }
        shape {
          unknown_rank: true
        }
        shape {
          unknown_rank: true
        }
        shape {
          unknown_rank: true
        }
        shape {
          unknown_rank: true
        }
        shape {
          unknown_rank: true
        }
        shape {
          unknown_rank: true
        }
        shape {
          unknown_rank: true
        }
        shape {
          unknown_rank: true
        }
        shape {
          unknown_rank: true
        }
        shape {
          unknown_rank: true
        }
        shape {
          unknown_rank: true
        }
        shape {
          unknown_rank: true
        }
        shape {
          unknown_rank: true
        }
        shape {
          unknown_rank: true
        }
      }
    }
  }
  attr {
    key: "dtypes"
    value {
      list {
        type: DT_INT64
        type: DT_FLOAT
        type: DT_FLOAT
        type: DT_FLOAT
        type: DT_FLOAT
        type: DT_FLOAT
        type: DT_FLOAT
        type: DT_FLOAT
        type: DT_FLOAT
        type: DT_FLOAT
        type: DT_FLOAT
        type: DT_FLOAT
        type: DT_FLOAT
        type: DT_FLOAT
        type: DT_FLOAT
      }
    }
  }
}
node {
  name: "save/Identity_1"
  op: "Identity"
  input: "save/RestoreV2"
  attr {
    key: "T"
    value {
      type: DT_INT64
    }
  }
  attr {
    key: "_output_shapes"
    value {
      list {
        shape {
          unknown_rank: true
        }
      }
    }
  }
}
node {
  name: "save/AssignVariableOp"
  op: "AssignVariableOp"
  input: "global_step"
  input: "save/Identity_1"
  attr {
    key: "dtype"
    value {
      type: DT_INT64
    }
  }
}
node {
  name: "save/Identity_2"
  op: "Identity"
  input: "save/RestoreV2:1"
  attr {
    key: "T"
    value {
      type: DT_FLOAT
    }
  }
  attr {
    key: "_output_shapes"
    value {
      list {
        shape {
          unknown_rank: true
        }
      }
    }
  }
}
node {
  name: "save/AssignVariableOp_1"
  op: "AssignVariableOp"
  input: "linear/linear_model/bias_weights"
  input: "save/Identity_2"
  attr {
    key: "dtype"
    value {
      type: DT_FLOAT
    }
  }
}
node {
  name: "save/Identity_3"
  op: "Identity"
  input: "save/RestoreV2:2"
  attr {
    key: "T"
    value {
      type: DT_FLOAT
    }
  }
  attr {
    key: "_output_shapes"
    value {
      list {
        shape {
          unknown_rank: true
        }
      }
    }
  }
}
node {
  name: "save/AssignVariableOp_2"
  op: "AssignVariableOp"
  input: "linear/linear_model/sq_footage/weights"
  input: "save/Identity_3"
  attr {
    key: "dtype"
    value {
      type: DT_FLOAT
    }
  }
}
node {
  name: "save/Identity_4"
  op: "Identity"
  input: "save/RestoreV2:3"
  attr {
    key: "T"
    value {
      type: DT_FLOAT
    }
  }
  attr {
    key: "_output_shapes"
    value {
      list {
        shape {
          unknown_rank: true
        }
      }
    }
  }
}
node {
  name: "save/AssignVariableOp_3"
  op: "AssignVariableOp"
  input: "linear/linear_model/type/weights"
  input: "save/Identity_4"
  attr {
    key: "dtype"
    value {
      type: DT_FLOAT
    }
  }
}
node {
  name: "save/Identity_5"
  op: "Identity"
  input: "save/RestoreV2:4"
  attr {
    key: "T"
    value {
      type: DT_FLOAT
    }
  }
  attr {
    key: "_output_shapes"
    value {
      list {
        shape {
          unknown_rank: true
        }
      }
    }
  }
}
node {
  name: "save/AssignVariableOp_4"
  op: "AssignVariableOp"
  input: "training/Ftrl/decay"
  input: "save/Identity_5"
  attr {
    key: "dtype"
    value {
      type: DT_FLOAT
    }
  }
}
node {
  name: "save/Identity_6"
  op: "Identity"
  input: "save/RestoreV2:5"
  attr {
    key: "T"
    value {
      type: DT_FLOAT
    }
  }
  attr {
    key: "_output_shapes"
    value {
      list {
        shape {
          unknown_rank: true
        }
      }
    }
  }
}
node {
  name: "save/AssignVariableOp_5"
  op: "AssignVariableOp"
  input: "training/Ftrl/l1_regularization_strength"
  input: "save/Identity_6"
  attr {
    key: "dtype"
    value {
      type: DT_FLOAT
    }
  }
}
node {
  name: "save/Identity_7"
  op: "Identity"
  input: "save/RestoreV2:6"
  attr {
    key: "T"
    value {
      type: DT_FLOAT
    }
  }
  attr {
    key: "_output_shapes"
    value {
      list {
        shape {
          unknown_rank: true
        }
      }
    }
  }
}
node {
  name: "save/AssignVariableOp_6"
  op: "AssignVariableOp"
  input: "training/Ftrl/l2_regularization_strength"
  input: "save/Identity_7"
  attr {
    key: "dtype"
    value {
      type: DT_FLOAT
    }
  }
}
node {
  name: "save/Identity_8"
  op: "Identity"
  input: "save/RestoreV2:7"
  attr {
    key: "T"
    value {
      type: DT_FLOAT
    }
  }
  attr {
    key: "_output_shapes"
    value {
      list {
        shape {
          unknown_rank: true
        }
      }
    }
  }
}
node {
  name: "save/AssignVariableOp_7"
  op: "AssignVariableOp"
  input: "training/Ftrl/learning_rate"
  input: "save/Identity_8"
  attr {
    key: "dtype"
    value {
      type: DT_FLOAT
    }
  }
}
node {
  name: "save/Identity_9"
  op: "Identity"
  input: "save/RestoreV2:8"
  attr {
    key: "T"
    value {
      type: DT_FLOAT
    }
  }
  attr {
    key: "_output_shapes"
    value {
      list {
        shape {
          unknown_rank: true
        }
      }
    }
  }
}
node {
  name: "save/AssignVariableOp_8"
  op: "AssignVariableOp"
  input: "training/Ftrl/learning_rate_power"
  input: "save/Identity_9"
  attr {
    key: "dtype"
    value {
      type: DT_FLOAT
    }
  }
}
node {
  name: "save/Identity_10"
  op: "Identity"
  input: "save/RestoreV2:9"
  attr {
    key: "T"
    value {
      type: DT_FLOAT
    }
  }
  attr {
    key: "_output_shapes"
    value {
      list {
        shape {
          unknown_rank: true
        }
      }
    }
  }
}
node {
  name: "save/AssignVariableOp_9"
  op: "AssignVariableOp"
  input: "training/Ftrl/linear/linear_model/bias_weights/accumulator"
  input: "save/Identity_10"
  attr {
    key: "dtype"
    value {
      type: DT_FLOAT
    }
  }
}
node {
  name: "save/Identity_11"
  op: "Identity"
  input: "save/RestoreV2:10"
  attr {
    key: "T"
    value {
      type: DT_FLOAT
    }
  }
  attr {
    key: "_output_shapes"
    value {
      list {
        shape {
          unknown_rank: true
        }
      }
    }
  }
}
node {
  name: "save/AssignVariableOp_10"
  op: "AssignVariableOp"
  input: "training/Ftrl/linear/linear_model/bias_weights/linear"
  input: "save/Identity_11"
  attr {
    key: "dtype"
    value {
      type: DT_FLOAT
    }
  }
}
node {
  name: "save/Identity_12"
  op: "Identity"
  input: "save/RestoreV2:11"
  attr {
    key: "T"
    value {
      type: DT_FLOAT
    }
  }
  attr {
    key: "_output_shapes"
    value {
      list {
        shape {
          unknown_rank: true
        }
      }
    }
  }
}
node {
  name: "save/AssignVariableOp_11"
  op: "AssignVariableOp"
  input: "training/Ftrl/linear/linear_model/sq_footage/weights/accumulator"
  input: "save/Identity_12"
  attr {
    key: "dtype"
    value {
      type: DT_FLOAT
    }
  }
}
node {
  name: "save/Identity_13"
  op: "Identity"
  input: "save/RestoreV2:12"
  attr {
    key: "T"
    value {
      type: DT_FLOAT
    }
  }
  attr {
    key: "_output_shapes"
    value {
      list {
        shape {
          unknown_rank: true
        }
      }
    }
  }
}
node {
  name: "save/AssignVariableOp_12"
  op: "AssignVariableOp"
  input: "training/Ftrl/linear/linear_model/sq_footage/weights/linear"
  input: "save/Identity_13"
  attr {
    key: "dtype"
    value {
      type: DT_FLOAT
    }
  }
}
node {
  name: "save/Identity_14"
  op: "Identity"
  input: "save/RestoreV2:13"
  attr {
    key: "T"
    value {
      type: DT_FLOAT
    }
  }
  attr {
    key: "_output_shapes"
    value {
      list {
        shape {
          unknown_rank: true
        }
      }
    }
  }
}
node {
  name: "save/AssignVariableOp_13"
  op: "AssignVariableOp"
  input: "training/Ftrl/linear/linear_model/type/weights/accumulator"
  input: "save/Identity_14"
  attr {
    key: "dtype"
    value {
      type: DT_FLOAT
    }
  }
}
node {
  name: "save/Identity_15"
  op: "Identity"
  input: "save/RestoreV2:14"
  attr {
    key: "T"
    value {
      type: DT_FLOAT
    }
  }
  attr {
    key: "_output_shapes"
    value {
      list {
        shape {
          unknown_rank: true
        }
      }
    }
  }
}
node {
  name: "save/AssignVariableOp_14"
  op: "AssignVariableOp"
  input: "training/Ftrl/linear/linear_model/type/weights/linear"
  input: "save/Identity_15"
  attr {
    key: "dtype"
    value {
      type: DT_FLOAT
    }
  }
}
node {
  name: "save/restore_shard"
  op: "NoOp"
  input: "^save/AssignVariableOp"
  input: "^save/AssignVariableOp_1"
  input: "^save/AssignVariableOp_10"
  input: "^save/AssignVariableOp_11"
  input: "^save/AssignVariableOp_12"
  input: "^save/AssignVariableOp_13"
  input: "^save/AssignVariableOp_14"
  input: "^save/AssignVariableOp_2"
  input: "^save/AssignVariableOp_3"
  input: "^save/AssignVariableOp_4"
  input: "^save/AssignVariableOp_5"
  input: "^save/AssignVariableOp_6"
  input: "^save/AssignVariableOp_7"
  input: "^save/AssignVariableOp_8"
  input: "^save/AssignVariableOp_9"
}
node {
  name: "save/restore_all"
  op: "NoOp"
  input: "^save/restore_shard"
}
library {
  function {
    signature {
      name: "zero_fraction_total_zero_zero_count_false_159"
      input_arg {
        name: "zero_fraction_readvariableop_linear_linear_model_sq_footage_weights"
        type: DT_RESOURCE
      }
      input_arg {
        name: "tofloat_zero_fraction_total_size_size"
        type: DT_INT64
      }
      output_arg {
        name: "mul"
        type: DT_FLOAT
      }
      is_stateful: true
    }
    node_def {
      name: "zero_fraction/ReadVariableOp"
      op: "ReadVariableOp"
      input: "zero_fraction_readvariableop_linear_linear_model_sq_footage_weights"
      attr {
        key: "_output_shapes"
        value {
          list {
            shape {
              dim {
                size: 1
              }
              dim {
                size: 1
              }
            }
          }
        }
      }
      attr {
        key: "dtype"
        value {
          type: DT_FLOAT
        }
      }
    }
    node_def {
      name: "zero_fraction/Size"
      op: "Const"
      attr {
        key: "_output_shapes"
        value {
          list {
            shape {
            }
          }
        }
      }
      attr {
        key: "dtype"
        value {
          type: DT_INT64
        }
      }
      attr {
        key: "value"
        value {
          tensor {
            dtype: DT_INT64
            tensor_shape {
            }
            int64_val: 1
          }
        }
      }
    }
    node_def {
      name: "zero_fraction/LessEqual/y"
      op: "Const"
      attr {
        key: "_output_shapes"
        value {
          list {
            shape {
            }
          }
        }
      }
      attr {
        key: "dtype"
        value {
          type: DT_INT64
        }
      }
      attr {
        key: "value"
        value {
          tensor {
            dtype: DT_INT64
            tensor_shape {
            }
            int64_val: 2147483647
          }
        }
      }
    }
    node_def {
      name: "zero_fraction/LessEqual"
      op: "LessEqual"
      input: "zero_fraction/Size:output:0"
      input: "zero_fraction/LessEqual/y:output:0"
      attr {
        key: "T"
        value {
          type: DT_INT64
        }
      }
      attr {
        key: "_output_shapes"
        value {
          list {
            shape {
            }
          }
        }
      }
    }
    node_def {
      name: "zero_fraction/cond"
      op: "StatelessIf"
      input: "zero_fraction/LessEqual:z:0"
      input: "zero_fraction/ReadVariableOp:value:0"
      attr {
        key: "Tcond"
        value {
          type: DT_BOOL
        }
      }
      attr {
        key: "Tin"
        value {
          list {
            type: DT_FLOAT
          }
        }
      }
      attr {
        key: "Tout"
        value {
          list {
            type: DT_INT64
          }
        }
      }
      attr {
        key: "_lower_using_switch_merge"
        value {
          b: true
        }
      }
      attr {
        key: "_output_shapes"
        value {
          list {
            shape {
            }
          }
        }
      }
      attr {
        key: "else_branch"
        value {
          func {
            name: "zero_fraction_cond_false_169"
          }
        }
      }
      attr {
        key: "output_shapes"
        value {
          list {
            shape {
            }
          }
        }
      }
      attr {
        key: "then_branch"
        value {
          func {
            name: "zero_fraction_cond_true_168"
          }
        }
      }
    }
    node_def {
      name: "zero_fraction/cond/Identity"
      op: "Identity"
      input: "zero_fraction/cond:output:0"
      attr {
        key: "T"
        value {
          type: DT_INT64
        }
      }
      attr {
        key: "_output_shapes"
        value {
          list {
            shape {
            }
          }
        }
      }
    }
    node_def {
      name: "zero_fraction/counts_to_fraction/sub"
      op: "Sub"
      input: "zero_fraction/Size:output:0"
      input: "zero_fraction/cond/Identity:output:0"
      attr {
        key: "T"
        value {
          type: DT_INT64
        }
      }
      attr {
        key: "_output_shapes"
        value {
          list {
            shape {
            }
          }
        }
      }
    }
    node_def {
      name: "zero_fraction/counts_to_fraction/Cast"
      op: "Cast"
      input: "zero_fraction/counts_to_fraction/sub:z:0"
      attr {
        key: "DstT"
        value {
          type: DT_FLOAT
        }
      }
      attr {
        key: "SrcT"
        value {
          type: DT_INT64
        }
      }
      attr {
        key: "Truncate"
        value {
          b: false
        }
      }
      attr {
        key: "_output_shapes"
        value {
          list {
            shape {
            }
          }
        }
      }
    }
    node_def {
      name: "zero_fraction/counts_to_fraction/Cast_1"
      op: "Cast"
      input: "zero_fraction/Size:output:0"
      attr {
        key: "DstT"
        value {
          type: DT_FLOAT
        }
      }
      attr {
        key: "SrcT"
        value {
          type: DT_INT64
        }
      }
      attr {
        key: "Truncate"
        value {
          b: false
        }
      }
      attr {
        key: "_output_shapes"
        value {
          list {
            shape {
            }
          }
        }
      }
    }
    node_def {
      name: "zero_fraction/counts_to_fraction/truediv"
      op: "RealDiv"
      input: "zero_fraction/counts_to_fraction/Cast:y:0"
      input: "zero_fraction/counts_to_fraction/Cast_1:y:0"
      attr {
        key: "T"
        value {
          type: DT_FLOAT
        }
      }
      attr {
        key: "_output_shapes"
        value {
          list {
            shape {
            }
          }
        }
      }
    }
    node_def {
      name: "zero_fraction/fraction"
      op: "Identity"
      input: "zero_fraction/counts_to_fraction/truediv:z:0"
      attr {
        key: "T"
        value {
          type: DT_FLOAT
        }
      }
      attr {
        key: "_output_shapes"
        value {
          list {
            shape {
            }
          }
        }
      }
    }
    node_def {
      name: "ToFloat"
      op: "Cast"
      input: "tofloat_zero_fraction_total_size_size"
      attr {
        key: "DstT"
        value {
          type: DT_FLOAT
        }
      }
      attr {
        key: "SrcT"
        value {
          type: DT_INT64
        }
      }
      attr {
        key: "Truncate"
        value {
          b: false
        }
      }
      attr {
        key: "_output_shapes"
        value {
          list {
            shape {
            }
          }
        }
      }
    }
    node_def {
      name: "mul_0"
      op: "Mul"
      input: "zero_fraction/fraction:output:0"
      input: "ToFloat:y:0"
      attr {
        key: "T"
        value {
          type: DT_FLOAT
        }
      }
    }
    ret {
      key: "mul"
      value: "mul_0:z:0"
    }
    attr {
      key: "_input_shapes"
      value {
        list {
          shape {
            unknown_rank: true
          }
          shape {
          }
        }
      }
    }
    arg_attr {
      value {
      }
    }
    arg_attr {
      key: 1
      value {
      }
    }
  }
  function {
    signature {
      name: "zero_fraction_total_zero_zero_count_1_true_201"
      input_arg {
        name: "placeholder"
        type: DT_RESOURCE
      }
      input_arg {
        name: "placeholder_1"
        type: DT_INT64
      }
      output_arg {
        name: "const"
        type: DT_FLOAT
      }
    }
    node_def {
      name: "Const"
      op: "Const"
      attr {
        key: "_output_shapes"
        value {
          list {
            shape {
            }
          }
        }
      }
      attr {
        key: "dtype"
        value {
          type: DT_FLOAT
        }
      }
      attr {
        key: "value"
        value {
          tensor {
            dtype: DT_FLOAT
            tensor_shape {
            }
            float_val: 0.0
          }
        }
      }
    }
    ret {
      key: "const"
      value: "Const:output:0"
    }
    attr {
      key: "_input_shapes"
      value {
        list {
          shape {
            unknown_rank: true
          }
          shape {
          }
        }
      }
    }
    arg_attr {
      value {
      }
    }
    arg_attr {
      key: 1
      value {
      }
    }
  }
  function {
    signature {
      name: "zero_fraction_total_zero_zero_count_1_false_202"
      input_arg {
        name: "zero_fraction_readvariableop_linear_linear_model_type_weights"
        type: DT_RESOURCE
      }
      input_arg {
        name: "tofloat_zero_fraction_total_size_size_1"
        type: DT_INT64
      }
      output_arg {
        name: "mul"
        type: DT_FLOAT
      }
      is_stateful: true
    }
    node_def {
      name: "zero_fraction/ReadVariableOp"
      op: "ReadVariableOp"
      input: "zero_fraction_readvariableop_linear_linear_model_type_weights"
      attr {
        key: "_output_shapes"
        value {
          list {
            shape {
              dim {
                size: 2
              }
              dim {
                size: 1
              }
            }
          }
        }
      }
      attr {
        key: "dtype"
        value {
          type: DT_FLOAT
        }
      }
    }
    node_def {
      name: "zero_fraction/Size"
      op: "Const"
      attr {
        key: "_output_shapes"
        value {
          list {
            shape {
            }
          }
        }
      }
      attr {
        key: "dtype"
        value {
          type: DT_INT64
        }
      }
      attr {
        key: "value"
        value {
          tensor {
            dtype: DT_INT64
            tensor_shape {
            }
            int64_val: 2
          }
        }
      }
    }
    node_def {
      name: "zero_fraction/LessEqual/y"
      op: "Const"
      attr {
        key: "_output_shapes"
        value {
          list {
            shape {
            }
          }
        }
      }
      attr {
        key: "dtype"
        value {
          type: DT_INT64
        }
      }
      attr {
        key: "value"
        value {
          tensor {
            dtype: DT_INT64
            tensor_shape {
            }
            int64_val: 2147483647
          }
        }
      }
    }
    node_def {
      name: "zero_fraction/LessEqual"
      op: "LessEqual"
      input: "zero_fraction/Size:output:0"
      input: "zero_fraction/LessEqual/y:output:0"
      attr {
        key: "T"
        value {
          type: DT_INT64
        }
      }
      attr {
        key: "_output_shapes"
        value {
          list {
            shape {
            }
          }
        }
      }
    }
    node_def {
      name: "zero_fraction/cond"
      op: "StatelessIf"
      input: "zero_fraction/LessEqual:z:0"
      input: "zero_fraction/ReadVariableOp:value:0"
      attr {
        key: "Tcond"
        value {
          type: DT_BOOL
        }
      }
      attr {
        key: "Tin"
        value {
          list {
            type: DT_FLOAT
          }
        }
      }
      attr {
        key: "Tout"
        value {
          list {
            type: DT_INT64
          }
        }
      }
      attr {
        key: "_lower_using_switch_merge"
        value {
          b: true
        }
      }
      attr {
        key: "_output_shapes"
        value {
          list {
            shape {
            }
          }
        }
      }
      attr {
        key: "else_branch"
        value {
          func {
            name: "zero_fraction_cond_false_212"
          }
        }
      }
      attr {
        key: "output_shapes"
        value {
          list {
            shape {
            }
          }
        }
      }
      attr {
        key: "then_branch"
        value {
          func {
            name: "zero_fraction_cond_true_211"
          }
        }
      }
    }
    node_def {
      name: "zero_fraction/cond/Identity"
      op: "Identity"
      input: "zero_fraction/cond:output:0"
      attr {
        key: "T"
        value {
          type: DT_INT64
        }
      }
      attr {
        key: "_output_shapes"
        value {
          list {
            shape {
            }
          }
        }
      }
    }
    node_def {
      name: "zero_fraction/counts_to_fraction/sub"
      op: "Sub"
      input: "zero_fraction/Size:output:0"
      input: "zero_fraction/cond/Identity:output:0"
      attr {
        key: "T"
        value {
          type: DT_INT64
        }
      }
      attr {
        key: "_output_shapes"
        value {
          list {
            shape {
            }
          }
        }
      }
    }
    node_def {
      name: "zero_fraction/counts_to_fraction/Cast"
      op: "Cast"
      input: "zero_fraction/counts_to_fraction/sub:z:0"
      attr {
        key: "DstT"
        value {
          type: DT_FLOAT
        }
      }
      attr {
        key: "SrcT"
        value {
          type: DT_INT64
        }
      }
      attr {
        key: "Truncate"
        value {
          b: false
        }
      }
      attr {
        key: "_output_shapes"
        value {
          list {
            shape {
            }
          }
        }
      }
    }
    node_def {
      name: "zero_fraction/counts_to_fraction/Cast_1"
      op: "Cast"
      input: "zero_fraction/Size:output:0"
      attr {
        key: "DstT"
        value {
          type: DT_FLOAT
        }
      }
      attr {
        key: "SrcT"
        value {
          type: DT_INT64
        }
      }
      attr {
        key: "Truncate"
        value {
          b: false
        }
      }
      attr {
        key: "_output_shapes"
        value {
          list {
            shape {
            }
          }
        }
      }
    }
    node_def {
      name: "zero_fraction/counts_to_fraction/truediv"
      op: "RealDiv"
      input: "zero_fraction/counts_to_fraction/Cast:y:0"
      input: "zero_fraction/counts_to_fraction/Cast_1:y:0"
      attr {
        key: "T"
        value {
          type: DT_FLOAT
        }
      }
      attr {
        key: "_output_shapes"
        value {
          list {
            shape {
            }
          }
        }
      }
    }
    node_def {
      name: "zero_fraction/fraction"
      op: "Identity"
      input: "zero_fraction/counts_to_fraction/truediv:z:0"
      attr {
        key: "T"
        value {
          type: DT_FLOAT
        }
      }
      attr {
        key: "_output_shapes"
        value {
          list {
            shape {
            }
          }
        }
      }
    }
    node_def {
      name: "ToFloat"
      op: "Cast"
      input: "tofloat_zero_fraction_total_size_size_1"
      attr {
        key: "DstT"
        value {
          type: DT_FLOAT
        }
      }
      attr {
        key: "SrcT"
        value {
          type: DT_INT64
        }
      }
      attr {
        key: "Truncate"
        value {
          b: false
        }
      }
      attr {
        key: "_output_shapes"
        value {
          list {
            shape {
            }
          }
        }
      }
    }
    node_def {
      name: "mul_0"
      op: "Mul"
      input: "zero_fraction/fraction:output:0"
      input: "ToFloat:y:0"
      attr {
        key: "T"
        value {
          type: DT_FLOAT
        }
      }
    }
    ret {
      key: "mul"
      value: "mul_0:z:0"
    }
    attr {
      key: "_input_shapes"
      value {
        list {
          shape {
            unknown_rank: true
          }
          shape {
          }
        }
      }
    }
    arg_attr {
      value {
      }
    }
    arg_attr {
      key: 1
      value {
      }
    }
  }
  function {
    signature {
      name: "zero_fraction_cond_false_212"
      input_arg {
        name: "count_nonzero_notequal_zero_fraction_readvariableop"
        type: DT_FLOAT
      }
      output_arg {
        name: "count_nonzero_nonzero_count"
        type: DT_INT64
      }
    }
    node_def {
      name: "count_nonzero/zeros"
      op: "Const"
      attr {
        key: "_output_shapes"
        value {
          list {
            shape {
            }
          }
        }
      }
      attr {
        key: "dtype"
        value {
          type: DT_FLOAT
        }
      }
      attr {
        key: "value"
        value {
          tensor {
            dtype: DT_FLOAT
            tensor_shape {
            }
            float_val: 0.0
          }
        }
      }
    }
    node_def {
      name: "count_nonzero/NotEqual"
      op: "NotEqual"
      input: "count_nonzero_notequal_zero_fraction_readvariableop"
      input: "count_nonzero/zeros:output:0"
      attr {
        key: "T"
        value {
          type: DT_FLOAT
        }
      }
      attr {
        key: "_output_shapes"
        value {
          list {
            shape {
              dim {
                size: 2
              }
              dim {
                size: 1
              }
            }
          }
        }
      }
      attr {
        key: "incompatible_shape_error"
        value {
          b: true
        }
      }
    }
    node_def {
      name: "count_nonzero/Cast"
      op: "Cast"
      input: "count_nonzero/NotEqual:z:0"
      attr {
        key: "DstT"
        value {
          type: DT_INT64
        }
      }
      attr {
        key: "SrcT"
        value {
          type: DT_BOOL
        }
      }
      attr {
        key: "Truncate"
        value {
          b: false
        }
      }
      attr {
        key: "_output_shapes"
        value {
          list {
            shape {
              dim {
                size: 2
              }
              dim {
                size: 1
              }
            }
          }
        }
      }
    }
    node_def {
      name: "count_nonzero/Const"
      op: "Const"
      attr {
        key: "_output_shapes"
        value {
          list {
            shape {
              dim {
                size: 2
              }
            }
          }
        }
      }
      attr {
        key: "dtype"
        value {
          type: DT_INT32
        }
      }
      attr {
        key: "value"
        value {
          tensor {
            dtype: DT_INT32
            tensor_shape {
              dim {
                size: 2
              }
            }
            tensor_content: "\000\000\000\000\001\000\000\000"
          }
        }
      }
    }
    node_def {
      name: "count_nonzero/nonzero_count"
      op: "Sum"
      input: "count_nonzero/Cast:y:0"
      input: "count_nonzero/Const:output:0"
      attr {
        key: "T"
        value {
          type: DT_INT64
        }
      }
      attr {
        key: "Tidx"
        value {
          type: DT_INT32
        }
      }
      attr {
        key: "_output_shapes"
        value {
          list {
            shape {
            }
          }
        }
      }
      attr {
        key: "keep_dims"
        value {
          b: false
        }
      }
    }
    ret {
      key: "count_nonzero_nonzero_count"
      value: "count_nonzero/nonzero_count:output:0"
    }
    attr {
      key: "_input_shapes"
      value {
        list {
          shape {
            dim {
              size: 2
            }
            dim {
              size: 1
            }
          }
        }
      }
    }
    arg_attr {
      value {
      }
    }
  }
  function {
    signature {
      name: "global_step_cond_false_7"
      input_arg {
        name: "placeholder"
        type: DT_RESOURCE
      }
      input_arg {
        name: "global_step_initializer_zeros_0"
        type: DT_INT64
      }
      output_arg {
        name: "global_step_initializer_zeros"
        type: DT_INT64
      }
    }
    ret {
      key: "global_step_initializer_zeros"
      value: "global_step_initializer_zeros_0"
    }
    attr {
      key: "_input_shapes"
      value {
        list {
          shape {
            unknown_rank: true
          }
          shape {
          }
        }
      }
    }
    arg_attr {
      value {
      }
    }
    arg_attr {
      key: 1
      value {
      }
    }
  }
  function {
    signature {
      name: "zero_fraction_total_zero_zero_count_true_158"
      input_arg {
        name: "placeholder"
        type: DT_RESOURCE
      }
      input_arg {
        name: "placeholder_1"
        type: DT_INT64
      }
      output_arg {
        name: "const"
        type: DT_FLOAT
      }
    }
    node_def {
      name: "Const"
      op: "Const"
      attr {
        key: "_output_shapes"
        value {
          list {
            shape {
            }
          }
        }
      }
      attr {
        key: "dtype"
        value {
          type: DT_FLOAT
        }
      }
      attr {
        key: "value"
        value {
          tensor {
            dtype: DT_FLOAT
            tensor_shape {
            }
            float_val: 0.0
          }
        }
      }
    }
    ret {
      key: "const"
      value: "Const:output:0"
    }
    attr {
      key: "_input_shapes"
      value {
        list {
          shape {
            unknown_rank: true
          }
          shape {
          }
        }
      }
    }
    arg_attr {
      value {
      }
    }
    arg_attr {
      key: 1
      value {
      }
    }
  }
  function {
    signature {
      name: "zero_fraction_cond_true_211"
      input_arg {
        name: "count_nonzero_notequal_zero_fraction_readvariableop"
        type: DT_FLOAT
      }
      output_arg {
        name: "cast"
        type: DT_INT64
      }
    }
    node_def {
      name: "count_nonzero/zeros"
      op: "Const"
      attr {
        key: "_output_shapes"
        value {
          list {
            shape {
            }
          }
        }
      }
      attr {
        key: "dtype"
        value {
          type: DT_FLOAT
        }
      }
      attr {
        key: "value"
        value {
          tensor {
            dtype: DT_FLOAT
            tensor_shape {
            }
            float_val: 0.0
          }
        }
      }
    }
    node_def {
      name: "count_nonzero/NotEqual"
      op: "NotEqual"
      input: "count_nonzero_notequal_zero_fraction_readvariableop"
      input: "count_nonzero/zeros:output:0"
      attr {
        key: "T"
        value {
          type: DT_FLOAT
        }
      }
      attr {
        key: "_output_shapes"
        value {
          list {
            shape {
              dim {
                size: 2
              }
              dim {
                size: 1
              }
            }
          }
        }
      }
      attr {
        key: "incompatible_shape_error"
        value {
          b: true
        }
      }
    }
    node_def {
      name: "count_nonzero/Cast"
      op: "Cast"
      input: "count_nonzero/NotEqual:z:0"
      attr {
        key: "DstT"
        value {
          type: DT_INT32
        }
      }
      attr {
        key: "SrcT"
        value {
          type: DT_BOOL
        }
      }
      attr {
        key: "Truncate"
        value {
          b: false
        }
      }
      attr {
        key: "_output_shapes"
        value {
          list {
            shape {
              dim {
                size: 2
              }
              dim {
                size: 1
              }
            }
          }
        }
      }
    }
    node_def {
      name: "count_nonzero/Const"
      op: "Const"
      attr {
        key: "_output_shapes"
        value {
          list {
            shape {
              dim {
                size: 2
              }
            }
          }
        }
      }
      attr {
        key: "dtype"
        value {
          type: DT_INT32
        }
      }
      attr {
        key: "value"
        value {
          tensor {
            dtype: DT_INT32
            tensor_shape {
              dim {
                size: 2
              }
            }
            tensor_content: "\000\000\000\000\001\000\000\000"
          }
        }
      }
    }
    node_def {
      name: "count_nonzero/nonzero_count"
      op: "Sum"
      input: "count_nonzero/Cast:y:0"
      input: "count_nonzero/Const:output:0"
      attr {
        key: "T"
        value {
          type: DT_INT32
        }
      }
      attr {
        key: "Tidx"
        value {
          type: DT_INT32
        }
      }
      attr {
        key: "_output_shapes"
        value {
          list {
            shape {
            }
          }
        }
      }
      attr {
        key: "keep_dims"
        value {
          b: false
        }
      }
    }
    node_def {
      name: "Cast"
      op: "Cast"
      input: "count_nonzero/nonzero_count:output:0"
      attr {
        key: "DstT"
        value {
          type: DT_INT64
        }
      }
      attr {
        key: "SrcT"
        value {
          type: DT_INT32
        }
      }
      attr {
        key: "Truncate"
        value {
          b: false
        }
      }
      attr {
        key: "_output_shapes"
        value {
          list {
            shape {
            }
          }
        }
      }
    }
    ret {
      key: "cast"
      value: "Cast:y:0"
    }
    attr {
      key: "_input_shapes"
      value {
        list {
          shape {
            dim {
              size: 2
            }
            dim {
              size: 1
            }
          }
        }
      }
    }
    arg_attr {
      value {
      }
    }
  }
  function {
    signature {
      name: "global_step_cond_true_6"
      input_arg {
        name: "read_readvariableop_global_step"
        type: DT_RESOURCE
      }
      input_arg {
        name: "placeholder"
        type: DT_INT64
      }
      output_arg {
        name: "identity"
        type: DT_INT64
      }
      is_stateful: true
    }
    node_def {
      name: "Read/ReadVariableOp"
      op: "ReadVariableOp"
      input: "read_readvariableop_global_step"
      attr {
        key: "_output_shapes"
        value {
          list {
            shape {
            }
          }
        }
      }
      attr {
        key: "dtype"
        value {
          type: DT_INT64
        }
      }
    }
    node_def {
      name: "Identity"
      op: "Identity"
      input: "Read/ReadVariableOp:value:0"
      attr {
        key: "T"
        value {
          type: DT_INT64
        }
      }
      attr {
        key: "_output_shapes"
        value {
          list {
            shape {
            }
          }
        }
      }
    }
    ret {
      key: "identity"
      value: "Identity:output:0"
    }
    attr {
      key: "_input_shapes"
      value {
        list {
          shape {
            unknown_rank: true
          }
          shape {
          }
        }
      }
    }
    arg_attr {
      value {
      }
    }
    arg_attr {
      key: 1
      value {
      }
    }
  }
  function {
    signature {
      name: "zero_fraction_cond_false_169"
      input_arg {
        name: "count_nonzero_notequal_zero_fraction_readvariableop"
        type: DT_FLOAT
      }
      output_arg {
        name: "count_nonzero_nonzero_count"
        type: DT_INT64
      }
    }
    node_def {
      name: "count_nonzero/zeros"
      op: "Const"
      attr {
        key: "_output_shapes"
        value {
          list {
            shape {
            }
          }
        }
      }
      attr {
        key: "dtype"
        value {
          type: DT_FLOAT
        }
      }
      attr {
        key: "value"
        value {
          tensor {
            dtype: DT_FLOAT
            tensor_shape {
            }
            float_val: 0.0
          }
        }
      }
    }
    node_def {
      name: "count_nonzero/NotEqual"
      op: "NotEqual"
      input: "count_nonzero_notequal_zero_fraction_readvariableop"
      input: "count_nonzero/zeros:output:0"
      attr {
        key: "T"
        value {
          type: DT_FLOAT
        }
      }
      attr {
        key: "_output_shapes"
        value {
          list {
            shape {
              dim {
                size: 1
              }
              dim {
                size: 1
              }
            }
          }
        }
      }
      attr {
        key: "incompatible_shape_error"
        value {
          b: true
        }
      }
    }
    node_def {
      name: "count_nonzero/Cast"
      op: "Cast"
      input: "count_nonzero/NotEqual:z:0"
      attr {
        key: "DstT"
        value {
          type: DT_INT64
        }
      }
      attr {
        key: "SrcT"
        value {
          type: DT_BOOL
        }
      }
      attr {
        key: "Truncate"
        value {
          b: false
        }
      }
      attr {
        key: "_output_shapes"
        value {
          list {
            shape {
              dim {
                size: 1
              }
              dim {
                size: 1
              }
            }
          }
        }
      }
    }
    node_def {
      name: "count_nonzero/Const"
      op: "Const"
      attr {
        key: "_output_shapes"
        value {
          list {
            shape {
              dim {
                size: 2
              }
            }
          }
        }
      }
      attr {
        key: "dtype"
        value {
          type: DT_INT32
        }
      }
      attr {
        key: "value"
        value {
          tensor {
            dtype: DT_INT32
            tensor_shape {
              dim {
                size: 2
              }
            }
            tensor_content: "\000\000\000\000\001\000\000\000"
          }
        }
      }
    }
    node_def {
      name: "count_nonzero/nonzero_count"
      op: "Sum"
      input: "count_nonzero/Cast:y:0"
      input: "count_nonzero/Const:output:0"
      attr {
        key: "T"
        value {
          type: DT_INT64
        }
      }
      attr {
        key: "Tidx"
        value {
          type: DT_INT32
        }
      }
      attr {
        key: "_output_shapes"
        value {
          list {
            shape {
            }
          }
        }
      }
      attr {
        key: "keep_dims"
        value {
          b: false
        }
      }
    }
    ret {
      key: "count_nonzero_nonzero_count"
      value: "count_nonzero/nonzero_count:output:0"
    }
    attr {
      key: "_input_shapes"
      value {
        list {
          shape {
            dim {
              size: 1
            }
            dim {
              size: 1
            }
          }
        }
      }
    }
    arg_attr {
      value {
      }
    }
  }
  function {
    signature {
      name: "zero_fraction_cond_true_168"
      input_arg {
        name: "count_nonzero_notequal_zero_fraction_readvariableop"
        type: DT_FLOAT
      }
      output_arg {
        name: "cast"
        type: DT_INT64
      }
    }
    node_def {
      name: "count_nonzero/zeros"
      op: "Const"
      attr {
        key: "_output_shapes"
        value {
          list {
            shape {
            }
          }
        }
      }
      attr {
        key: "dtype"
        value {
          type: DT_FLOAT
        }
      }
      attr {
        key: "value"
        value {
          tensor {
            dtype: DT_FLOAT
            tensor_shape {
            }
            float_val: 0.0
          }
        }
      }
    }
    node_def {
      name: "count_nonzero/NotEqual"
      op: "NotEqual"
      input: "count_nonzero_notequal_zero_fraction_readvariableop"
      input: "count_nonzero/zeros:output:0"
      attr {
        key: "T"
        value {
          type: DT_FLOAT
        }
      }
      attr {
        key: "_output_shapes"
        value {
          list {
            shape {
              dim {
                size: 1
              }
              dim {
                size: 1
              }
            }
          }
        }
      }
      attr {
        key: "incompatible_shape_error"
        value {
          b: true
        }
      }
    }
    node_def {
      name: "count_nonzero/Cast"
      op: "Cast"
      input: "count_nonzero/NotEqual:z:0"
      attr {
        key: "DstT"
        value {
          type: DT_INT32
        }
      }
      attr {
        key: "SrcT"
        value {
          type: DT_BOOL
        }
      }
      attr {
        key: "Truncate"
        value {
          b: false
        }
      }
      attr {
        key: "_output_shapes"
        value {
          list {
            shape {
              dim {
                size: 1
              }
              dim {
                size: 1
              }
            }
          }
        }
      }
    }
    node_def {
      name: "count_nonzero/Const"
      op: "Const"
      attr {
        key: "_output_shapes"
        value {
          list {
            shape {
              dim {
                size: 2
              }
            }
          }
        }
      }
      attr {
        key: "dtype"
        value {
          type: DT_INT32
        }
      }
      attr {
        key: "value"
        value {
          tensor {
            dtype: DT_INT32
            tensor_shape {
              dim {
                size: 2
              }
            }
            tensor_content: "\000\000\000\000\001\000\000\000"
          }
        }
      }
    }
    node_def {
      name: "count_nonzero/nonzero_count"
      op: "Sum"
      input: "count_nonzero/Cast:y:0"
      input: "count_nonzero/Const:output:0"
      attr {
        key: "T"
        value {
          type: DT_INT32
        }
      }
      attr {
        key: "Tidx"
        value {
          type: DT_INT32
        }
      }
      attr {
        key: "_output_shapes"
        value {
          list {
            shape {
            }
          }
        }
      }
      attr {
        key: "keep_dims"
        value {
          b: false
        }
      }
    }
    node_def {
      name: "Cast"
      op: "Cast"
      input: "count_nonzero/nonzero_count:output:0"
      attr {
        key: "DstT"
        value {
          type: DT_INT64
        }
      }
      attr {
        key: "SrcT"
        value {
          type: DT_INT32
        }
      }
      attr {
        key: "Truncate"
        value {
          b: false
        }
      }
      attr {
        key: "_output_shapes"
        value {
          list {
            shape {
            }
          }
        }
      }
    }
    ret {
      key: "cast"
      value: "Cast:y:0"
    }
    attr {
      key: "_input_shapes"
      value {
        list {
          shape {
            dim {
              size: 1
            }
            dim {
              size: 1
            }
          }
        }
      }
    }
    arg_attr {
      value {
      }
    }
  }
}
versions {
  producer: 119
  min_consumer: 12
}
